finn/finn_config/model_v2.onnx (onnx, 35200 bytes, 26 tensors)

temporal_blocks.0.chan_norm1.weight f4 [4]
000000 16 1f 71 3f 64 8a 85 3f 38 f9 b2 3f 9e e6 8b 3f
       0.9418806 1.0432858 1.3982306 1.0929754

temporal_blocks.0.chan_norm1.bias f4 [4]
000000 f9 7d 4c be 5a b4 00 3f bd 5b 53 be ed 1c 0c be
       -0.1996993 0.50275195 -0.20640464 -0.1368291

temporal_blocks.0.chan_norm2.weight f4 [4]
000000 89 af 1e 3e 55 3c 8b 3e ef b3 f3 3e 99 73 d6 3e
       0.15496649 0.27194467 0.47598216 0.4188507

temporal_blocks.0.chan_norm2.bias f4 [4]
000000 37 19 bb be 5b 0c 09 bf 6c 4e a0 be 9c 8a 02 bf
       -0.36542675 -0.5353448 -0.3130983 -0.5099275

temporal_blocks.0.downsample.bias f4 [4]
000000 42 7a 21 bf 56 81 0c 3f 2b eb 1b 3f 8f 41 85 3f
       -0.63077176 0.5488485 0.6090571 1.0410632

temporal_blocks.1.chan_norm1.weight f4 [8]
000000 50 01 bb 3f 3b fa 76 3f ff 39 c6 3f 70 0f 47 3f
       1.4609776 0.9647557 1.5486449 0.7775793
000010 3f b9 72 3f 0a 80 5d 3f f1 8b 84 3f 93 9a dd 3f
       0.94813913 0.865235 1.0355207 1.7312797

temporal_blocks.1.chan_norm1.bias f4 [8]
000000 d6 ec 6d 3d e4 c2 25 3f 79 82 9a 3d 24 6c c4 be
       0.058087192 0.64750504 0.07544417 -0.38363755
000010 1a 19 06 bf 68 3a 11 3f b7 4a 06 3d 80 09 f5 3d
       -0.5238205 0.56729746 0.032786097 0.119647026

temporal_blocks.1.chan_norm2.weight f4 [8]
000000 e9 8f cf 3f b6 41 ea 3f 12 95 a1 3f 82 b8 b4 3f
       1.6215793 1.8301303 1.2623618 1.4118807
000010 9f c6 99 3f ff 3e a9 3f e6 58 d4 3f 53 dc 8f 3f
       1.2013739 1.322235 1.658963 1.1239113

temporal_blocks.1.chan_norm2.bias f4 [8]
000000 15 9d 90 3e 7c bb ce 3d a1 62 5a 3f a3 6a 4a 3d
       0.28244844 0.100943536 0.85306746 0.049418103
000010 ec 3e 23 3e c2 02 a3 be 6c 6a f1 be ae de b8 be
       0.15941972 -0.31838042 -0.47151506 -0.3610739

temporal_blocks.1.downsample.bias f4 [8]
000000 fa ab 02 be d2 26 9f be 2f f4 88 bf 62 26 28 bf
       -0.12760916 -0.31084305 -1.0699519 -0.6568357
000010 63 de 94 be 8b 12 8c 3e 79 d6 85 be b4 e8 04 bf
       -0.29075918 0.27357897 -0.26140192 -0.51917577

temporal_blocks.2.chan_norm1.weight f4 [16]
000000 6d a6 cf 3f 82 c5 a3 3f a9 7b b6 3f d5 01 e3 3f
       1.6222664 1.279465 1.4256488 1.7734934
000010 5d d3 70 3f 70 71 54 3f 88 c9 d0 3f b6 50 b7 3f
       0.94072515 0.8298559 1.6311502 1.4321506
000020 5f 8a 0e 3f 14 19 b0 3f bd f1 47 3f 98 42 51 3f
       0.5567989 1.3757653 0.7810324 0.8174224
000030 69 27 c0 3f 92 5c 97 3f a5 6f 1f 3f c1 b4 9c 3f
       1.5012027 1.1825125 0.6227973 1.2242662

temporal_blocks.2.chan_norm1.bias f4 [16]
000000 d5 94 a5 bc 03 46 1a be 5b 44 a5 be 88 9e 12 3e
       -0.02021257 -0.1506577 -0.32278714 0.14318287
000010 82 06 3e bd 39 50 82 3e 00 64 7a 3e a6 a1 8d be
       -0.046392925 0.2545183 0.2445221 -0.2766239
000020 b5 0d d2 3e 18 5f 14 3d 27 95 87 be 23 de 1d bd
       0.41026083 0.0362235 -0.26480982 -0.038541924
000030 16 8a 8e 3e 90 7c e7 3d da 99 ca be 16 45 96 3d
       0.27839726 0.11303055 -0.39570504 0.07337396

temporal_blocks.2.chan_norm2.weight f4 [16]
000000 28 d2 86 40 a2 6a 49 40 fb 32 16 3f 3d 7f 50 40
       4.213154 3.1471334 0.5867154 3.257766
000010 6f d4 83 40 de 30 38 40 33 3c 8a 40 51 5e 68 40
       4.119682 2.8779826 4.3198485 3.6307566
000020 2a ce 5d 40 7f a4 86 40 ca bf 64 40 fe 34 69 40
       3.4657083 4.20758 3.5742059 3.6438594
000030 cf 35 7f 40 29 7f 49 40 59 eb 61 40 6e 14 42 40
       3.9876592 3.1483862 3.5299895 3.032497

temporal_blocks.2.chan_norm2.bias f4 [16]
000000 82 29 78 be 52 0b 45 3e 0d f6 32 be 77 d8 ba 3c
       -0.24234584 0.192426 -0.17476673 0.022808297
000010 cd 10 0a 3e f6 91 ae bc 79 79 4f 3e 0d 7a c6 3d
       0.13482971 -0.021309834 0.20261182 0.09691248
000020 64 b7 d4 bd cc c4 51 be 48 38 42 3e cc 2a a4 3e
       -0.103865415 -0.20485228 0.18966782 0.320639
000030 9b cc fd 3d 30 6e 11 be 8e 84 d8 3d 9d 01 d1 bd
       0.12392541 -0.1420219 0.10572158 -0.10205386

temporal_blocks.2.downsample.bias f4 [16]
000000 32 52 7e be da e2 02 bf 9d 43 46 bf 3d 2c 91 3d
       -0.24836043 -0.511274 -0.7744692 0.07088516
000010 89 30 ef be 2a 9c 9b bd 9c e8 e4 be 3b 34 99 bf
       -0.46716717 -0.07598145 -0.44708717 -1.1969064
000020 51 fd 63 3e 2c 0e 3d 3d b5 b3 9e 3e 8d 35 3c bf
       0.22264601 0.046156093 0.3099648 -0.7351921
000030 2e 18 13 be 68 3a 8a bf 21 7d 76 bd 34 07 28 be
       -0.14364693 -1.0799074 -0.060177926 -0.16408998

fc.bias f4 [5]
000000 ed 27 5e be 61 72 f0 bd f2 86 b4 bd 01 62 9e 3e
       -0.21694918 -0.11740566 -0.08814801 0.30934146
000010 05 b2 3e be
       -0.18622597

/temporal_blocks.0/conv1/weight_quant/tensor_quant/int_quant/Mul_output_0 f4 [4, 1, 1, 5]
000000 db 7b 18 bf f3 dc 13 bc 55 61 81 3d ce 4f cb 3d
       -0.5956399 -0.009024846 0.06317393 0.09927331
000010 0b 3e 0f bf ff 11 c2 be 48 35 34 bf db 7b 98 be
       -0.55954045 -0.37904355 -0.703938 -0.29781994
000020 6c cb dd 3e 8b c2 3f 3f e0 1a 60 3f 0b 47 f0 bd
       0.4331926 0.74906224 0.8754101 -0.117323
000030 48 35 34 bf ce 4f cb bd c2 1a 9d be 39 b5 92 bf
       -0.703938 -0.09927331 -0.30684477 -1.1461555
000040 f3 dc 93 bd f3 dc 13 bd 17 73 3d 3f f3 dc 93 bd
       -0.07219877 -0.036099385 0.7400374 -0.07219877

/temporal_blocks.0/conv2/weight_quant/tensor_quant/int_quant/Mul_output_0 f4 [4, 4, 1, 5]
000000 f6 98 e4 be c9 08 3b be b3 40 a6 be b3 40 26 3c
       -0.4464795 -0.1826507 -0.32471237 0.010147261
000010 8f 7b 04 3f ad 0e a1 3e 01 fd 6e 3e cf 3a c0 3e
       0.51751035 0.3145651 0.23338701 0.37544867
000020 00 00 00 80 91 14 07 bf 9a df 0e bf 0c 61 f9 bc
       -0.0 -0.52765757 -0.5580994 -0.030441783
000030 b3 40 26 3c f6 98 e4 3e eb 34 5a 3f 0c 61 f9 3d
       0.010147261 0.4464795 0.85236996 0.12176713
000040 91 14 07 3e e0 d0 4f 3d b3 40 a6 be b3 40 a6 bc
       0.13191439 0.050736308 -0.32471237 -0.020294523
000050 e0 d0 cf bd a8 dc 1b 3f 97 46 8c be 01 fd 6e be
       -0.101472616 0.6088357 -0.27397606 -0.23338701
000060 32 f4 a4 bf 9d 78 91 bd ad 0e a1 be b3 40 26 3e
       -1.2887022 -0.07103083 -0.3145651 0.16235618
000070 94 ad 09 3f 01 fd 6e 3f 0a c8 76 bf d5 6c 45 be
       0.53780484 0.93354803 -0.96398985 -0.19279797
000080 cf 3a c0 be be a4 30 be fc ca e9 be d5 6c 45 3f
       -0.37544867 -0.17250344 -0.45662677 0.7711919
000090 d5 6c 45 3f f6 98 e4 be b3 40 26 3c 9d 78 91 bd
       0.7711919 -0.4464795 0.010147261 -0.07103083
0000a0 e0 d0 cf 3d 12 93 fe be c9 08 bb bd d5 6c 45 3e
       0.101472616 -0.4972158 -0.09132535 0.19279797
0000b0 be a4 30 3e c9 08 3b be a8 dc 9b 3e c9 08 bb bd
       0.17250344 -0.1826507 0.30441785 -0.09132535
0000c0 eb 34 5a 3e 97 46 8c 3e 32 f4 a4 3f e0 d0 cf 3e
       0.21309249 0.27397606 1.2887022 0.40589046
0000d0 b3 40 a6 3c b0 a7 23 bf b3 40 26 bf fc ca e9 be
       0.020294523 -0.63927746 -0.64942473 -0.45662677
0000e0 be a4 30 bf 9d 78 11 3e d5 6c 45 3f e0 d0 4f 3e
       -0.69001377 0.14206167 0.7711919 0.20294523
0000f0 0c 61 f9 bc 9f 11 14 3f fc ca e9 3e c4 d6 35 3f
       -0.030441783 0.5783939 0.45662677 0.7103083
000100 b9 72 ab 3e 91 14 87 3e fc ca e9 be b6 d9 28 bf
       0.33485964 0.26382878 -0.45662677 -0.659572
000110 cf 3a 40 bf 94 ad 09 bf e0 d0 4f 3d b3 40 a6 3c
       -0.75089735 -0.53780484 0.050736308 0.020294523
000120 e0 d0 4f 3e 9d 78 91 bd ad 0e a1 3e 04 96 71 bf
       0.20294523 -0.07103083 0.3145651 -0.9436953
000130 b9 72 2b 3f 91 14 07 3e c9 08 bb 3d b3 40 26 3c
       0.6697193 0.13191439 0.09132535 0.010147261

/temporal_blocks.0/downsample/weight_quant/tensor_quant/int_quant/Mul_output_0 f4 [4, 1, 1, 1]
000000 1e c9 a9 3f 33 65 94 bf 20 4b 6b be fe 5c 08 3f
       1.3264501 -1.1593384 -0.22977877 0.53266895

/temporal_blocks.1/conv1/weight_quant/tensor_quant/int_quant/Mul_output_0 f4 [8, 4, 1, 5]
000000 3e 74 9a bd 53 f0 4d 3d 5d ae 67 be 43 53 27 be
       -0.07541703 0.05027802 -0.22625108 -0.16340356
000010 00 ac 1d 3f 34 b6 80 bd c6 c2 2d bf e5 fc fa 3e
       0.61590576 -0.062847525 -0.67875326 0.49021068
000020 34 b6 80 3d 53 f0 4d 3c 63 8d 74 3e 43 53 a7 be
       0.062847525 0.012569505 0.2388206 -0.3268071
000030 63 8d 74 3e 43 53 27 3e e5 fc fa 3e 58 cf 5a be
       0.2388206 0.16340356 0.49021068 -0.21368158
000040 49 32 b4 be 58 cf 5a be 34 b6 00 3e 4e 11 41 3e
       -0.35194615 -0.21368158 0.12569505 0.18854257
000050 72 54 cc bf 49 32 b4 3d 34 b6 00 3e 53 f0 4d 3c
       -1.5963271 0.08798654 0.12569505 0.012569505
000060 4e 11 41 3f 3e 74 1a 3f 3e 74 1a be 78 5d 0a bf
       0.7541703 0.6033362 -0.15083405 -0.5404887
000070 49 32 b4 3d 3e 74 1a 3e 58 cf da be 3e 74 1a bf
       0.08798654 0.15083405 -0.42736316 -0.6033362
000080 58 cf da be 34 b6 80 be 49 32 34 3e 3e 74 9a be
       -0.42736316 -0.2513901 0.17597307 -0.3016681
000090 63 8d 74 3e 49 32 b4 bd 00 00 00 80 3e 74 1a bd
       0.2388206 -0.08798654 -0.0 -0.037708513
0000a0 5d ae e7 3e cb a1 ba be 53 f0 cd bd 3e 74 1a be
       0.45250216 -0.36451563 -0.10055604 -0.15083405
0000b0 49 32 34 be 00 ac 1d bf 0a 6a 37 3f b6 25 87 be
       -0.17597307 -0.61590576 0.7164618 -0.2639596
0000c0 53 f0 4d be c1 e3 20 3f 34 b6 80 be c1 e3 20 3f
       -0.20111208 0.62847525 -0.2513901 0.62847525
0000d0 3e 74 1a be 87 fa 30 bf 58 cf 5a be 3e 74 9a bd
       -0.15083405 -0.69132274 -0.21368158 -0.07541703
0000e0 3e 74 1a 3e e0 1d ee 3e c6 c2 ad be 3e 74 9a 3d
       0.15083405 0.46507168 -0.33937663 0.07541703
0000f0 53 f0 cd be 53 f0 cd bd 34 b6 80 be 39 95 0d be
       -0.40222415 -0.10055604 -0.2513901 -0.13826455
000100 43 53 27 3e fa cc 10 3f 78 5d 0a 3f cb a1 3a 3f
       0.16340356 0.5656277 0.5404887 0.72903126
000110 00 00 00 80 e5 fc 7a bf 34 b6 00 3e 3e 74 9a 3e
       -0.0 -0.98042136 0.12569505 0.3016681
000120 5d ae e7 3e 49 32 b4 3d 4e 11 41 be 34 b6 80 3e
       0.45250216 0.08798654 -0.18854257 0.2513901
000130 3e 74 9a 3e 53 f0 4d bc 53 f0 cd 3e 3e 74 1a bd
       0.3016681 -0.012569505 0.40222415 -0.037708513
000140 d6 5f d4 be 63 8d f4 3e 3e 74 1a 3e 43 53 a7 be
       -0.41479367 0.4776412 0.15083405 -0.3268071
000150 49 32 b4 bd 00 ac 9d 3f 53 f0 4d bd 34 b6 80 3d
       -0.08798654 1.2318115 -0.05027802 0.062847525
000160 39 95 8d be c6 c2 2d bf 3e 74 9a 3d 63 8d 74 be
       -0.2765291 -0.67875326 0.07541703 -0.2388206
000170 5d ae e7 3d c1 e3 a0 3e 39 95 8d be e5 fc fa be
       0.11312554 0.31423762 -0.2765291 -0.49021068
000180 53 f0 4d 3d 43 53 a7 be 8d d9 3d 3f 8d d9 3d 3f
       0.05027802 -0.3268071 0.7416008 0.7416008
000190 58 cf 5a 3e c1 e3 a0 be 9c 76 64 3f 49 32 b4 3e
       0.21368158 -0.31423762 0.89243484 0.35194615
0001a0 cb a1 ba be 3e 74 9a be 5d ae 67 3e 53 f0 cd bc
       -0.36451563 -0.3016681 0.22625108 -0.02513901
0001b0 05 8b 2a 3f 34 b6 00 3e d0 80 c7 be 49 32 b4 bd
       0.66618377 0.12569505 -0.38965464 -0.08798654
0001c0 5d ae e7 3d 3e 74 1a 3e 53 f0 cd bc 43 53 27 be
       0.11312554 0.15083405 -0.02513901 -0.16340356
0001d0 05 8b 2a bf 34 b6 80 bd 4e 11 c1 be 43 53 27 bf
       -0.66618377 -0.062847525 -0.37708515 -0.6536142
0001e0 92 b8 ca 3f cb a1 ba be 53 f0 4d be 5d ae e7 bd
       1.5837576 -0.36451563 -0.20111208 -0.11312554
0001f0 0f 49 44 bf 92 b8 4a bf c1 e3 a0 be c1 e3 a0 3e
       -0.7667398 -0.7918788 -0.31423762 0.31423762
000200 58 cf 5a 3e 49 32 34 3e 53 f0 cd 3d 49 32 b4 bd
       0.21368158 0.17597307 0.10055604 -0.08798654
000210 53 f0 cd 3c 49 32 b4 3e 53 f0 4d 3e cb a1 ba 3e
       0.02513901 0.35194615 0.20111208 0.36451563
000220 53 f0 4d be 5d ae e7 bd 53 f0 cd 3c 53 f0 4d bc
       -0.20111208 -0.11312554 0.02513901 -0.012569505
000230 5d ae e7 3d 3e 74 1a be b6 25 87 be bc 04 94 3e
       0.11312554 -0.15083405 -0.2639596 0.28909862
000240 43 53 27 3e 53 f0 cd 3d 34 b6 80 3d 53 f0 4d be
       0.16340356 0.10055604 0.062847525 -0.20111208
000250 43 53 a7 be 3e 74 1a 3d 82 1b 24 3f 9c 76 64 3f
       -0.3268071 0.037708513 0.64104474 0.89243484
000260 3e 74 1a 3e c1 e3 20 bf 53 f0 cd bd 39 95 8d 3e
       0.15083405 -0.62847525 -0.10055604 0.2765291
000270 db 3e e1 3e 34 b6 00 be d0 80 c7 be f5 ed 03 bf
       0.43993267 -0.12569505 -0.38965464 -0.5153497

/temporal_blocks.1/conv2/weight_quant/tensor_quant/int_quant/Mul_output_0 f4 [8, 8, 1, 5]
000000 95 82 27 bc 8d 53 66 be 14 cb 86 bf 3a 63 51 3e
       -0.010224004 -0.2249281 -1.0530725 0.20448008
000010 11 eb 46 be 95 82 27 bf 23 b8 0a 3f 80 46 22 3f
       -0.19425608 -0.6543363 0.5418722 0.63388824
000020 14 cb 86 3f aa be ac 3e e8 72 3c 3e 42 92 12 3f
       1.0530725 0.33739215 0.18403208 0.5725442
000030 d3 36 37 3f 42 92 92 3d 95 82 27 bc 30 c5 4e 3f
       0.7156803 0.07156803 -0.010224004 0.80769634
000040 6c 0a 1d be 64 db db be ac 2d 6e bf 61 6c 1a bf
       -0.15336007 -0.4294082 -0.9303844 -0.60321623
000050 80 46 22 3f c1 69 73 bf 19 1a 08 bf 42 92 92 be
       0.63388824 -0.9508324 -0.5316482 -0.2862721
000060 fa 3f 00 bf dd d4 39 bf 00 00 00 00 cb 07 f6 3e
       -0.5009762 -0.7259043 0.0 0.4805282
000070 8d 53 e6 3e b6 cb 70 3e 95 82 a7 bd be fa b1 be
       0.4498562 0.2351521 -0.081792034 -0.34761614
000080 e0 43 7b be 19 1a 88 be 80 46 a2 3e 3a 63 d1 bd
       -0.24537611 -0.2658241 0.31694412 -0.10224004
000090 76 a8 1f 3f fc ae c1 3e 95 82 a7 3c be fa 31 3f
       0.62366426 0.37828815 0.020448009 0.6952323
0000a0 aa be ac be 04 de 82 be 33 a5 8e bf 19 1a 08 bf
       -0.33739215 -0.2556001 -1.1144165 -0.5316482
0000b0 23 b8 0a 3f 3a 63 51 bd e0 43 7b 3d 11 eb 46 be
       0.5418722 -0.05112002 0.061344028 -0.19425608
0000c0 6c 0a 1d be 57 ce 97 3e 04 de 02 3f 3a 63 51 3e
       -0.15336007 0.29649612 0.5112002 0.20448008
0000d0 11 eb 46 3e 80 46 22 3f 23 b8 8a 3f 33 a5 8e bf
       0.19425608 0.63388824 1.0837444 -1.1144165
0000e0 ff 8e 81 bf e0 43 fb be 3a 63 51 be fc ae c1 be
       -1.0121764 -0.49075222 -0.20448008 -0.37828815
0000f0 8d 53 e6 3d 11 eb 46 3e 6c 0a 9d 3e aa be ac be
       0.11246405 0.19425608 0.30672014 -0.33739215
000100 26 27 cc be 3a 63 51 3d 2e 56 8d 3e ff 8e 81 3f
       -0.39873618 0.05112002 0.27604812 1.0121764
000110 6c 0a 1d 3f 3a 63 51 bd 8d 53 e6 3e 19 1a 08 3e
       0.6134403 -0.05112002 0.4498562 0.13291205
000120 e8 72 bc 3d 95 82 27 3e 8d 53 66 3e e0 43 fb bc
       0.09201604 0.16358407 0.2249281 -0.030672014
000130 e8 72 bc bd 19 1a 08 be 3a 63 51 be 42 92 12 bf
       -0.09201604 -0.13291205 -0.20448008 -0.5725442
000140 80 46 a2 3e 0f 7c 05 3f 11 eb 46 be 8d 53 e6 be
       0.31694412 0.52142423 -0.19425608 -0.4498562
000150 57 ce 97 be be fa 31 be 95 82 a7 3c 42 92 92 bd
       -0.29649612 -0.17380807 0.020448009 -0.07156803
000160 95 82 27 3e 57 ce 17 bf 59 3d 59 3f b4 5c 2f bf
       0.16358407 -0.59299225 0.84859234 -0.6850083
000170 11 eb 46 be 95 82 27 3d e8 72 bc 3e e0 43 fb 3d
       -0.19425608 0.040896017 0.36806417 0.122688055
000180 04 de 82 3e be fa b1 3e 57 ce 97 3e 04 de 82 3e
       0.2556001 0.34761614 0.29649612 0.2556001
000190 19 1a 88 be 61 6c 1a 3f 42 92 12 3f cb 07 f6 3e
       -0.2658241 0.60321623 0.5725442 0.4805282
0001a0 95 82 a7 bc 23 b8 0a bf c9 98 34 bf d3 36 b7 be
       -0.020448009 -0.5418722 -0.7054563 -0.35784015
0001b0 b6 cb 70 be fc ae c1 be fc ae c1 3e 95 82 27 be
       -0.2351521 -0.37828815 0.37828815 -0.16358407
0001c0 8d 53 66 3e e0 43 7b bd 38 f4 0f 3f 78 17 61 3f
       0.2249281 -0.061344028 0.56232023 0.87926435
0001d0 a2 8f eb 3e 80 46 a2 3e b6 cb 70 be 19 1a 08 3e
       0.4600802 0.31694412 -0.2351521 0.13291205
0001e0 97 f1 68 3f 95 82 a7 bd 19 1a 08 bf 95 82 a7 3c
       0.90993637 -0.081792034 -0.5316482 0.020448009
0001f0 2e 56 8d be 3a 63 51 be fa 3f 00 bf 26 27 cc be
       -0.27604812 -0.20448008 -0.5009762 -0.39873618
000200 be fa 31 3e 6c 0a 1d 3e e0 43 fb bd a2 8f eb 3e
       0.17380807 0.15336007 -0.122688055 0.4600802
000210 11 eb 46 be fa 3f 00 bf d3 36 37 bf 2e 56 8d 3e
       -0.19425608 -0.5009762 -0.7156803 0.27604812
000220 42 92 12 3e fa 3f 00 3f be fa 31 3e 8d 53 e6 3d
       0.14313605 0.5009762 0.17380807 0.11246405
000230 e8 72 3c be fa 3f 00 bf 95 82 27 3c 64 db 5b 3e
       -0.18403208 -0.5009762 0.010224004 0.2147041
000240 fc ae c1 3e 95 82 27 3d 11 eb 46 3e 00 00 00 00
       0.37828815 0.040896017 0.19425608 0.0
000250 95 82 27 3d 42 92 92 bd 95 82 27 3c 11 eb c6 3e
       0.040896017 -0.07156803 0.010224004 0.38851216
000260 e8 72 3c be 23 b8 0a bf ff 8e 81 bf 95 82 a7 be
       -0.18403208 -0.5418722 -1.0121764 -0.32716814
000270 95 82 a7 be d3 36 b7 be 3a 63 51 be fa 3f 00 3f
       -0.32716814 -0.35784015 -0.20448008 0.5009762
000280 95 82 27 be e0 43 7b bd e0 43 fb 3d e0 43 7b 3e
       -0.16358407 -0.061344028 0.122688055 0.24537611
000290 e0 43 7b 3d 3a 63 d1 3e 95 82 a7 3e 04 de 82 3e
       0.061344028 0.40896016 0.32716814 0.2556001
0002a0 64 db db 3e 95 82 27 3c 04 de 02 bf b6 cb 70 be
       0.4294082 0.010224004 -0.5112002 -0.2351521
0002b0 e0 43 fb 3c fc ae c1 be e8 72 bc bd 95 82 a7 bc
       0.030672014 -0.37828815 -0.09201604 -0.020448009
0002c0 e0 43 7b bd 04 de 82 3e 95 82 27 3c be fa 31 3e
       -0.061344028 0.2556001 0.010224004 0.17380807
0002d0 95 82 a7 3e 6c 0a 1d 3e e0 43 fb 3d e8 72 bc 3e
       0.32716814 0.15336007 0.122688055 0.36806417
0002e0 78 17 e1 3e 6c 0a 1d 3e 95 82 a7 bd 04 de 82 be
       0.43963218 0.15336007 -0.081792034 -0.2556001
0002f0 11 eb 46 be 11 eb c6 be 23 b8 0a bf a2 8f eb be
       -0.19425608 -0.38851216 -0.5418722 -0.4600802
000300 6c 0a 1d bf 8b e4 24 bf a2 8f eb be 8d 53 66 bf
       -0.6134403 -0.6441123 -0.4600802 -0.8997124
000310 fa 3f 00 bf 3a 63 51 bd 64 db 5b 3e 95 82 a7 3d
       -0.5009762 -0.05112002 0.2147041 0.081792034
000320 e0 43 fb bc e0 43 7b 3d 57 ce 97 3e 07 4d 44 3f
       -0.030672014 0.061344028 0.29649612 0.76680034
000330 9f 20 2a 3f ac 2d 6e 3f f2 10 3f 3f d5 a5 78 3f
       0.66456026 0.9303844 0.7463523 0.9712804
000340 cb 07 f6 3e 57 ce 17 3f 6e 79 5e bf 95 82 27 bc
       0.4805282 0.59299225 -0.86904037 -0.010224004
000350 e8 72 bc bd 0f 7c 05 bf 42 92 12 3e 90 33 a6 bf
       -0.09201604 -0.52142423 0.14313605 -1.2984486
000360 cb 07 f6 be 33 a5 8e bf cb 07 f6 be 6c 0a 9d be
       -0.4805282 -1.1144165 -0.4805282 -0.30672014
000370 64 db 5b be 38 f4 0f 3f 57 ce 97 3e 95 82 a7 bc
       -0.2147041 0.56232023 0.29649612 -0.020448009
000380 95 82 a7 bd 61 6c 9a 3f 8d 53 e6 bd 8d 53 66 3e
       -0.081792034 1.2064325 -0.11246405 0.2249281
000390 42 92 92 be be fa 31 be 26 27 cc 3e 80 46 a2 be
       -0.2862721 -0.17380807 0.39873618 -0.31694412
0003a0 00 00 00 00 11 eb c6 3e 95 82 27 be fa 3f 00 bf
       0.0 0.38851216 -0.16358407 -0.5009762
0003b0 d3 36 37 bf 97 f1 68 bf 6c 0a 9d be 1b 89 49 bf
       -0.7156803 -0.90993637 -0.30672014 -0.7872483
0003c0 d3 36 37 bf e8 72 3c 3e 59 3d 59 3f 95 82 a7 be
       -0.7156803 0.18403208 0.84859234 -0.32716814
0003d0 6c 0a 1d be 11 eb 46 3e 95 82 27 bc be fa b1 3e
       -0.15336007 0.19425608 -0.010224004 0.34761614
0003e0 be fa 31 be 11 eb 46 3e 42 92 92 3e 11 eb c6 be
       -0.17380807 0.19425608 0.2862721 -0.38851216
0003f0 e0 43 fb bd 19 1a 08 3e be fa b1 3e 8d 53 e6 bd
       -0.122688055 0.13291205 0.34761614 -0.11246405

/temporal_blocks.1/downsample/weight_quant/tensor_quant/int_quant/Mul_output_0 f4 [8, 4, 1, 1]
000000 72 1f 29 3f 42 7f e1 3d 42 7f e1 3c 51 e1 4f bf
       0.66063607 0.110106006 0.027526502 -0.8120318
000010 42 7f e1 bc 72 1f 29 3e 2a af fd bd 80 81 17 bf
       -0.027526502 0.16515902 -0.123869255 -0.59181976
000020 63 bd 3a bf 5d c9 c1 bf 30 a3 76 bf 43 bc df bf
       -0.7294523 -1.5139576 -0.96342754 -1.7479328
000030 60 43 be 3e 45 f9 5d bf 92 5d 02 bf 42 7f e1 bd
       0.37160778 -0.8670848 -0.50924027 -0.110106006
000040 72 1f 29 3d 2d 29 7a bf 7d 07 9b bf 7d 07 9b be
       0.041289754 -0.9771908 -1.211166 -0.3027915
000050 5a 4f c5 bd 5a 4f c5 3d 5a 4f 45 be 42 7f e1 3c
       -0.09634276 0.09634276 -0.19268551 0.027526502
000060 42 7f e1 3d 8f e3 85 be 2a af 7d 3e 72 1f 29 be
       0.110106006 -0.26150176 0.24773851 -0.16515902
000070 66 37 37 be 66 37 b7 3e 42 7f 61 bd 42 7f e1 bc
       -0.17892227 0.35784453 -0.055053003 -0.027526502

/temporal_blocks.2/conv1/weight_quant/tensor_quant/int_quant/Mul_output_0 f4 [16, 8, 1, 5]
000000 5b a2 26 be 5b a2 a6 3d 5b a2 a6 bc 88 f3 f9 bd
       -0.16272871 0.081364356 -0.020341089 -0.12204653
000010 3d 1f e5 be d7 2e 02 3f cc e0 c5 be 5b a2 a6 bd
       -0.44750395 0.5085272 -0.3864807 -0.081364356
000020 f2 4a 50 3e f2 4a 50 be a6 76 bb be ac 9d 99 bf
       0.2034109 -0.2034109 -0.3661396 -1.2001243
000030 5b a2 26 3d 00 00 00 00 10 ce 91 be 5b a2 26 3d
       0.040682178 0.0 -0.28477526 0.040682178
000040 00 00 00 00 5b a2 a6 3d fd 98 0c 3f 3d 1f 65 be
       0.0 0.081364356 0.5492094 -0.22375198
000050 5b a2 a6 bd 3d 1f e5 3e 10 ce 11 be 17 b5 da 3e
       -0.081364356 0.44750395 -0.14238763 0.42716286
000060 ea 63 07 3f 17 b5 da be f2 4a 50 3e 5b a2 a6 bc
       0.5288683 -0.42716286 0.2034109 -0.020341089
000070 f2 4a 50 3e a6 76 3b 3e 94 41 b6 bf b9 ab 40 bf
       0.2034109 0.1830698 -1.4238763 -0.7526203
000080 5b a2 a6 be f2 4a 50 be 17 b5 5a bf f2 4a 50 be
       -0.32545742 -0.2034109 -0.8543257 -0.2034109
000090 88 f3 f9 bd 5b a2 a6 3c f2 4a 50 3e 5b a2 a6 3c
       -0.12204653 0.020341089 0.2034109 0.020341089
0000a0 3d 1f 65 3e 35 38 9c be 3d 1f 65 be 5b a2 a6 3d
       0.22375198 -0.30511633 -0.22375198 0.081364356
0000b0 48 6d 21 3f 88 f3 79 3e f2 4a d0 3d ea 63 87 3e
       0.63057375 0.24409306 0.10170545 0.26443416
0000c0 ea 63 87 3e 63 89 ef be f2 4a d0 3e 81 0c b1 3e
       0.26443416 -0.46784505 0.4068218 0.34579852
0000d0 00 00 00 80 cc e0 c5 be 22 03 17 bf e4 3c a9 3f
       -0.0 -0.3864807 -0.58989155 1.3221707
0000e0 5b a2 26 3d ea 63 87 3e fd 98 0c bf 88 f3 79 bd
       0.040682178 0.26443416 -0.5492094 -0.061023265
0000f0 5b a2 26 3d f2 4a d0 bd 88 f3 79 3e 88 f3 79 3e
       0.040682178 -0.10170545 0.24409306 0.24409306
000100 ea 63 07 bf 10 ce 11 3e 10 ce 91 be 5b a2 a6 bd
       -0.5288683 0.14238763 -0.28477526 -0.081364356
000110 a6 76 3b 3e 81 0c b1 be 10 ce 11 3f 5b a2 26 bd
       0.1830698 -0.34579852 0.5695505 -0.040682178
000120 00 00 00 80 5b a2 26 be 81 0c b1 3e a6 76 3b 3e
       -0.0 -0.16272871 0.34579852 0.1830698
000130 3d 1f 65 be f2 4a d0 3d 3d 1f 65 3e 63 89 ef be
       -0.22375198 0.10170545 0.22375198 -0.46784505
000140 5b a2 26 bd f2 4a d0 3d 00 00 00 00 88 f3 f9 3d
       -0.040682178 0.10170545 0.0 0.12204653
000150 f2 4a 50 be 10 ce 11 3e cc e0 c5 be 5b a2 26 3e
       -0.2034109 0.14238763 -0.3864807 0.16272871
000160 10 ce 11 3e 88 f3 f9 3d 5b a2 a6 bd 10 ce 91 be
       0.14238763 0.12204653 -0.081364356 -0.28477526
000170 3d 1f 65 be a6 76 3b be f2 4a d0 bd 10 ce 11 be
       -0.22375198 -0.1830698 -0.10170545 -0.14238763
000180 35 38 9c 3e a6 76 bb 3e f2 4a d0 bd 5b a2 a6 3e
       0.30511633 0.3661396 -0.10170545 0.32545742
000190 f2 4a d0 3d 10 ce 11 be 3d 1f e5 be 3d 1f 65 be
       0.10170545 -0.14238763 -0.44750395 -0.22375198
0001a0 5b a2 a6 bc 5b a2 a6 3c 5b a2 a6 bc 00 00 00 00
       -0.020341089 0.020341089 -0.020341089 0.0
0001b0 5b a2 a6 bd f2 4a d0 bd b9 ab 40 3f 63 89 6f 3f
       -0.081364356 -0.10170545 0.7526203 0.9356901
0001c0 81 0c 31 3f 10 ce 11 3e 94 41 36 3f 63 89 ef 3e
       0.69159704 0.14238763 0.71193814 0.46784505
0001d0 f2 4a d0 bd 5b a2 a6 3c 88 f3 f9 bd 88 f3 f9 3d
       -0.10170545 0.020341089 -0.12204653 0.12204653
0001e0 5b a2 26 3e 00 00 00 80 5b a2 26 bd 88 f3 79 3d
       0.16272871 -0.0 -0.040682178 0.061023265
0001f0 ea 63 87 3e 10 ce 11 3e 88 f3 79 bd f2 4a 50 be
       0.26443416 0.14238763 -0.061023265 -0.2034109
000200 88 f3 79 be 10 ce 91 3e 5b a2 26 3e b9 ab 40 bf
       -0.24409306 0.28477526 0.16272871 -0.7526203
000210 5b a2 a6 3c 35 38 9c 3e 88 f3 79 3d 5b a2 26 3e
       0.020341089 0.30511633 0.061023265 0.16272871
000220 5b a2 26 3d 3d 1f 65 be 10 ce 11 3f 10 ce 11 3e
       0.040682178 -0.22375198 0.5695505 0.14238763
000230 5b a2 26 3d 5b a2 a6 3c 00 00 00 80 00 00 00 00
       0.040682178 0.020341089 -0.0 0.0
000240 5b a2 a6 3e 10 ce 11 3e fd 98 0c bf 5b a2 26 bd
       0.32545742 0.14238763 -0.5492094 -0.040682178
000250 5b a2 26 be 88 f3 79 3d 5b a2 26 3e f2 4a d0 3d
       -0.16272871 0.061023265 0.16272871 0.10170545
000260 81 0c b1 be 5b a2 26 bd a6 76 bb 3e 5b a2 26 3d
       -0.34579852 -0.040682178 0.3661396 0.040682178
000270 a6 76 3b 3e 81 0c b1 3e a6 76 3b be 5b a2 a6 3c
       0.1830698 0.34579852 -0.1830698 0.020341089
000280 3d 1f e5 be a6 76 bb 3e 5b a2 26 be 88 f3 f9 3e
       -0.44750395 0.3661396 -0.16272871 0.48818612
000290 5b a2 26 bd d7 2e 02 bf 88 f3 79 be 5b a2 26 bd
       -0.040682178 -0.5085272 -0.24409306 -0.040682178
0002a0 00 00 00 00 55 7b c8 3f f2 4a d0 bd 5b a2 a6 bd
       0.0 1.5662638 -0.10170545 -0.081364356
0002b0 f2 4a d0 3e fd 98 0c 3f f2 4a d0 bd 3d 1f 65 be
       0.4068218 0.5492094 -0.10170545 -0.22375198
0002c0 10 ce 11 3e 88 f3 79 3d 48 6d a1 3f f2 4a 50 3e
       0.14238763 0.061023265 1.2611475 0.2034109
0002d0 6e d7 2b bf 88 f3 79 be 5b a2 a6 be 10 ce 11 bf
       -0.67125595 -0.24409306 -0.32545742 -0.5695505
0002e0 10 ce 91 bf 81 0c b1 be 3d 1f 65 be 3d 1f 65 3e
       -1.139101 -0.34579852 -0.22375198 0.22375198
0002f0 5b a2 a6 bd 88 f3 f9 3d fd 98 8c bf f2 4a 50 be
       -0.081364356 0.12204653 -1.0984188 -0.2034109
000300 5b a2 26 be 3d 1f 65 3e 5b a2 a6 bd 88 f3 79 3e
       -0.16272871 0.22375198 -0.081364356 0.24409306
000310 f2 4a d0 bd 00 00 00 80 5b a2 a6 3d 35 38 9c 3e
       -0.10170545 -0.0 0.081364356 0.30511633
000320 a6 76 3b be 88 f3 79 3e 5b a2 26 bd 63 89 ef 3e
       -0.1830698 0.24409306 -0.040682178 0.46784505
000330 63 89 ef be 5b a2 a6 3d 88 f3 f9 3e 48 6d 21 bf
       -0.46784505 0.081364356 0.48818612 -0.63057375
000340 3d 1f e5 be 88 f3 79 3f 10 ce 91 3e 10 ce 91 3e
       -0.44750395 0.97637224 0.28477526 0.28477526
000350 10 ce 91 3e 5b a2 26 be 3d 1f 65 3e 12 8e fc bf
       0.28477526 -0.16272871 0.22375198 -1.9730856
000360 3d 1f 65 3e ea 63 07 3f 3d 1f e5 3e 5b a2 a6 bc
       0.22375198 0.5288683 0.44750395 -0.020341089
000370 88 f3 f9 be 86 33 8f 3f f2 4a d0 3d ea 63 87 be
       -0.48818612 1.1187599 0.10170545 -0.26443416
000380 88 f3 f9 3d 63 89 ef be 88 f3 f9 be 88 f3 79 3d
       0.12204653 -0.46784505 -0.48818612 0.061023265
000390 00 00 00 00 10 ce 91 3e f2 4a 50 be f2 4a 50 3e
       0.0 0.28477526 -0.2034109 0.2034109
0003a0 cc e0 c5 3e df 15 4b 3f 99 68 94 bf 10 ce 91 be
       0.3864807 0.7933025 -1.1594421 -0.28477526
0003b0 05 80 55 bf 10 ce 91 be 88 f3 79 3d 63 89 ef 3e
       -0.8339847 -0.28477526 0.061023265 0.46784505
0003c0 88 f3 79 3d f2 4a 50 3e 10 ce 11 3e d7 2e 02 bf
       0.061023265 0.2034109 0.14238763 -0.5085272
0003d0 5b a2 26 3d 5b a2 a6 3d 5b a2 26 3e 88 f3 f9 3d
       0.040682178 0.081364356 0.16272871 0.12204653
0003e0 88 f3 79 3d 48 6d 21 3f a6 76 3b be 10 ce 91 be
       0.061023265 0.63057375 -0.1830698 -0.28477526
0003f0 3d 1f 65 be 5b a2 a6 bc f2 4a d0 3d f2 4a 50 be
       -0.22375198 -0.020341089 0.10170545 -0.2034109

/temporal_blocks.2/conv2/weight_quant/tensor_quant/int_quant/Mul_output_0 f4 [16, 16, 1, 5]
000000 cb 65 04 3f f1 c2 24 3e 81 4c 3c 3c 49 11 c8 be
       0.51717824 0.16089989 0.011492849 -0.39075688
000010 61 39 0d bd d9 9a df 3e cb 65 04 bf 23 b4 27 bf
       -0.03447855 0.43672827 -0.51717824 -0.6550924
000020 11 d6 53 3e c5 1b 93 3e 87 96 2d bf d9 9a 5f be
       0.20687129 0.28732124 -0.6780781 -0.21836413
000030 81 4c 3c 3d 11 d6 d3 bd a1 5f 6b bd 69 24 f7 be
       0.045971397 -0.10343564 -0.057464246 -0.48269966
000040 81 4c bc 3d f1 c2 a4 3e e5 2e c2 be 75 b8 d9 be
       0.091942795 0.32179978 -0.37926403 -0.42523542
000050 99 74 81 be 1d 6a 36 bf f1 c2 a4 bd 81 4c 3c bd
       -0.2528427 -0.71255666 -0.080449946 -0.045971397
000060 f1 c2 a4 3d d9 9a 5f 3e 49 11 48 be bf d1 21 bf
       0.080449946 0.21836413 -0.19537844 -0.6321067
000070 11 d6 53 be 1d 6a b6 be 3d 7d e5 3e f1 c2 24 be
       -0.20687129 -0.35627833 0.44822112 -0.16089989
000080 99 74 01 3e d9 9a 5f be 61 39 8d be 49 11 48 bf
       0.12642135 -0.21836413 -0.2758284 -0.78151375
000090 a1 5f 6b 3e bf d1 21 3f 81 4c bc 3c 69 24 77 be
       0.22985698 0.6321067 0.022985699 -0.24134983
0000a0 61 39 8d bd a1 5f eb 3e a1 5f 6b 3e fd 56 87 be
       -0.0689571 0.45971397 0.22985698 -0.26433554
0000b0 61 39 0d 3f 11 d6 d3 3d 81 4c 3c 3c fd 56 07 3f
       0.5516568 0.10343564 0.011492849 0.5286711
0000c0 11 d6 d3 3d 99 74 81 be 93 2a 10 bf 81 4c bc 3e
       0.10343564 -0.2528427 -0.56314963 0.36777118
0000d0 49 11 48 bf 81 4c bc 3e 29 fe 98 be 49 11 48 bf
       -0.78151375 0.36777118 -0.2988141 -0.78151375
0000e0 29 fe 98 3e bf d1 21 3f f1 c2 24 3f f1 c2 a4 3e
       0.2988141 0.6321067 0.64359957 0.32179978
0000f0 81 4c 3c bd 81 4c 3c bd 49 11 c8 be cd 06 7d 3f
       -0.045971397 -0.045971397 -0.39075688 0.988385
000100 11 d6 d3 bd 11 d6 d3 3d 11 d6 d3 3e 81 4c bc 3e
       -0.10343564 0.10343564 0.41374257 0.36777118
000110 11 d6 d3 3d 43 c7 56 3f a1 5f eb 3e fd 56 87 be
       0.10343564 0.838978 0.45971397 -0.26433554
000120 61 39 0d 3d 69 24 77 be f1 c2 a4 be a1 5f 6b 3f
       0.03447855 -0.24134983 -0.32179978 0.91942793
000130 b9 87 b0 be a1 5f eb 3d 05 42 f1 3e 3d 7d e5 3e
       -0.34478548 0.11492849 0.4712068 0.44822112
000140 cb 65 04 3f 61 39 0d be a1 5f 6b be 81 4c 3c 3c
       0.51717824 -0.1379142 -0.22985698 0.011492849
000150 c5 1b 93 be 11 d6 53 bf 81 4c 3c bc b9 87 b0 be
       -0.28732124 -0.82748514 -0.011492849 -0.34478548
000160 61 39 8d be 75 b8 d9 3e 61 39 8d be 81 4c bc bc
       -0.2758284 0.42523542 -0.2758284 -0.022985699
000170 81 4c bc bd 1d 6a b6 be 8d e0 9e 3e ad f3 cd be
       -0.091942795 -0.35627833 0.31030694 -0.40224972
000180 81 4c 3c be 81 4c 3c 3c 05 42 f1 3e fd 56 07 3f
       -0.18388559 0.011492849 0.4712068 0.5286711
000190 49 11 c8 3e 49 11 48 3e 49 11 48 be bf d1 21 3f
       0.39075688 0.19537844 -0.19537844 0.6321067
0001a0 c5 1b 93 3e f1 c2 a4 3d 1d 6a b6 3e d9 9a 5f 3e
       0.28732124 0.080449946 0.35627833 0.21836413
0001b0 a1 5f 6b 3d 8d e0 9e 3e b9 87 b0 be 05 42 f1 3e
       0.057464246 0.31030694 -0.34478548 0.4712068
0001c0 ad f3 4d 3f b9 87 b0 3e 29 fe 98 3e a1 5f eb 3e
       0.80449945 0.34478548 0.2988141 0.45971397
0001d0 b9 87 30 3e a1 5f 6b 3d f1 c2 a4 bd 61 39 0d be
       0.17239274 0.057464246 -0.080449946 -0.1379142
0001e0 49 11 48 3e 61 39 8d bd f1 c2 24 3e 81 4c 3c be
       0.19537844 -0.0689571 0.16089989 -0.18388559
0001f0 29 fe 18 bf c5 1b 13 3f 11 d6 d3 3d 61 39 0d bd
       -0.5976282 0.5746425 0.10343564 -0.03447855
000200 81 4c 3c 3d d9 9a 5f be 61 39 8d bd a1 5f 6b 3e
       0.045971397 -0.21836413 -0.0689571 0.22985698
000210 f1 c2 a4 3d b9 87 b0 3e 81 4c 3c bd 11 d6 d3 3e
       0.080449946 0.34478548 -0.045971397 0.41374257
000220 61 39 0d bf b9 87 30 be c5 1b 93 be 61 39 0d bd
       -0.5516568 -0.17239274 -0.28732124 -0.03447855
000230 55 a5 2a 3f a1 5f eb 3d 05 42 f1 be 61 39 8d be
       0.66658527 0.11492849 -0.4712068 -0.2758284
000240 a1 5f 6b be 69 24 77 be 87 96 2d bf 55 a5 2a bf
       -0.22985698 -0.24134983 -0.6780781 -0.66658527
000250 b3 3d 3f bf f1 c2 a4 bd 61 39 0d bf a1 5f 6b 3d
       -0.7470352 -0.080449946 -0.5516568 0.057464246
000260 69 24 f7 3e 29 fe 18 3e 49 11 48 be f1 c2 a4 3d
       0.48269966 0.14940704 -0.19537844 0.080449946
000270 11 d6 d3 3d 81 4c 3c bc 99 74 01 3e a1 5f 6b be
       0.10343564 -0.011492849 0.12642135 -0.22985698
000280 3d 7d 65 bf fa b1 8e bf d3 50 6e bf cd 06 fd be
       -0.89644223 -1.1148064 -0.9309208 -0.4941925
000290 11 d6 d3 3e 81 4c 3c 3f f7 0c 96 3f 81 4c 3c 3e
       0.41374257 0.73554236 1.1722707 0.18388559
0002a0 ad f3 cd 3e 81 4c bc be 61 39 8d bd a1 5f eb bd
       0.40224972 -0.36777118 -0.0689571 -0.11492849
0002b0 55 a5 aa be 11 d6 d3 be 61 39 8d be a1 5f 6b 3f
       -0.33329263 -0.41374257 -0.2758284 0.91942793
0002c0 0b 8c 62 3f d9 9a 5f 3f 11 d6 53 3e 81 4c bc 3c
       0.8849494 0.87345654 0.20687129 0.022985699
0002d0 23 b4 27 3f ad f3 cd be 05 42 f1 3e f1 c2 a4 bd
       0.6550924 -0.40224972 0.4712068 -0.080449946
0002e0 55 a5 aa be c5 1b 93 3e f1 c2 a4 be a1 5f eb be
       -0.33329263 0.28732124 -0.32179978 -0.45971397
0002f0 a1 5f 6b be 00 00 00 00 eb 78 33 bf 49 11 48 3e
       -0.22985698 0.0 -0.7010638 0.19537844
000300 11 d6 53 3e 29 fe 18 3f 11 d6 53 be 05 42 71 3f
       0.20687129 0.5976282 -0.20687129 0.9424136
000310 11 d6 d3 3e 5b ef 1b 3f d9 9a df 3e 55 a5 aa be
       0.41374257 0.609121 0.43672827 -0.33329263
000320 7b 02 4b 3f ad f3 4d 3f 81 4c 3c 3d 81 4c bc bc
       0.7930066 0.80449945 0.045971397 -0.022985699
000330 8d e0 1e 3f 2c a3 91 bf cb 65 04 bf 93 2a 10 3f
       0.6206139 -1.1377921 -0.51717824 0.56314963
000340 61 39 0d bd f4 67 9d bf 99 74 01 be f1 c2 24 3e
       -0.03447855 -1.2297349 -0.12642135 0.16089989
000350 20 0f af 3f cd 06 7d 3f f1 c2 a4 3e 29 fe 98 be
       1.3676491 0.988385 0.32179978 -0.2988141
000360 11 d6 53 be 75 b8 59 bf 61 39 8d be 55 a5 2a 3f
       -0.20687129 -0.85047084 -0.2758284 0.66658527
000370 11 d6 d3 3e 61 39 8d be 81 4c 3c 3e fd 56 87 3e
       0.41374257 -0.2758284 0.18388559 0.26433554
000380 81 4c 3c 3e b3 3d 3f bf 11 d6 53 bf fd 56 87 be
       0.18388559 -0.7470352 -0.82748514 -0.26433554
000390 61 39 8d 3e df e4 50 3f 69 24 77 be 49 11 48 be
       0.2758284 0.8159923 -0.24134983 -0.19537844
0003a0 f7 0c 16 bf 99 74 01 bf 29 fe 98 be 55 a5 2a bf
       -0.5861353 -0.5056854 -0.2988141 -0.66658527
0003b0 55 a5 aa be a1 5f eb 3d 81 4c bc bd ad f3 4d bf
       -0.33329263 0.11492849 -0.091942795 -0.80449945
0003c0 81 4c 3c be 1d 6a b6 be fd 56 87 be b3 3d 3f bf
       -0.18388559 -0.35627833 -0.26433554 -0.7470352
0003d0 81 4c bc bc c5 1b 13 3f 99 74 81 3e 5b ef 1b bf
       -0.022985699 0.5746425 0.2528427 -0.609121
0003e0 61 39 8d bd 5b ef 1b 3f d9 9a 5f be fd 56 07 bf
       -0.0689571 0.609121 -0.21836413 -0.5286711
0003f0 cd 06 7d bf 81 4c 3c 3d d9 9a 5f be ad f3 4d 3f
       -0.988385 0.045971397 -0.21836413 0.80449945

/temporal_blocks.2/downsample/weight_quant/tensor_quant/int_quant/Mul_output_0 f4 [16, 8, 1, 1]
000000 5e 54 19 c0 22 a5 e9 bd a3 7f 25 3f 22 a5 69 3e
       -2.3957744 -0.1140845 0.64647883 0.228169
000010 5c 35 82 c0 f5 19 b4 bf 22 a5 e9 be 90 1d fd bf
       -4.0690136 -1.4070421 -0.456338 -1.9774647
000020 da 3b af 3e 47 b4 c2 3e b4 2c 56 bf 6c c3 9b 3e
       0.3422535 0.38028166 -0.8366196 0.30422533
000030 da 3b 2f 3f 6c c3 9b 3e 22 a5 e9 3d 6c c3 9b bd
       0.684507 0.30422533 0.1140845 -0.07605633
000040 35 07 12 3f 6c c3 9b 3e 6c c3 1b 3f 87 a1 a0 bf
       0.5704225 0.30422533 0.60845065 -1.2549294
000050 87 a1 a0 3f 7e 70 cc bf 3d 83 ee 3f e3 6c 83 bf
       1.2549294 -1.597183 1.8633801 -1.0267605
000060 6c c3 1b 3e 35 07 92 3f 47 b4 c2 be 6c c3 9b 3d
       0.15211266 1.140845 -0.38028166 0.07605633
000070 b4 2c d6 be 6c c3 1b be 90 1d fd 3e f5 19 b4 bf
       -0.4183098 -0.15211266 0.49436617 -1.4070421
000080 e5 8b 9a c0 5e 54 99 c0 fe 4a 88 c0 8b df 4e c0
       -4.829577 -4.7915487 -4.2591543 -3.232394
000090 eb e8 5f 3f 47 b4 c2 bf eb e8 5f c0 35 07 12 bf
       0.8746478 -1.5211266 -3.4985912 -0.5704225
0000a0 b4 2c 56 bf 90 1d 7d bf 07 c7 e4 bf 07 c7 e4 bf
       -0.8366196 -0.98873234 -1.7873238 -1.7873238
0000b0 22 a5 e9 3d 6c c3 1b bd 10 f8 38 40 22 a5 e9 bd
       0.1140845 -0.038028166 2.8901405 -0.1140845
0000c0 22 a5 e9 3d 10 f8 38 bf f9 57 62 c0 59 61 73 bf
       0.1140845 -0.72253513 -3.5366194 -0.95070416
0000d0 eb e8 5f bf fe 4a 08 3f d0 0a 5b 40 a3 7f 25 3f
       -0.8746478 0.5323943 3.422535 0.64647883
0000e0 6c c3 1b 3f da 3b af be 6c c3 9b 3d fe 4a 88 3e
       0.60845065 -0.3422535 0.07605633 0.26619714
0000f0 22 a5 e9 3e 22 a5 e9 bd b4 2c d6 3e 6c c3 9b be
       0.456338 -0.1140845 0.4183098 -0.30422533
000100 6c c3 1b 3d 6c c3 9b be 22 a5 e9 bd 47 b4 42 3e
       0.038028166 -0.30422533 -0.1140845 0.19014083
000110 35 07 12 bf 22 a5 e9 be 6c c3 1b be 6c c3 9b bd
       -0.5704225 -0.456338 -0.15211266 -0.07605633
000120 6c c3 9b bd 6c c3 1b be b4 2c d6 3e da 3b 2f bf
       -0.07605633 -0.15211266 0.4183098 -0.684507
000130 22 a5 e9 be 47 b4 c2 be 59 61 f3 3f 6c c3 1b 3f
       -0.456338 -0.38028166 1.9014083 0.60845065
000140 47 b4 c2 3e da 3b af be 00 00 00 00 7e 70 4c 3f
       0.38028166 -0.3422535 0.0 0.7985915
000150 22 a5 69 be 22 a5 69 3e b4 2c d6 be 22 a5 69 be
       -0.228169 0.228169 -0.4183098 -0.228169
000160 b4 2c d6 3e 6c c3 9b 3e b4 2c d6 3e 47 b4 42 3e
       0.4183098 0.30422533 0.4183098 0.19014083
000170 a3 7f 25 3f 90 1d 7d bf 1a 29 8d 3f b4 2c d6 3e
       0.64647883 -0.98873234 1.1028168 0.4183098
000180 90 1d fd 3e 1a 29 8d 3f 47 b4 42 3e 35 07 12 3f
       0.49436617 1.1028168 0.19014083 0.5704225
000190 fe 4a 88 be 6c c3 1b bf 6c c3 1b be fe 4a 08 bf
       -0.26619714 -0.60845065 -0.15211266 -0.5323943
0001a0 6c c3 9b 3e 10 f8 b8 bf 35 07 92 3f 47 b4 42 3f
       0.30422533 -1.4450703 1.140845 0.7605633
0001b0 51 e5 96 3f 47 b4 42 bf a7 bd 53 40 da 3b af be
       1.1788732 -0.7605633 3.3084505 -0.3422535
0001c0 f5 19 b4 bf 22 a5 69 bf 7e 70 4c bf 22 a5 e9 3e
       -1.4070421 -0.912676 -0.7985915 0.456338
0001d0 fe 4a 88 be da 3b 2f bf 59 61 73 bf 22 a5 69 3e
       -0.26619714 -0.684507 -0.95070416 0.228169
0001e0 6c c3 9b bd fe 4a 88 be 47 b4 42 3e 22 a5 69 3e
       -0.07605633 -0.26619714 0.19014083 0.228169
0001f0 6c c3 1b bd 00 00 00 00 fe 4a 88 3e 7e 70 4c 3f
       -0.038028166 0.0 0.26619714 0.7985915

/fc/weight_quant/tensor_quant/int_quant/Mul_output_0 f4 [5, 16]
000000 03 dd de 3f bc 57 b6 bf af 3c 39 3e bc 57 b6 3f
       1.7411197 -1.4245524 0.18089555 1.4245524
000010 2a 2e d6 bf 69 b7 90 3f 5b 9c 93 3f f1 c3 2a c0
       -1.6732838 1.1305972 1.1532091 -2.6682093
000020 19 15 22 be 45 64 d0 3f 26 30 9f bf 9e 23 05 bf
       -0.1582836 1.62806 -1.2436569 -0.5200747
000030 5f 9a 4a bf fd 5f 0c 40 34 4b 9c bf 9e 23 05 3f
       -0.791418 2.1933587 -1.221045 0.5200747
000040 24 b1 03 c0 ca 72 33 3f 45 64 50 be 9e 23 05 c0
       -2.0576868 0.7009703 -0.2035075 -2.080299
000050 f5 c1 61 3f 7a d0 c4 3e 10 f8 db 3f a0 a2 20 40
       0.8818658 0.38440305 1.7185078 2.5099258
000060 19 15 22 bf 5f 9a 4a 3f 94 06 3f 3f a2 21 bc 3f
       -0.6331344 0.791418 0.7461941 1.4697764
000070 1d 13 d9 bf db 8b e7 bf af 3c b9 be af 3c b9 3c
       -1.6958958 -1.8089556 -0.3617911 0.022611944
000080 ca 72 33 bf f5 c1 61 3f 69 b7 10 bf af 3c 39 3d
       -0.7009703 0.8818658 -0.5652986 0.045223888
000090 36 ca 37 c0 c0 55 ed bf e4 a8 2d bf 71 b3 7e 3f
       -2.871717 -1.8541794 -0.6783583 0.99492556
0000a0 ff de 27 bf 34 4b 1c c0 e4 a8 ad be 10 f8 db 3f
       -0.6557464 -2.44209 -0.33917916 1.7185078
0000b0 9e 23 05 40 83 ed 8a 3e af 3c b9 bd 9e 23 85 bf
       2.080299 0.27134332 -0.090447776 -1.0401495
0000c0 5b 9c 93 bf 19 15 a2 bf 71 b3 7e be 83 ed 0a 3e
       -1.1532091 -1.2662688 -0.24873139 0.13567166
0000d0 a6 1f f3 3f 10 f8 db be 34 4b 1c c0 9e 23 05 bf
       1.8994033 -0.42962694 -2.44209 -0.5200747
0000e0 71 b3 fe 3f 45 64 50 3f 7a d0 c4 3f 19 15 a2 bf
       1.9898511 0.81403 1.5376122 -1.2662688
0000f0 f1 c3 aa 3f 00 00 00 80 7a d0 c4 bf 94 06 bf bf
       1.3341047 -0.0 -1.5376122 -1.4923882
000100 5b 9c 13 40 71 b3 7e 3f a6 1f f3 3e e4 a8 2d 3f
       2.3064182 0.99492556 0.47485083 0.6783583
000110 45 64 d0 3f 45 64 50 3f 7a d0 44 bf 7a d0 c4 be
       1.62806 0.81403 -0.7688061 -0.38440305
000120 ff de a7 bf db 8b e7 bf 83 ed 8a be 94 06 bf bf
       -1.3114928 -1.8089556 -0.27134332 -1.4923882
000130 bc 57 b6 bf f1 c3 aa bf d5 0e 15 40 e4 a8 ad 3f
       -1.4245524 -1.3341047 2.3290303 1.3567166
