finn/finn_config/model_v15_not work.onnx (onnx, 37298 bytes, 26 tensors)

temporal_blocks.0.chan_norm1.weight f4 [4]
1.1099749 1.77669 0.9664363 0.5956814
00000000: a813 8e3f 946a e33f 5f68 773f 947e 183f

temporal_blocks.0.chan_norm1.bias f4 [4]
0.3251329 -0.0067325993 -0.6540196 -0.09141335
00000000: d277 a63e 239d dcbb d46d 27bf ec36 bbbd

temporal_blocks.0.chan_norm2.weight f4 [4]
0.3297823 1.0577214 0.92420954 0.28281844
00000000: 3ad9 a83e 6a63 873f ff98 6c3f 94cd 903e

temporal_blocks.0.chan_norm2.bias f4 [4]
0.0845544 0.6204893 0.055672664 -0.53485733
00000000: db2a ad3d 63d8 1e3f 0509 643d 69ec 08bf

temporal_blocks.0.downsample.bias f4 [4]
0.42511886 -1.3191656 -0.8629003 -0.21097533
00000000: 2ea9 d93e 6bda a8bf 09e7 5cbf eb09 58be

temporal_blocks.1.chan_norm1.weight f4 [8]
1.2218108 0.7698837 0.9304 0.99731827 1.485159 1.1428794 0.84254223 1.1303046
00000000: 4c64 9c3f 1917 453f b22e 6e3f 4050 7f3f
00000010: b119 be3f df49 923f d9b0 573f d2ad 903f

temporal_blocks.1.chan_norm1.bias f4 [8]
0.2658614 -0.33737043 -0.16731158 0.13910206 -0.065916926 -0.27972457 0.6524884 -0.41083306
00000000: fc1e 883e d1bb acbe ba53 2bbe c570 0e3e
00000010: 74ff 86bd 0f38 8fbe 7b09 273f b658 d2be

temporal_blocks.1.chan_norm2.weight f4 [8]
1.2212058 1.8461803 1.3504939 1.1228019 1.1429929 0.61815053 1.7598379 1.7540001
00000000: 7950 9c3f a34f ec3f fcdc ac3f f9b7 8f3f
00000010: 974d 923f 1d3f 1e3f 5e42 e13f 1383 e03f

temporal_blocks.1.chan_norm2.bias f4 [8]
-0.3776131 0.040291432 -0.18905926 -0.6414815 -0.1706533 -1.0584946 -0.4960166 0.59287
00000000: 8156 c1be a108 253d c098 41be 2238 24bf
00000010: bdbf 2ebe c07c 87bf e3f5 fdbe 54c6 173f

temporal_blocks.1.downsample.bias f4 [8]
0.041485757 0.26496184 -0.07756908 0.5787591 -0.07998925 0.8580329 -0.00063035823 -0.12790926
00000000: f8ec 293d 14a9 873e 8adc 9ebd 8e29 143f
00000010: 67d1 a3bd 0ba8 5b3f a03e 25ba a5fa 02be

temporal_blocks.2.chan_norm1.weight f4 [16]
0.96944624 0.8020464 0.65209925 1.2006466 1.1546834 1.3347226 0.8979764 0.8111737
1.2171569 1.2588423 0.67398274 1.0613961 0.7035535 1.1893178 1.0100504 0.8510469
00000000: a12d 783f ea52 4d3f faef 263f caae 993f
00000010: aacc 933f 31d8 aa3f c8e1 653f 14a9 4f3f
00000020: cccb 9b3f bf21 a13f 228a 2c3f d4db 873f
00000030: 151c 343f 913b 983f 5549 813f 36de 593f

temporal_blocks.2.chan_norm1.bias f4 [16]
0.24530302 0.107008904 0.5287233 -0.43195036 -0.087553315 0.42024133 -0.7422666 0.7776117
0.29696494 -0.70559764 -0.67706376 -0.23831505 0.6082729 -0.111631624 -0.52658486 0.3548239
00000000: b730 7b3e 7c27 db3d 695a 073f 9928 ddbe
00000010: 274f b3bd df29 d73e 2f05 3ebf 8f11 473f
00000020: ca0b 983e 0ca2 34bf 0d54 2dbf dc08 74be
00000030: c6b7 1b3f 1f9f e4bd 44ce 06bf 7aab b53e

temporal_blocks.2.chan_norm2.weight f4 [16]
4.712024 3.7782013 1.5930293 4.224885 3.7679367 3.7603476 4.195418 4.000432
3.4529421 4.306058 3.768123 3.084958 1.8044769 3.020533 4.029514 3.0814178
00000000: e7c8 9640 0dce 7140 62e8 cb3f 4232 8740
00000010: e025 7140 89a9 7040 dd40 8640 8a03 8040
00000020: 01fd 5c40 3acb 8940 ed28 7140 f46f 4540
00000030: 19f9 e63f 6a50 4140 c7f1 8040 f335 4540

temporal_blocks.2.chan_norm2.bias f4 [16]
-0.17969422 -0.011936455 -0.021908814 -0.07555755 0.13132842 0.22682457 -0.16829729 0.32332304
0.11503795 0.5726808 0.3163536 0.35835028 0.41022697 0.12802437 0.15840182 0.087578475
00000000: c301 38be 1f91 43bc 1d7a b3bc ebbd 9abd
00000010: f57a 063e b344 683e 2056 2cbe 998a a53e
00000020: 0499 eb3d 359b 123f 19f9 a13e b079 b73e
00000030: 4509 d23e d218 033e 1634 223e 585c b33d

temporal_blocks.2.downsample.bias f4 [16]
-0.27200574 0.0378789 -0.53305525 0.12576556 -0.47253242 0.38259053 -0.48030302 0.16780536
0.02461548 -0.71858126 -0.14556435 0.29331648 0.14242955 0.4124851 -0.2641897 -0.55752766
00000000: 5644 8bbe e826 1b3d 4f76 08bf b0c8 003e
00000010: c5ef f1be e8e2 c33e 47ea f5be 2bd5 2b3e
00000020: 67a6 c93c f1f4 37bf d20e 15be 942d 963e
00000030: 0dd9 113e 3f31 d33e df43 87be 22ba 0ebf

fc.bias f4 [5]
-0.3240734 0.20130725 0.004433002 -0.15752012 0.2594536
00000000: f3ec a5be 7d23 4e3e b742 913b f44c 21be
00000010: 1ad7 843e

/temporal_blocks.0/conv1/weight_quant/tensor_quant/int_quant/Mul_output_0 f4 [4, 1, 1, 5]
0.0068112677 -0.4631662 -0.7356169 -0.25882816 0.865031 0.660693 -0.03405634 -0.16347042
0.03405634 -0.8377859 -0.85821974 -0.27245072 0.3609972 0.3133183 0.10898028 -0.6811268
-0.02724507 0.7901071 0.3609972 -0.10898028
00000000: 0e31 df3b 1f24 edbe 6451 3cbf 2085 84be
00000010: ac72 5d3f 2d23 293f a97e 0bbd ca64 27be
00000020: a97e 0b3d 2379 56bf 4ab4 5bbf a97e 8bbe
00000030: a0d4 b83e 426b a03e 0e31 df3d 535e 2ebf
00000040: 0e31 dfbc 7544 4a3f a0d4 b83e 0e31 dfbd

/temporal_blocks.0/conv2/weight_quant/tensor_quant/int_quant/Mul_output_0 f4 [4, 4, 1, 5]
-0.1455564 0.19034299 0.23512958 0.1679497 0.07837653 -0.40307927 -0.19034299 -0.1679497
-0.10076982 -0.38068599 0.31350613 -0.055983234 -0.38068599 -0.30230945 -0.011196647 -0.011196647
-0.1455564 -0.23512958 -0.06717988 -0.19034299 0.011196647 -0.7053887 -1.4219742 -0.53743905
0.044786587 0.26871952 0.24632624 0.2127363 0.25752288 0.51504576 -0.76137197 0.055983234
-0.10076982 0.011196647 -0.51504576 0.2127363 0.6717988 0.6158156 0.13435976 -0.22393294
-0.06717988 0.36948934 0.53743905 0.44786587 0.022393294 -0.32470277 -0.49265248 -0.6941921
-0.5822256 -1.0636815 0.7053887 0.6046189 0.8845351 0.5262424 0.951715 -0.089573175
-0.055983234 -0.39188263 0.06717988 0.5262424 0.1455564 0.41427594 0.10076982 -0.39188263
-0.5934223 0.9629116 0.49265248 0.1679497 0.66060215 1.2092378 -0.76137197 -0.43666923
-0.20153964 -0.22393294 -0.41427594 -0.5486357 -0.40307927 -0.13435976 -0.11196647 -0.3358994
00000000: bd0c 15be 46e9 423e cfc5 703e 02fb 2b3e
00000010: e083 a03d 6860 cebe 46e9 42be 02fb 2bbe
00000020: 6860 cebd 46e9 c2be e083 a03e ad4e 65bd
00000030: 46e9 c2be 4ec8 9abe 2472 37bc 2472 37bc
00000040: bd0c 15be cfc5 70be 9b95 89bd 46e9 42be
00000050: 2472 373c 5b94 34bf 4003 b6bf 9b95 09bf
00000060: 2472 373d 9b95 893e f23c 7c3e 8bd7 593e
00000070: 0ada 833e 0ada 033f 46e9 42bf ad4e 653d
00000080: 6860 cebd 2472 373c 0ada 03bf 8bd7 593e
00000090: 02fb 2b3f 17a6 1d3f 9b95 093e ad4e 65be
000000a0: 9b95 89bd b52d bd3e 9b95 093f ad4e e53e
000000b0: 2472 b73c 713f a6be f23c fcbe 93b6 31bf
000000c0: bd0c 15bf b726 88bf 5b94 343f 4ec8 1a3f
000000d0: e470 623f d2b7 063f 98a3 733f 2472 b7bd
000000e0: ad4e 65bd d7a4 c8be 9b95 893d d2b7 063f
000000f0: bd0c 153e fa1b d43e 6860 ce3d d7a4 c8be
00000100: 86ea 17bf 6081 763f f23c fc3e 02fb 2b3e
00000110: 391d 293f 4ec8 9a3f 46e9 42bf 1c93 dfbe
00000120: 6860 4ebe ad4e 65be fa1b d4be 6473 0cbf
00000130: 6860 cebe 9b95 09be ad4e e5bd 02fb abbe

/temporal_blocks.0/downsample/weight_quant/tensor_quant/int_quant/Mul_output_0 f4 [4, 1, 1, 1]
0.5099395 -0.2433802 -0.046358135 1.4718708
00000000: 658b 023f a938 79be 07e2 3dbd 4366 bc3f

/temporal_blocks.1/conv1/weight_quant/tensor_quant/int_quant/Mul_output_0 f4 [8, 4, 1, 5]
-0.30514404 -0.04161055 -0.2496633 -0.13870183 0.1664422 -0.19418257 0.1664422 -0.679639
-0.12483165 -0.7351197 -0.22192293 0.055480734 0.30514404 0.30514404 0.12483165 0.27740365
-0.055480734 0.40223533 -0.6657688 0.80447066 0.51319677 0.04161055 -0.4299757 -0.37449494
-0.13870183 0.23579311 -0.30514404 -0.12483165 0.7906005 -0.40223533 -0.13870183 0.11096147
-0.27740365 -0.47158623 0.27740365 0.5548073 -0.18031238 -0.013870183 -0.63802844 1.7615132
-0.027740367 0.51319677 0.19418257 0.29127386 0.44384587 -0.11096147 -0.055480734 1.1650954
0.5548073 1.664422 0.22192293 0.19418257 -0.7767303 -0.23579311 0.11096147 -0.26353347
-0.23579311 -0.3328844 0.44384587 -0.51319677 -0.4299757 -0.027740367 0.22192293 0.013870183
-0.20805275 0.20805275 -0.13870183 0.055480734 0.0 -0.18031238 0.26353347 0.09709129
-0.027740367 -0.15257202 -0.3328844 -0.6102881 0.4993266 0.36062476 0.4993266 -0.6518986
0.30514404 0.12483165 0.0 -0.06935091 -0.29127386 0.055480734 0.34675458 0.22192293
0.055480734 1.6921624 0.3328844 0.37449494 0.36062476 0.15257202 -0.12483165 -0.06935091
-0.0832211 -0.38836515 1.1373551 -0.44384587 0.31901422 -0.4161055 -0.09709129 0.1664422
0.13870183 0.0832211 -0.18031238 -0.70737934 -0.22192293 0.04161055 0.055480734 -0.27740365
0.15257202 -0.11096147 0.027740367 0.76286006 0.013870183 -0.055480734 -0.06935091 0.2496633
0.1664422 -0.06935091 0.2496633 -0.055480734 0.22192293 -0.38836515 -0.5409371 -0.6102881
-0.29127386 -0.7212495 -0.69350916 0.11096147 -0.20805275 -0.09709129 -0.31901422 -0.52706695
0.36062476 0.34675458 -0.5409371 -1.0125234 -0.47158623 -0.29127386 0.13870183 -0.04161055
0.22192293 0.1664422 0.37449494 0.27740365 0.013870183 0.36062476 0.11096147 0.1664422
0.22192293 0.12483165 -0.055480734 0.5964179 0.26353347 -0.40223533 0.0832211 0.11096147
00000000: d73b 9cbe d36f 2abd bca7 7fbe da07 0ebe
00000010: d36f 2a3e ccd7 46be d36f 2a3e d2fc 2dbf
00000020: bca7 ffbd ce30 3cbf c43f 63be c43f 633d
00000030: d73b 9c3e d73b 9c3e bca7 ff3d da07 8e3e
00000040: c43f 63bd caf1 cd3e d36f 2abf caf1 4d3f
00000050: dd60 033f d36f 2a3d c625 dcbe cdbd bfbe
00000060: da07 0ebe c073 713e d73b 9cbe bca7 ffbd
00000070: cb64 4a3f caf1 cdbe da07 0ebe c43f e33d
00000080: da07 8ebe c073 f1be da07 8e3e da07 0e3f
00000090: cfa3 38be c43f 63bc d555 23bf 4479 e13f
000000a0: c43f e3bc dd60 033f ccd7 463e d921 953e
000000b0: c43f e33e c43f e3bd c43f 63bd d921 953f
000000c0: da07 0e3f c80b d53f c43f 633e ccd7 463e
000000d0: ccd7 46bf c073 71be c43f e33d dced 86be
000000e0: c073 71be d36f aabe c43f e33e dd60 03bf
000000f0: c625 dcbe c43f e3bc c43f 633e c43f 633c
00000100: c80b 55be c80b 553e da07 0ebe c43f 633d
00000110: 0000 0000 cfa3 38be dced 863e ccd7 c63d
00000120: c43f e3bc d73b 1cbe d36f aabe d73b 1cbf
00000130: bca7 ff3e cfa3 b83e bca7 ff3e d4e2 26bf
00000140: d73b 9c3e bca7 ff3d 0000 0000 da07 8ebd
00000150: d921 95be c43f 633d d189 b13e c43f 633e
00000160: c43f 633d c798 d83f d36f aa3e cdbd bf3e
00000170: cfa3 b83e d73b 1c3e bca7 ffbd da07 8ebd
00000180: d36f aabd ccd7 c6be da94 913f c43f e3be
00000190: d555 a33e c80b d5be ccd7 c6bd d36f 2a3e
000001a0: da07 0e3e d36f aa3d cfa3 38be d016 35bf
000001b0: c43f 63be d36f 2a3d c43f 633d da07 8ebe
000001c0: d73b 1c3e c43f e3bd c43f e33c cc4a 433f
000001d0: c43f 633c c43f 63bd da07 8ebd bca7 7f3e
000001e0: d36f 2a3e da07 8ebd bca7 7f3e c43f 63bd
000001f0: c43f 633e ccd7 c6be db7a 0abf d73b 1cbf
00000200: d921 95be cfa3 38bf d189 31bf c43f e33d
00000210: c80b 55be ccd7 c6bd d555 a3be dced 06bf
00000220: cfa3 b83e d189 b13e db7a 0abf 5e9a 81bf
00000230: c073 f1be d921 95be da07 0e3e d36f 2abd
00000240: c43f 633e d36f 2a3e cdbd bf3e da07 8e3e
00000250: c43f 633c cfa3 b83e c43f e33d d36f 2a3e
00000260: c43f 633e bca7 ff3d c43f 63bd d8ae 183f
00000270: dced 863e caf1 cdbe d36f aa3d c43f e33d

/temporal_blocks.1/conv2/weight_quant/tensor_quant/int_quant/Mul_output_0 f4 [8, 8, 1, 5]
-0.012614341 -0.4288876 -0.063071705 -0.6181027 -0.3279729 0.29012984 0.17660078 -0.025228683
0.29012984 0.6559458 -0.12614341 0.18921512 0.31535855 0.4288876 0.12614341 0.13875775
-0.13875775 -0.34058723 -0.47934496 -0.6559458 0.20182946 0.3910446 0.3910446 0.5424167
0.26490116 -0.07568605 0.25228682 0.07568605 0.18921512 0.07568605 -0.3658159 -0.46673062
-0.2775155 -0.3910446 -0.29012984 0.037843026 -0.1513721 -0.1513721 -0.18921512 0.11352907
0.16398644 0.37843025 0.34058723 0.22705814 0.13875775 0.0 0.16398644 -0.2775155
-0.07568605 0.11352907 0.11352907 0.037843026 -0.0 0.18921512 -0.050457366 -0.16398644
-0.20182946 -0.1513721 -0.2144438 -0.1513721 -0.1513721 -0.23967248 0.063071705 -0.012614341
-0.16398644 -0.13875775 0.07568605 0.37843025 0.08830039 0.18921512 0.20182946 -0.13875775
-0.11352907 -0.4288876 -0.35320157 -0.29012984 0.08830039 0.45411628 0.7694748 0.8451609
-0.12614341 -0.35320157 0.2144438 0.12614341 0.025228683 -0.90823257 0.12614341 0.47934496
-0.25228682 -0.08830039 -0.050457366 -0.1513721 -0.07568605 0.10091473 -0.2144438 1.072219
0.31535855 -0.16398644 0.31535855 0.517188 0.31535855 -0.07568605 0.13875775 0.1513721
-0.25228682 -0.59287405 -0.18921512 0.46673062 -0.3027442 -0.31535855 0.517188 0.10091473
-0.80731785 -0.50457364 0.12614341 -0.555031 0.31535855 0.7694748 0.16398644 -0.12614341
0.7568605 0.26490116 -0.07568605 -0.9586899 0.46673062 0.40365893 0.3027442 0.050457366
-0.3910446 -0.050457366 -0.4288876 -0.17660078 -0.23967248 -0.1513721 -0.3658159 -0.70640314
-0.10091473 0.34058723 0.47934496 -0.13875775 -1.2992772 0.2775155 -0.45411628 0.050457366
-0.70640314 1.0469904 -0.2144438 0.31535855 0.37843025 0.29012984 -0.10091473 -0.13875775
0.6433314 0.8451609 0.3279729 0.8830039 -0.47934496 -0.80731785 0.11352907 -0.10091473
0.26490116 0.40365893 0.46673062 0.063071705 0.4288876 0.012614341 -0.2144438 -0.2144438
0.050457366 -0.31535855 0.13875775 0.40365893 0.025228683 0.012614341 0.063071705 -0.11352907
-0.22705814 0.0 0.025228683 -0.050457366 -0.70640314 -0.2775155 -0.517188 -0.31535855
-0.8830039 -0.47934496 -0.025228683 -0.025228683 -0.08830039 0.3279729 0.3910446 0.17660078
0.59287405 0.25228682 0.34058723 -0.16398644 -0.26490116 -0.6181027 -0.012614341 0.10091473
-0.92084694 -0.46673062 0.012614341 -0.13875775 -0.12614341 0.71901745 -0.7316318 -1.1479051
-0.6307171 0.12614341 0.13875775 0.517188 0.4919593 0.5802597 0.23967248 -0.12614341
0.07568605 0.10091473 -0.18921512 -0.2144438 0.41627327 0.6181027 0.47934496 0.4288876
0.6685601 -0.3279729 -0.80731785 -0.8830039 -0.3658159 -0.5424167 -0.23967248 -0.22705814
0.6685601 0.17660078 0.025228683 0.23967248 0.5298023 -0.83254653 -0.46673062 -1.6020213
-0.12614341 0.29012984 -0.07568605 0.7947035 -0.59287405 -0.1513721 -0.34058723 0.050457366
0.6307171 -0.18921512 0.34058723 -0.08830039 0.12614341 -0.8199322 0.20182946 0.025228683
00000000: 62ac 4ebc 2897 dbbe bd2b 81bd fb3b 1ebf
00000010: 10ec a7be e68b 943e d6d6 343e 62ac cebc
00000020: e68b 943e 10ec 273f bd2b 01be 9cc1 413e
00000030: ad76 a13e 2897 db3e bd2b 013e 8316 0e3e
00000040: 8316 0ebe 7361 aebe b46c f5be 10ec 27bf
00000050: 62ac 4e3e ff36 c83e ff36 c83e d2db 0a3f
00000060: 20a1 873e 4a01 9bbd bd2b 813e 4a01 9b3d
00000070: 9cc1 413e 4a01 9b3d 394c bbbe 51f7 eebe
00000080: 8316 8ebe ff36 c8be e68b 94be 4a01 1b3d
00000090: 4a01 1bbe 4a01 1bbe 9cc1 41be ee81 e83d
000000a0: 10ec 273e 9cc1 c13e 7361 ae3e ee81 683e
000000b0: 8316 0e3e 0000 0000 10ec 273e 8316 8ebe
000000c0: 4a01 9bbd ee81 e83d ee81 e83d 4a01 1b3d
000000d0: 0000 0080 9cc1 413e 62ac 4ebd 10ec 27be
000000e0: 62ac 4ebe 4a01 1bbe 2897 5bbe 4a01 1bbe
000000f0: 4a01 1bbe b46c 75be bd2b 813d 62ac 4ebc
00000100: 10ec 27be 8316 0ebe 4a01 9b3d 9cc1 c13e
00000110: d6d6 b43d 9cc1 413e 62ac 4e3e 8316 0ebe
00000120: ee81 e8bd 2897 dbbe d6d6 b4be e68b 94be
00000130: d6d6 b43d ee81 e83e 4dfc 443f 775c 583f
00000140: bd2b 01be d6d6 b4be 2897 5b3e bd2b 013e
00000150: 62ac ce3c ee81 68bf bd2b 013e b46c f53e
00000160: bd2b 81be d6d6 b4bd 62ac 4ebd 4a01 1bbe
00000170: 4a01 9bbd 62ac ce3d 2897 5bbe 793e 893f
00000180: ad76 a13e 10ec 27be ad76 a13e 6f66 043f
00000190: ad76 a13e 4a01 9bbd 8316 0e3e 4a01 1b3e
000001a0: bd2b 81be 98c6 17bf 9cc1 41be 51f7 ee3e
000001b0: 4a01 9bbe ad76 a1be 6f66 043f 62ac ce3d
000001c0: 62ac 4ebf bd2b 01bf bd2b 013e 8316 0ebf
000001d0: ad76 a13e 4dfc 443f 10ec 273e bd2b 01be
000001e0: 9cc1 413f 20a1 873e 4a01 9bbd b46c 75bf
000001f0: 51f7 ee3e 62ac ce3e 4a01 9b3e 62ac 4e3d
00000200: ff36 c8be 62ac 4ebd 2897 dbbe d6d6 34be
00000210: b46c 75be 4a01 1bbe 394c bbbe d6d6 34bf
00000220: 62ac cebd 7361 ae3e b46c f53e 8316 0ebe
00000230: b74e a6bf 8316 8e3e ee81 e8be 62ac 4e3d
00000240: d6d6 34bf c803 863f 2897 5bbe ad76 a13e
00000250: 9cc1 c13e e68b 943e 62ac cebd 8316 0ebe
00000260: 5eb1 243f 775c 583f 10ec a73e 8b0c 623f
00000270: b46c f5be 62ac 4ebf ee81 e83d 62ac cebd
00000280: 20a1 873e 62ac ce3e 51f7 ee3e bd2b 813d
00000290: 2897 db3e 62ac 4e3c 2897 5bbe 2897 5bbe
000002a0: 62ac 4e3d ad76 a1be 8316 0e3e 62ac ce3e
000002b0: 62ac ce3c 62ac 4e3c bd2b 813d ee81 e8bd
000002c0: ee81 68be 0000 0000 62ac ce3c 62ac 4ebd
000002d0: d6d6 34bf 8316 8ebe 6f66 04bf ad76 a1be
000002e0: 8b0c 62bf b46c f5be 62ac cebc 62ac cebc
000002f0: d6d6 b4bd 10ec a73e ff36 c83e d6d6 343e
00000300: 98c6 173f bd2b 813e 7361 ae3e 10ec 27be
00000310: 20a1 87be fb3b 1ebf 62ac 4ebc 62ac ce3d
00000320: a0bc 6bbf 51f7 eebe 62ac 4e3c 8316 0ebe
00000330: bd2b 01be 8711 383f 394c 3bbf 8eee 92bf
00000340: ad76 21bf bd2b 013e 8316 0e3e 6f66 043f
00000350: 17e2 fb3e e68b 143f b46c 753e bd2b 01be
00000360: 4a01 9b3d 62ac ce3d 9cc1 41be 2897 5bbe
00000370: c521 d53e fb3b 1e3f b46c f53e 2897 db3e
00000380: c126 2b3f 10ec a7be 62ac 4ebf 8b0c 62bf
00000390: 394c bbbe d2db 0abf b46c 75be ee81 68be
000003a0: c126 2b3f d6d6 343e 62ac ce3c b46c 753e
000003b0: 20a1 073f c521 55bf 51f7 eebe 090f cdbf
000003c0: bd2b 01be e68b 943e 4a01 9bbd b071 4b3f
000003d0: 98c6 17bf 4a01 1bbe 7361 aebe 62ac 4e3d
000003e0: ad76 213f 9cc1 41be 7361 ae3e d6d6 b4bd
000003f0: bd2b 013e 14e7 51bf 62ac 4e3e 62ac ce3c

/temporal_blocks.1/downsample/weight_quant/tensor_quant/int_quant/Mul_output_0 f4 [8, 4, 1, 1]
-1.3226537 -0.2707795 -0.9164844 0.49990058 -0.593632 -0.020829191 0.2187065 -0.2291211
-0.34368166 0.13538975 -0.062487572 -0.09373136 -0.5623882 -0.07290217 -0.32285246 0.062487572
-0.4790714 0.041658383 0.124975145 0.07290217 0.10414596 0.0 -0.76026547 -0.15621893
0.32285246 -0.11456055 0.15621893 0.18746272 -0.77068007 -1.1456056 -0.2916087 0.36451086
00000000: b74c a9bf 9ca3 8abe b99e 6abf f8f2 ff3e
00000010: 44f8 17bf fba1 aabc 99f4 5f3e b99e 6abe
00000020: 0bf7 afbe 9ca3 0a3e f8f2 7fbd 3af6 bfbd
00000030: acf8 0fbf bc4d 95bd eb4c a5be f8f2 7f3d
00000040: d948 f5be fba1 2a3d f8f2 ff3d bc4d 953d
00000050: 7a4a d53d 0000 0000 c2a0 42bf dbf7 1fbe
00000060: eb4c a53e b99e eabd dbf7 1f3e 3af6 3f3e
00000070: 4a4b 45bf 34a3 92bf bc4d 95be 2ba1 ba3e

/temporal_blocks.2/conv1/weight_quant/tensor_quant/int_quant/Mul_output_0 f4 [16, 8, 1, 5]
-0.013703256 -0.08221953 0.23295535 0.23295535 -0.3425814 0.47961396 -0.2192521 -0.027406512
0.3425814 0.027406512 -1.1647768 -0.534427 -0.30147162 -0.4659107 0.123329304 0.23295535
-0.7810856 0.3699879 -0.31517488 -0.17814232 -0.5481302 0.32887813 -0.32887813 -0.013703256
0.534427 1.068854 0.17814232 0.054813024 -0.10962605 -0.58924 -0.8770084 -0.26036185
-0.17814232 -0.2192521 0.31517488 -0.23295535 0.6166465 0.2740651 0.2192521 -0.16443907
0.63034976 0.2192521 0.4385042 0.31517488 0.8084921 -0.5207237 -0.123329304 -0.35628465
0.054813024 0.027406512 -0.6851628 -0.41109768 -0.31517488 -0.3699879 0.123329304 -0.08221953
-0.4659107 -0.054813024 -0.2740651 -0.28776836 0.32887813 0.60294324 0.123329304 0.123329304
-0.19184558 0.2192521 0.10962605 0.26036185 0.041109767 0.054813024 -0.7399758 -0.7536791
-0.31517488 -0.13703255 -0.08221953 -0.24665861 -0.041109767 0.2192521 -0.5070205 -0.3699879
0.23295535 0.013703256 0.26036185 -0.41109768 -0.23295535 -0.6166465 -0.13703255 -0.027406512
0.013703256 0.4385042 -0.013703256 0.10962605 0.2740651 0.20554884 0.041109767 -1.014041
0.013703256 0.027406512 -0.35628465 -0.06851628 -0.39739442 0.39739442 -0.23295535 0.06851628
-1.0277442 -0.5481302 -0.39739442 -0.24665861 -0.123329304 0.9044149 -1.2881061 -0.19184558
0.28776836 0.42480093 -0.15073581 0.5207237 -0.24665861 0.5618335 -0.23295535 0.2192521
-0.041109767 0.28776836 0.2192521 -0.2192521 -0.23295535 0.534427 0.32887813 -0.3425814
-0.123329304 0.28776836 0.23295535 0.24665861 0.31517488 0.09592279 0.041109767 -0.123329304
0.17814232 0.19184558 0.123329304 -0.20554884 0.4385042 -0.027406512 0.013703256 -0.054813024
-0.39739442 0.26036185 -0.013703256 0.041109767 -0.23295535 -0.054813024 -0.054813024 0.24665861
0.28776836 0.041109767 0.027406512 -0.65775627 -0.35628465 -0.6851628 0.08221953 -0.58924
-0.013703256 -0.10962605 -0.08221953 -0.10962605 0.20554884 -0.027406512 -0.42480093 -0.054813024
0.041109767 0.013703256 0.24665861 -0.23295535 0.16443907 0.30147162 -0.17814232 0.20554884
0.5618335 -0.17814232 -0.20554884 -0.06851628 -0.5481302 -0.31517488 0.47961396 0.16443907
0.09592279 -0.06851628 -0.10962605 -0.4385042 0.16443907 0.5481302 -0.054813024 0.5070205
0.08221953 0.08221953 -0.041109767 -0.10962605 -0.027406512 0.13703255 -0.5618335 0.06851628
-0.26036185 -0.45220745 -0.17814232 0.4385042 0.5481302 0.24665861 -0.06851628 0.027406512
0.054813024 0.26036185 -0.42480093 -0.041109767 0.013703256 -0.123329304 -0.123329304 -1.1099638
-0.83589864 -0.4385042 -0.39739442 -0.47961396 0.19184558 0.28776836 0.013703256 0.24665861
0.32887813 -0.15073581 0.054813024 0.16443907 0.2740651 0.5755367 -1.0414474 0.027406512
-0.13703255 -0.13703255 -0.10962605 0.28776836 -0.013703256 0.83589864 -0.23295535 0.39739442
-0.26036185 0.15073581 0.16443907 0.10962605 0.09592279 0.06851628 0.4659107 0.5755367
0.2740651 0.24665861 0.10962605 0.45220745 -0.5618335 -0.24665861 -0.09592279 0.13703255
00000000: 9f83 60bc b762 a8bd d98b 6e3e d98b 6e3e
00000010: d466 afbe f68f f53e 9f83 60be 9f83 e0bc
00000020: d466 af3e 9f83 e03c 6817 95bf 35d0 08bf
00000030: 7d5a 9abe d98b eebe 1394 fc3d d98b 6e3e
00000040: 3af5 47bf 0e6f bd3e 9a5e a1be f16a 36be
00000050: 4352 0cbf b762 a83e b762 a8be 9f83 60bc
00000060: 35d0 083f 35d0 883f f16a 363e 9f83 603d
00000070: 9f83 e0bd 6fd8 16bf 9f83 60bf 264e 85be
00000080: f16a 36be 9f83 60be 9a5e a13e d98b 6ebe
00000090: 8cdc 1d3f 4352 8c3e 9f83 603e b762 28be
000000a0: 9a5e 213f 9f83 603e 9f83 e03e 9a5e a13e
000000b0: 57f9 4e3f 264e 05bf 1394 fcbd f16a b6be
000000c0: 9f83 603d 9f83 e03c d466 2fbf 657b d2be
000000d0: 9a5e a1be 0e6f bdbe 1394 fc3d b762 a8bd
000000e0: d98b eebe 9f83 60bd 4352 8cbe 6056 93be
000000f0: b762 a83e 7d5a 1a3f 1394 fc3d 1394 fc3d
00000100: 2b73 44be 9f83 603e 9f83 e03d 264e 853e
00000110: b762 283d 9f83 603d 0e6f 3dbf 1df1 40bf
00000120: 9a5e a1be 4352 0cbe b762 a8bd 1394 7cbe
00000130: b762 28bd 9f83 603e 18cc 01bf 0e6f bdbe
00000140: d98b 6e3e 9f83 603c 264e 853e 657b d2be
00000150: d98b 6ebe 8cdc 1dbf 4352 0cbe 9f83 e0bc
00000160: 9f83 603c 9f83 e03e 9f83 60bc 9f83 e03d
00000170: 4352 8c3e 657b 523e b762 283d 18cc 81bf
00000180: 9f83 603c 9f83 e03c f16a b6be 4352 8cbd
00000190: 4877 cbbe 4877 cb3e d98b 6ebe 4352 8c3d
000001a0: 1f8d 83bf 4352 0cbf 4877 cbbe 1394 7cbe
000001b0: 1394 fcbd bc87 673f a9e0 a4bf 2b73 44be
000001c0: 6056 933e 827f d93e 7d5a 1abe 264e 053f
000001d0: 1394 7cbe 52d4 0f3f d98b 6ebe 9f83 603e
000001e0: b762 28bd 6056 933e 9f83 603e 9f83 60be
000001f0: d98b 6ebe 35d0 083f b762 a83e d466 afbe
00000200: 1394 fcbd 6056 933e d98b 6e3e 1394 7c3e
00000210: 9a5e a13e 2b73 c43d b762 283d 1394 fcbd
00000220: f16a 363e 2b73 443e 1394 fc3d 657b 52be
00000230: 9f83 e03e 9f83 e0bc 9f83 603c 9f83 60bd
00000240: 4877 cbbe 264e 853e 9f83 60bc b762 283d
00000250: d98b 6ebe 9f83 60bd 9f83 60bd 1394 7c3e
00000260: 6056 933e b762 283d 9f83 e03c b762 28bf
00000270: f16a b6be d466 2fbf b762 a83d 6fd8 16bf
00000280: 9f83 60bc 9f83 e0bd b762 a8bd 9f83 e0bd
00000290: 657b 523e 9f83 e0bc 827f d9be 9f83 60bd
000002a0: b762 283d 9f83 603c 1394 7c3e d98b 6ebe
000002b0: b762 283e 7d5a 9a3e f16a 36be 657b 523e
000002c0: 52d4 0f3f f16a 36be 657b 52be 4352 8cbd
000002d0: 4352 0cbf 9a5e a1be f68f f53e b762 283e
000002e0: 2b73 c43d 4352 8cbd 9f83 e0bd 9f83 e0be
000002f0: b762 283e 4352 0c3f 9f83 60bd 18cc 013f
00000300: b762 a83d b762 a83d b762 28bd 9f83 e0bd
00000310: 9f83 e0bc 4352 0c3e 52d4 0fbf 4352 8c3d
00000320: 264e 85be bc87 e7be f16a 36be 9f83 e03e
00000330: 4352 0c3f 1394 7c3e 4352 8cbd 9f83 e03c
00000340: 9f83 603d 264e 853e 827f d9be b762 28bd
00000350: 9f83 603c 1394 fcbd 1394 fcbd 4b13 8ebf
00000360: 74fd 55bf 9f83 e0be 4877 cbbe f68f f5be
00000370: 2b73 443e 6056 933e 9f83 603c 1394 7c3e
00000380: b762 a83e 7d5a 1abe 9f83 603d b762 283e
00000390: 4352 8c3e 6056 133f 264e 85bf 9f83 e03c
000003a0: 4352 0cbe 4352 0cbe 9f83 e0bd 6056 933e
000003b0: 9f83 60bc 74fd 553f d98b 6ebe 4877 cb3e
000003c0: 264e 85be 7d5a 1a3e b762 283e 9f83 e03d
000003d0: 2b73 c43d 4352 8c3d d98b ee3e 6056 133f
000003e0: 4352 8c3e 1394 7c3e 9f83 e03d bc87 e73e
000003f0: 52d4 0fbf 1394 7cbe 2b73 c4bd 4352 0c3e

/temporal_blocks.2/conv2/weight_quant/tensor_quant/int_quant/Mul_output_0 f4 [16, 16, 1, 5]
0.32868546 -0.15170097 -0.30340195 -0.3160437 -0.35396895 -0.50566995 -0.24019322 -0.08849224
-0.025283497 0.10113399 -0.6194457 -0.012641748 0.13905923 0.07585049 -0.037925243 0.59416217
0.5562369 1.1630409 0.74586314 0.8849224 -0.4930282 0.56887865 0.4424612 0.29076022
0.5183117 -0.9102059 0.0 -0.29076022 -0.12641749 0.85963887 1.0366234 0.3918942
0.063208744 -0.27811846 -0.07585049 -0.16434273 -0.25283498 -0.67001265 -0.46774468 -0.16434273
-0.42981943 -0.34132722 -0.18962623 -0.5309534 -0.94813114 0.4930282 0.4424612 -0.063208744
-0.08849224 0.13905923 0.4171777 -0.29076022 0.12641749 0.16434273 -0.5435952 -0.063208744
0.063208744 -0.11377574 -0.037925243 0.050566994 -0.16434273 -0.35396895 -0.34132722 -0.3666107
-0.13905923 -0.46774468 -0.13905923 0.025283497 0.15170097 0.012641748 0.37925246 0.30340195
-0.16434273 0.15170097 0.37925246 0.8090719 -0.10113399 0.5183117 0.7079379 -0.29076022
0.10113399 0.025283497 0.025283497 0.29076022 0.3666107 0.07585049 -0.15170097 0.24019322
0.050566994 0.7332214 0.40453595 0.050566994 -0.5183117 -0.30340195 0.037925243 0.2654767
-0.6068039 -0.27811846 0.08849224 0.5435952 0.22755148 -0.012641748 -0.12641749 -0.13905923
0.20226797 -0.050566994 -0.77114666 -0.42981943 -0.20226797 0.2654767 -0.050566994 -0.25283498
-0.2654767 -0.10113399 1.4790846 -0.35396895 -0.20226797 0.025283497 0.25283498 0.13905923
0.20226797 0.24019322 -0.34132722 -0.5183117 -0.050566994 -1.0366234 0.42981943 0.3918942
0.037925243 -1.1883243 -0.74586314 0.11377574 0.13905923 0.59416217 -0.22755148 0.59416217
-0.35396895 0.025283497 1.2262496 -0.3918942 -0.40453595 0.16434273 0.10113399 -0.21490972
0.48038644 0.48038644 0.3918942 0.18962623 -0.7205797 -0.16434273 0.40453595 -0.32868546
0.22755148 -0.4930282 -0.87228066 -0.40453595 0.7079379 0.3918942 -0.12641749 -0.2654767
0.6320874 -0.56887865 0.13905923 -0.0 0.18962623 -0.22755148 0.012641748 0.24019322
0.063208744 -0.11377574 -0.012641748 0.2654767 0.3666107 0.5183117 0.08849224 -0.40453595
-0.012641748 -0.2654767 0.17698447 -0.4930282 0.4930282 0.17698447 -0.13905923 -0.37925246
-0.10113399 -0.15170097 -0.15170097 0.10113399 -0.2654767 -0.0 -1.0492651 -0.4930282
-0.7079379 -0.6320874 0.11377574 0.8343554 0.46774468 0.84699714 0.74586314 0.69529617
0.3918942 0.87228066 0.7079379 0.5562369 0.77114666 -0.94813114 -0.5183117 -0.7585049
-0.7837884 -0.32868546 -0.6068039 -0.050566994 -0.4930282 -0.12641749 -0.11377574 0.13905923
0.27811846 0.012641748 0.24019322 -0.063208744 0.74586314 0.9860564 0.7964302 0.9607729
0.4930282 0.4424612 -0.037925243 0.48038644 0.08849224 -0.16434273 0.25283498 -0.42981943
-0.29076022 -0.7205797 -0.07585049 0.07585049 0.11377574 -0.2654767 -0.025283497 -0.07585049
0.24019322 0.16434273 -0.025283497 -0.17698447 -0.34132722 -0.17698447 0.68265444 0.7585049
-0.037925243 -0.40453595 -0.45510295 -0.35396895 -0.56887865 -0.3160437 0.7205797 -0.25283498
00000000: 7649 a83e 8057 1bbe 8057 9bbe 7bd0 a1be
00000010: 6b3b b5be 9673 01bf 36f5 75be 6b3b b5bd
00000020: 561f cfbc 561f cf3d fe93 1ebf 561f 4fbc
00000030: 8b65 0e3e 8057 9b3d 8057 1bbd 031b 183f
00000040: 8b65 0e3f 86de 943f e3f0 3e3f 468a 623f
00000050: 316e fcbe 08a2 113f 468a e23e 86de 943e
00000060: 13b0 043f 4103 69bf 0000 0000 86de 94be
00000070: 9673 01be 4b11 5c3f 13b0 843f 5ba6 c83e
00000080: 9673 813d 8b65 8ebe 8057 9bbd 7649 28be
00000090: 9673 81be f385 2bbf 3b7c efbe 7649 28be
000000a0: 4b11 dcbe 71c2 aebe 612d 42be 90ec 07bf
000000b0: b9b8 72bf 316e fc3e 468a e23e 9673 81bd
000000c0: 6b3b b5bd 8b65 0e3e 5198 d53e 86de 94be
000000d0: 9673 013e 7649 283e 0e29 0bbf 9673 81bd
000000e0: 9673 813d 4103 e9bd 8057 1bbd 561f 4f3d
000000f0: 7649 28be 6b3b b5be 71c2 aebe 66b4 bbbe
00000100: 8b65 0ebe 3b7c efbe 8b65 0ebe 561f cf3c
00000110: 8057 1b3e 561f 4f3c 612d c23e 8057 9b3e
00000120: 7649 28be 8057 1b3e 612d c23e 561f 4f3f
00000130: 561f cfbd 13b0 043f 6b3b 353f 86de 94be
00000140: 561f cf3d 561f cf3c 561f cf3c 86de 943e
00000150: 66b4 bb3e 8057 9b3d 8057 1bbe 36f5 753e
00000160: 561f 4f3d 66b4 3b3f 561f cf3e 561f 4f3d
00000170: 13b0 04bf 8057 9bbe 8057 1b3d 90ec 873e
00000180: 8057 1bbf 8b65 8ebe 6b3b b53d 0e29 0b3f
00000190: 4103 693e 561f 4fbc 9673 01be 8b65 0ebe
000001a0: 561f 4f3e 561f 4fbd de69 45bf 4b11 dcbe
000001b0: 561f 4fbe 90ec 873e 561f 4fbd 9673 81be
000001c0: 90ec 87be 561f cfbd a552 bd3f 6b3b b5be
000001d0: 561f 4fbe 561f cf3c 9673 813e 8b65 0e3e
000001e0: 561f 4f3e 36f5 753e 71c2 aebe 13b0 04bf
000001f0: 561f 4fbd 13b0 84bf 4b11 dc3e 5ba6 c83e
00000200: 8057 1b3d 031b 98bf e3f0 3ebf 4103 e93d
00000210: 8b65 0e3e 031b 183f 4103 69be 031b 183f
00000220: 6b3b b5be 561f cf3c bff5 9c3f 5ba6 c8be
00000230: 561f cfbe 7649 283e 561f cf3d 4b11 5cbe
00000240: 36f5 f53e 36f5 f53e 5ba6 c83e 612d 423e
00000250: e977 38bf 7649 28be 561f cf3e 7649 a8be
00000260: 4103 693e 316e fcbe c94d 5fbf 561f cfbe
00000270: 6b3b 353f 5ba6 c83e 9673 01be 90ec 87be
00000280: 7bd0 213f 08a2 11bf 8b65 0e3e 0000 0080
00000290: 612d 423e 4103 69be 561f 4f3c 36f5 753e
000002a0: 9673 813d 4103 e9bd 561f 4fbc 90ec 873e
000002b0: 66b4 bb3e 13b0 043f 6b3b b53d 561f cfbe
000002c0: 561f 4fbc 90ec 87be 6b3b 353e 316e fcbe
000002d0: 316e fc3e 6b3b 353e 8b65 0ebe 612d c2be
000002e0: 561f cfbd 8057 1bbe 8057 1bbe 561f cf3d
000002f0: 90ec 87be 0000 0080 524e 86bf 316e fcbe
00000300: 6b3b 35bf 7bd0 21bf 4103 e93d 5198 553f
00000310: 3b7c ef3e ced4 583f e3f0 3e3f eefe 313f
00000320: 5ba6 c83e c94d 5f3f 6b3b 353f 8b65 0e3f
00000330: de69 453f b9b8 72bf 13b0 04bf 612d 42bf
00000340: 5ba6 48bf 7649 a8be 8057 1bbf 561f 4fbd
00000350: 316e fcbe 9673 01be 4103 e9bd 8b65 0e3e
00000360: 8b65 8e3e 561f 4f3c 36f5 753e 9673 81bd
00000370: e3f0 3e3f 316e 7c3f d9e2 4b3f 36f5 753f
00000380: 316e fc3e 468a e23e 8057 1bbd 36f5 f53e
00000390: 6b3b b53d 7649 28be 9673 813e 4b11 dcbe
000003a0: 86de 94be e977 38bf 8057 9bbd 8057 9b3d
000003b0: 4103 e93d 90ec 87be 561f cfbc 8057 9bbd
000003c0: 36f5 753e 7649 283e 561f cfbc 6b3b 35be
000003d0: 71c2 aebe 6b3b 35be 71c2 2e3f 612d 423f
000003e0: 8057 1bbd 561f cfbe 4103 e9be 6b3b b5be
000003f0: 08a2 11bf 7bd0 a1be e977 383f 9673 81be

/temporal_blocks.2/downsample/weight_quant/tensor_quant/int_quant/Mul_output_0 f4 [16, 8, 1, 1]
0.40643853 -0.32515085 1.0567402 0.35224673 0.27095902 -0.054191805 0.9754525 -1.0838361
-0.10838361 -0.6503017 -3.088933 0.7315894 -1.0296443 -0.35224673 0.0 -1.6257541
0.46063036 0.13547951 -0.21676722 -0.43353444 -0.27095902 -1.5173706 -0.7315894 0.35224673
-0.7315894 -0.054191805 -2.9263575 -1.6257541 -0.35224673 -0.27095902 0.48772624 0.13547951
0.13547951 -0.37934265 0.7315894 0.59610987 0.32515085 0.32515085 -0.56901395 -2.519919
-1.0838361 0.37934265 -0.29805493 -0.18967132 -0.16257542 -0.21676722 -0.10838361 0.43353444
0.29805493 1.0838361 -0.29805493 -0.13547951 0.48772624 -0.21676722 -0.35224673 0.839973
-0.18967132 -0.21676722 -0.21676722 0.67739755 -0.67739755 -0.054191805 0.70449346 -0.37934265
-1.0838361 -0.70449346 -0.54191804 0.7586853 -0.054191805 0.054191805 -0.16257542 -0.56901395
-0.054191805 -1.0296443 1.9780009 -0.6232058 -3.4411798 -2.790878 0.7857812 0.8670689
-1.7883296 -0.35224673 -0.08128771 0.24386312 0.13547951 -0.18967132 -0.16257542 0.6503017
-0.56901395 0.43353444 0.027095903 -0.29805493 0.16257542 -0.0 -0.18967132 -0.40643853
-2.3844395 -1.8425214 -0.35224673 -2.0321927 0.027095903 0.16257542 -1.950905 -3.1973164
0.27095902 0.9212607 -0.0 -0.40643853 0.24386312 0.054191805 -0.29805493 -0.16257542
-0.59610987 -0.18967132 1.0296443 0.10838361 -0.54191804 -1.0838361 0.7586853 -0.32515085
-1.6257541 -1.2735075 1.0025485 0.32515085 0.43353444 -0.08128771 1.0025485 -1.6257541
00000000: b618 d03e 2c7a a6be 4343 873f af59 b43e
00000010: 24bb 8a3e 3af8 5dbd 41b7 793f 24bb 8abf
00000020: 3af8 ddbd 2c7a 26bf 14b1 45c0 7149 3b3f
00000030: 62cb 83bf af59 b4be 0000 0000 b618 d0bf
00000040: bed7 eb3e 24bb 0a3e 3af8 5dbe 3af8 ddbe
00000050: 24bb 8abe 3339 c2bf 7149 3bbf af59 b43e
00000060: 7149 3bbf 3af8 5dbd 7149 3bc0 b618 d0bf
00000070: af59 b4be 24bb 8abe 41b7 f93e 24bb 0a3e
00000080: 24bb 0a3e 3339 c2be 7149 3b3f a89a 183f
00000090: 2c7a a63e 2c7a a63e e6aa 11bf 5a46 21c0
000000a0: 24bb 8abf 3339 c23e a89a 98be 3339 42be
000000b0: 2c7a 26be 3af8 5dbe 3af8 ddbd 3af8 dd3e
000000c0: a89a 983e 24bb 8a3f a89a 98be 24bb 0abe
000000d0: 41b7 f93e 3af8 5dbe af59 b4be 7808 573f
000000e0: 3339 42be 3af8 5dbe 3af8 5dbe ed69 2d3f
000000f0: ed69 2dbf 3af8 5dbd af59 343f 3339 c2be
00000100: 24bb 8abf af59 34bf 24bb 0abf 3339 423f
00000110: 3af8 5dbd 3af8 5d3d 2c7a 26be e6aa 11bf
00000120: 3af8 5dbd 62cb 83bf 222f fd3f 6a8a 1fbf
00000130: 4a3c 5cc0 bf9d 32c0 f528 493f 3af8 5d3f
00000140: fce7 e4bf af59 b4be 2c7a a6bd 41b7 793e
00000150: 24bb 0a3e 3339 42be 2c7a 26be 2c7a 263f
00000160: e6aa 11bf 3af8 dd3e 3af8 dd3c a89a 98be
00000170: 2c7a 263e 0000 0080 3339 42be b618 d0be
00000180: a89a 18c0 bed7 ebbf af59 b4be 720f 02c0
00000190: 3af8 dd3c 2c7a 263e 41b7 f9bf d5a0 4cc0
000001a0: 24bb 8a3e bed7 6b3f 0000 0080 b618 d0be
000001b0: 41b7 793e 3af8 5d3d a89a 98be 2c7a 26be
000001c0: a89a 18bf 3339 42be 62cb 833f 3af8 dd3d
000001d0: 24bb 0abf 24bb 8abf 3339 423f 2c7a a6be
000001e0: b618 d0bf 4b02 a3bf 8253 803f 2c7a a63e
000001f0: 3af8 dd3e 2c7a a6bd 8253 803f b618 d0bf

/fc/weight_quant/tensor_quant/int_quant/Mul_output_0 f4 [5, 16]
0.827453 0.4367113 0.18387845 -0.20686325 0.045969613 -1.4020731 1.19521 0.5286505
0.9883467 2.9190705 -0.6205898 -1.1032708 0.5286505 -1.5629668 -2.2754958 1.1722251
1.7698301 0.13790885 0.22984806 0.3677569 0.13790885 -0.2988025 -1.8387845 1.7238605
0.18387845 -2.9190705 -2.3214655 -1.057301 -1.1032708 -0.16089365 2.4823592 1.1032708
-1.5169972 -2.2065415 -0.8964074 2.0456479 -1.7238605 1.5169972 1.7698301 -0.9423771
-1.9077389 -1.8847542 0.597605 0.3907417 0.6895442 0.4367113 0.25283286 0.22984806
-1.5629668 2.2984807 0.48268095 -0.20686325 -0.597605 0.9653619 -1.654906 0.7584986
0.827453 -0.045969613 1.8617693 1.2641643 -0.5056657 -0.5516354 -1.3331188 -2.1605718
-0.9653619 -0.25283286 -0.18387845 -2.2984807 1.9077389 -0.9423771 0.4137265 -2.252511
-0.11492403 1.6089364 -0.091939226 0.7814834 0.11492403 1.2181947 0.8044682 -0.6665594
00000000: f6d3 533f a098 df3e a24a 3c3e f6d3 53be
00000010: a24a 3c3d 2277 b3bf a4fc 983f a455 073f
00000020: 4a04 7d3f 0dd2 3a40 f9de 1ebf fa37 8dbf
00000030: a455 073f 4c0f c8bf b9a1 11c0 790b 963f
00000040: cb89 e23f fa37 0d3e 4a5d 6b3e a24a bc3e
00000050: fa37 0d3e a4fc 98be 4a5d ebbf 76a7 dc3f
00000060: a24a 3c3e 0dd2 3ac0 e492 14c0 a455 87bf
00000070: fa37 8dbf 4ec1 24be f9de 1e40 fa37 8d3f
00000080: f72c c2bf fa37 0dc0 f57a 65bf e5eb 0240
00000090: 76a7 dcbf f72c c23f cb89 e23f a03f 71bf
000000a0: ca30 f4bf a03f f1bf a4fc 183f 4c0f c83e
000000b0: f885 303f a098 df3e 4f73 813e 4a5d 6b3e
000000c0: 4c0f c8bf 4f1a 1340 f521 f73e f6d3 53be
000000d0: a4fc 18bf f521 773f f6d3 d3bf f72c 423f
000000e0: f6d3 533f a24a 3cbd 754e ee3f 23d0 a13f
000000f0: 4f73 01bf fa37 0dbf a3a3 aabf cf46 0ac0
00000100: f521 77bf 4f73 81be a24a 3cbe 4f1a 13c0
00000110: ca30 f43f a03f 71bf f6d3 d33e 2429 10c0
00000120: 4a5d ebbd a1f1 cd3f a24a bcbd 4c0f 483f
00000130: 4a5d eb3d ceed 9b3f a1f1 4d3f a3a3 2abf
