finn/finn_config/model_v3.onnx (onnx, 126731 bytes, 36 tensors)

temporal_blocks.0.conv1.weight f4 [4, 1, 5]
0.0958993 -0.06679599 0.44481918 -0.4669515 -0.7508749 -0.43637922 -0.5809035 -0.5128863
0.450817 0.6623046 0.601774 -0.15014428 -0.27023727 0.24924806 -0.7434648 -0.82826924
0.3540962 -0.2732741 -0.046993636 0.10138958
00000000: da66 c43d 56cc 88bd 57bf e33e 4414 efbe
00000010: 5639 40bf 196d dfbe 17b6 14bf 844c 03bf
00000020: 7cd1 e63e cb8c 293f dc0d 1a3f 6cbf 19be
00000030: 8a5c 8abe e23a 7f3e b653 3ebf 7409 54bf
00000040: 194c b53e 95ea 8bbe 667c 40bd 57a5 cf3d

temporal_blocks.0.conv2.weight f4 [4, 4, 5]
-0.07472046 0.24991648 -0.06291479 -0.6701388 -0.38169596 -0.48861164 -0.43727458 -0.5279845
-0.18101025 0.07680661 0.67437696 -0.031953763 -0.12113464 0.121840104 0.23694092 -0.8101256
0.014108824 0.28082258 -0.33956835 -0.7484132 -0.6404927 -0.016880864 -0.77902466 -0.41260967
-0.241401 0.7741037 0.28363812 1.2385018 0.89835066 0.48341233 -0.31492025 -0.070115484
0.19035956 -0.30535957 -0.19481584 0.5369583 0.06437187 -0.33872235 0.062023796 0.7590678
0.38487592 0.032582678 0.64355356 0.5995334 0.012131068 0.049793266 0.1461861 -0.20588799
-0.09033919 0.098291606 -0.44961822 -0.36105338 -0.18737885 -0.1632225 -0.20871808 0.73057395
0.31257933 -0.013927781 -0.23302713 0.28246987 -0.018788587 -0.36365128 0.33152795 0.4972499
0.92811936 0.061859664 0.021072032 -0.19973916 -0.4597303 -0.47716412 0.08830459 0.19397447
0.3944623 0.1649727 0.40021917 -0.080957346 0.1594309 -0.13629958 0.054438308 0.15445837
00000000: 0a07 99bd 1bea 7f3e 78d9 80bd 378e 2bbf
00000010: a76d c3be 4e2b fabe 74e2 dfbe fe29 07bf
00000020: c05a 39be c94c 9d3d f8a3 2c3f f3e1 02bd
00000030: 7015 f8bd 4e87 f93d a4a0 723e 6464 4fbf
00000040: b228 673c fac7 8f3e e7db adbe 0298 3fbf
00000050: 54f7 23bf bd49 8abc 296e 47bf 9341 d3be
00000060: d331 77be a92b 463f 0439 913e 3a87 9e3f
00000070: 4ffa 653f d281 f73e 3a3d a1be b598 8fbd
00000080: 9eed 423e 1758 9cbe ce7d 47be 1976 093f
00000090: 66d5 833d 046d adbe aa0c 7e3d 4452 423f
000000a0: 750e c53e 6a75 053d edbf 243f 057b 193f
000000b0: 63c1 463c 06f4 4b3d cfb1 153e 4dd4 52be
000000c0: c103 b9bd 1c4d c93d 5c34 e6be fddb b8be
000000d0: 3ee0 3fbe cd23 27be 31ba 55be e506 3b3f
000000e0: 660a a03e 5931 64bc aa9e 6ebe e49f 903e
000000f0: 86ea 99bc 8030 babe 08be a93e 8a97 fe3e
00000100: 3b99 6d3f 8f60 7d3d 419f ac3c 6c88 4cbe
00000110: c561 ebbe db4e f4be 09d9 b43d 3ea1 463e
00000120: f6f6 c93e 9aee 283e 87e9 cc3e f7cc a5bd
00000130: db41 233e 1e92 0bbe b4fa 5e3d 562a 1e3e

temporal_blocks.0.chan_norm1.weight f4 [4]
1.0043705 1.2599764 0.88721466 0.9906703
00000000: 368f 803f e846 a13f 8020 633f 929c 7d3f

temporal_blocks.0.chan_norm1.bias f4 [4]
-0.894403 0.20997852 0.26357564 -0.4362598
00000000: 98f7 64bf 9c04 573e 63f3 863e 725d dfbe

temporal_blocks.0.chan_norm2.weight f4 [4]
0.28440863 0.6385369 0.5617809 0.2997521
00000000: 029e 913e 2777 233f e0d0 0f3f 1b79 993e

temporal_blocks.0.chan_norm2.bias f4 [4]
-0.26942292 0.2578846 0.09612153 0.032503817
00000000: cdf1 89be 7309 843e 5ddb c43d b922 053d

temporal_blocks.0.downsample.weight f4 [4, 1, 1]
-1.1697848 -0.083046824 0.6457035 1.6743891
00000000: 82bb 95bf 7414 aabd d34c 253f 6252 d63f

temporal_blocks.0.downsample.bias f4 [4]
-0.03193515 -0.43384066 0.5932151 -0.36500737
00000000: 6fce 02bd 5d20 debe f2dc 173f 3fe2 babe

temporal_blocks.1.conv1.weight f4 [8, 4, 5]
-0.51837456 0.42562178 -0.2623053 0.5593113 -0.30609712 -0.13670284 -0.018835597 0.506707
1.3575202 0.6291779 0.10375636 -0.08593932 0.2473312 0.4739569 -0.2772535 -0.050695647
-0.39896026 0.057263084 1.2489605 -0.96042335 -0.009867449 0.5771972 -0.050981306 0.030470261
-0.16395685 -0.4873336 0.009477675 0.27412292 -0.07577661 0.16326609 -0.33187902 -0.16713662
0.19827013 0.45359108 0.24654447 -0.0027970073 -0.3751304 0.12962478 -0.64070636 0.51763535
-0.10364388 -0.37363815 0.46623632 -1.2678386 1.6193684 -0.008210194 0.1117112 0.06671686
-0.14321168 0.30514947 0.00817381 0.08266703 0.22167546 0.28733423 0.33053896 0.04486305
-0.006686743 -0.3151318 0.31560647 -0.34726232 -0.25156677 -0.21143334 0.1468386 0.26557568
-0.036366392 -0.46575525 -0.13361992 0.23109567 -0.1361216 -0.21594433 -0.2423464 -0.0926992
-0.43151033 -0.2731072 -0.28017923 0.28427354 0.07050157 -0.008794878 -0.24628605 0.29266638
-0.34781834 -1.0533354 0.73173636 -0.11271412 0.26920512 -0.25856215 -0.35467714 0.07469272
-0.34249422 -0.030555934 0.18443406 0.47439995 -0.09435493 -0.67805797 -0.31344253 -0.32912916
0.7557236 -0.613192 0.20021869 -0.114567555 -0.0649121 0.42125362 -0.3824623 0.558024
-0.5117526 0.29206318 0.18385127 0.071498066 0.036126215 0.279583 0.22016157 0.07660579
-0.26898092 -0.2260986 -0.113018684 -0.15884715 -0.40063843 0.20535722 -0.9506427 1.0366286
0.023170065 -0.2781627 -0.34799218 0.8371466 -0.723199 0.086545154 0.3419717 -0.13533624
-0.65998995 -0.063194014 0.08416873 -0.078771316 -0.74000686 -0.2941615 0.12302365 0.18604682
0.47157562 0.04468427 0.68254566 -1.1942465 0.50089544 1.1083324 -1.0185764 -0.3239396
-0.102726065 0.12278313 -0.082448326 -0.14455588 0.60951 -0.6105022 0.3166738 -0.049325835
0.13812323 0.6446721 0.15096316 0.36248413 -0.5055673 -0.05498548 0.48547617 -0.68537384
00000000: 32b4 04bf 19eb d93e e14c 86be 062f 0f3f
00000010: c3b8 9cbe d4fb 0bbe 1c4d 9abc 8db7 013f
00000020: 39c3 ad3f ce11 213f 377e d43d f400 b0bd
00000030: 6444 7d3e 7baa f23e 2cf4 8dbe 3da6 4fbd
00000040: 8544 ccbe b28c 6a3d f0dd 9f3f 4ede 75bf
00000050: 15ab 21bc 32c3 133f c6d1 50bd c59c f93c
00000060: 4ee4 27be ca83 f9be 4048 1b3c d759 8c3e
00000070: c430 9bbd 3a2f 273e 0cec a9be dd25 2bbe
00000080: 5307 4b3e 173d e83e 2776 7c3e ff4d 37bb
00000090: 1711 c0be 5cbc 043e 5505 24bf c083 043f
000000a0: 3e43 d4bd 804d bfbe 87b6 ee3e 8948 a2bf
000000b0: 7747 cf3f 0d84 06bc d7c8 e43d d9a2 883d
000000c0: 15a6 12be 8d3c 9c3e 72eb 053c 554d a93d
000000d0: e4fe 623e 791d 933e 673c a93e 51c2 373d
000000e0: 771c dbbb f558 a1be 2c97 a13e 5ecc b1be
000000f0: 5ccd 80be fb81 58be dc5c 163e 89f9 873e
00000100: edf4 14bd 7977 eebe a9d3 08be 58a4 6c3e
00000110: 7663 0bbe 8320 5dbe a829 78be 14d9 bdbd
00000120: ecee dcbe b5d4 8bbe a773 8fbe 4d8c 913e
00000130: 2163 903d 6418 10bc 6932 7cbe 5ed8 953e
00000140: 3f15 b2be b2d3 86bf 1353 3b3f a9d6 e6bd
00000150: 41d5 893e 4262 84be 3e98 b5be 7ff8 983d
00000160: 675b afbe 7050 fabc 48dc 3c3e 8de4 f23e
00000170: 283d c1bd 3595 2dbf 8a7b a0be 9e83 a8be
00000180: 1a77 413f 27fa 1cbf 2106 4d3e 65a2 eabd
00000190: a3f0 84bd 8eae d73e 19d2 c3be a9da 0e3f
000001a0: 3802 03bf 4e89 953e 8243 3c3e 946d 923d
000001b0: 15f9 133d 8125 8f3e 0972 613e 7fe3 9c3d
000001c0: deb7 89be 6486 67be 5776 e7bd d4a8 22be
000001d0: 7b20 cdbe 2a49 523e 525d 73bf 3fb0 843f
000001e0: 26cf bd3c 576b 8ebe 082c b2be 3d4f 563f
000001f0: 9223 39bf 963e b13d ea16 af3e 9595 0abe
00000200: 1af5 28bf dd6b 81bd a860 ac3d db52 a1bd
00000210: 1771 3dbf 569c 96be d3f3 fb3d 0f83 3e3e
00000220: 5c72 f13e da06 373d 50bb 2e3f 12dd 98bf
00000230: af3a 003f d6dd 8d3f b660 82bf 69db a5be
00000240: 0b62 d2bd b975 fb3d abda a8bd 7506 14be
00000250: d908 1c3f df49 1cbf 1123 a23e e309 4abd
00000260: 2d70 0d3e 3b09 253f 1696 1a3e 8597 b93e
00000270: dc6c 01bf 7438 61bd 5590 f83e a974 2fbf

temporal_blocks.1.conv2.weight f4 [8, 8, 5]
0.43011886 0.2206638 0.36137617 0.9963731 0.8860228 0.5468212 0.23871453 0.063451186
0.40152192 0.38837832 -0.021064099 0.16747637 0.35963568 -0.16495489 -0.42092147 -0.3407224
-0.29769495 -0.5404751 -0.47721386 -0.47063172 -0.24258113 -0.59170353 -0.07974199 -0.84481573
-0.8960348 0.19732705 -0.015680214 -0.35267308 0.08148118 0.31665727 -0.3696244 -0.35930488
-0.14745338 -0.13182566 -0.5362151 -0.10850234 0.44951198 0.5194796 0.4773753 0.8262741
-0.08182333 0.34695306 -0.17299168 -0.458711 -1.0911871 -0.26173648 -0.259191 -0.12620004
-0.1283802 -0.029303519 0.2975621 -0.12452975 0.10992402 0.3945358 -0.018638484 -0.3278187
-0.17178142 0.015227497 0.14002314 0.35464445 0.50114757 0.3614903 0.19806333 0.1809751
0.23902416 -0.41264024 -0.46404365 -0.49949744 -0.8398376 -0.39521414 0.14354819 0.18073791
0.116816595 -0.0211393 0.28776708 0.18025221 0.06689846 0.3490309 0.07392207 -0.2216325
0.1681477 0.26023716 -0.16019228 0.102527976 -0.3472846 -0.06571911 -0.16513042 -0.18480471
-0.23013605 -0.12492957 0.07588744 -0.1439507 0.38501945 0.34656456 0.35177273 -0.09127324
-0.17812456 -0.2263688 -0.30117136 -0.33593738 0.17444675 -0.23171437 0.2668617 0.17205223
0.09926708 -0.18476614 0.16333847 -0.12715386 -0.04603113 0.078916624 -0.135266 0.2752998
0.13466933 -0.112088434 0.25752735 0.26485664 0.059088368 0.1793865 0.32638875 0.31725267
-0.21110596 -0.10757565 -0.40379182 -0.20311722 0.060555864 0.100939356 0.2937504 0.31139472
-0.006187646 0.18437001 -0.047812283 -0.095861346 0.06242114 0.017884698 0.7507096 0.27414536
0.42832914 0.47145358 0.0729744 -0.0668829 -0.094699204 -0.265489 0.1860689 -0.32802096
-0.020417923 -0.67523897 -0.55869806 0.5286585 0.57632816 0.2114698 -0.2711794 -0.2102332
-0.40710223 -0.13998958 -0.7404641 -0.088905506 -0.21969397 -0.30262926 0.18946062 -0.35111818
0.22419702 0.047636114 0.092956595 0.057958934 0.41664314 -0.027053207 0.08635925 -0.07019415
-0.054395095 0.1390808 0.14763217 -0.25323674 -0.08152646 -0.39770937 -1.121773 0.2109657
0.027061095 -0.17692453 0.3360244 0.13839377 0.10043508 0.29557678 0.31717625 0.25528446
0.0030480772 -0.049152024 0.07101749 0.12653139 0.1771921 0.23591995 -0.34079534 0.045262896
0.10465631 0.21490318 0.08696867 -0.2889052 -0.48602042 -0.2519762 -0.07050505 -0.18043792
-0.47074887 0.31915748 -0.26074418 0.15649824 -0.25671488 -0.39086717 -0.20187898 -0.18912768
0.008446862 0.68371814 -1.131735 0.053038016 0.21017715 0.19641684 0.020510882 0.82308066
0.29914248 0.17504719 -0.092829466 0.07786788 -0.43910253 -0.6612492 0.42867172 -0.30622208
-0.07028285 0.2667249 -0.4421548 -0.0066931355 -0.18586083 0.60465276 0.72044486 0.03384006
-0.18061766 0.03013703 -0.6084129 0.2083497 0.18401146 -0.3083176 0.05506913 -0.5107175
-0.47910663 -0.60608506 0.43362173 -0.59817415 0.14109063 0.80360633 -0.34852523 0.26830858
0.6167722 -1.1241429 -0.44078273 -0.28629106 0.035342485 -0.24767226 0.6056625 0.47585055
00000000: 8a38 dc3e b1f5 613e 4c06 b93e 4f12 7f3f
00000010: 64d2 623f 79fc 0b3f 9571 743e b2f2 813d
00000020: 4894 cd3e 86d9 c63e 9e8e acbc ed7e 2b3e
00000030: 2b22 b83e efe9 28be 0583 d7be 2b73 aebe
00000040: 796b 98be 935c 0abf 6055 f4be a4f6 f0be
00000050: 3067 78be e279 17bf c54f a3bd d845 58bf
00000060: 8962 65bf 1a10 4a3e cb73 80bc 9191 b4be
00000070: 9bdf a63d e720 a23e 693f bdbe cff6 b7be
00000080: 05fe 16be 4efd 06be 6545 09bf 7a36 debd
00000090: 6f26 e63e 9dfc 043f 896a f43e b386 533f
000000a0: fd92 a7bd d5a3 b13e bb24 31be 2bdc eabe
000000b0: 05ac 8bbf 5302 86be afb4 84be 953a 01be
000000c0: 1976 03be ef0d f0bc 0f5a 983e 7409 ffbd
000000d0: d81f e13d 9900 ca3e bcaf 98bc dad7 a7be
000000e0: 78e7 2fbe c07c 793c 3a62 0f3e f593 b53e
000000f0: 354b 003f 4215 b93e 1dd1 4a3e 8951 393e
00000100: c0c2 743e 9545 d3be 2197 edbe 21be ffbe
00000110: 99ff 56bf 8259 cabe 4cfe 123e 5c13 393e
00000120: 8a3d ef3d 532c adbc 3556 933e 0994 383e
00000130: 0f02 893d 2eb4 b23e 7464 973d a1f3 62be
00000140: e92e 2c3e ce3d 853e 7209 24be 30fa d13d
00000150: 49cf b1be be97 86bd f317 29be 723d 3dbe
00000160: c9a8 6bbe 13db ffbd e06a 9b3d d067 13be
00000170: 4521 c53e e970 b13e 8e1b b43e 77ed babd
00000180: 4966 36be 39cd 67be 2233 9abe fcff abbe
00000190: 2ba2 323e 8846 6dbe 19a2 883e 762e 303e
000001a0: 8a4c cb3d 5633 3dbe 3342 273e 9f34 02be
000001b0: 238b 3cbd 0a9f a13d 2c83 0abe 18f4 8c3e
000001c0: c2e6 093e 9f8e e5bd a0da 833e 4a9b 873e
000001d0: a506 723d 18b1 373e 6d1c a73e f16e a23e
000001e0: 292c 58be 9f50 dcbd cdbd cebe f6fd 4fbe
000001f0: 6d09 783d 4bb9 ce3d 7466 963e 216f 9f3e
00000200: bdc1 cabb 7ecb 3c3e d0d6 43bd f452 c4bd
00000210: 4fad 7f3d ee82 923c 812e 403f c85c 8c3e
00000220: f54d db3e 5d62 f13e 9a73 953d e7f9 88bd
00000230: a8f1 c1bd 2dee 87be d988 3e3e 5df2 a7be
00000240: 7d43 a7bc 76dc 2cbf d606 0fbf 2a56 073f
00000250: 3e8a 133f 8a8b 583e 07d8 8abe 5f47 57be
00000260: b46f d0be 6e59 0fbe 0e8f 3dbf 1714 b6bd
00000270: 75f7 60be 39f2 9abe f701 423e c3c5 b3be
00000280: e793 653e 161e 433d 0760 be3d 5966 6d3d
00000290: 4052 d53e b09e ddbc 1edd b03d f3c1 8fbd
000002a0: 64cd 5ebd 326b 0e3e e32c 173e 3fa8 81be
000002b0: 58f7 a6bd 90a0 cbbe 4296 8fbf 6407 583e
000002c0: 3baf dd3c b42b 35be 640b ac3e 19b7 0d3e
000002d0: e8b0 cd3d d755 973e ed64 a23e a5b4 823e
000002e0: 40c2 473b a253 49bd 9e71 913d 7291 013e
000002f0: d971 353e 0095 713e ba7c aebe 9665 393d
00000300: 0c56 d63d 940f 5c3e a11c b23d 62eb 93be
00000310: abd7 f8be 0603 81be f464 90bd b8c4 38be
00000320: ff05 f1be 9c68 a33e 4380 85be 1341 203e
00000330: 2270 83be be1f c8be 5db9 4ebe b0aa 41be
00000340: b564 0a3c 2708 2f3f b1dc 90bf 643e 593d
00000350: ae38 573e 7f21 493e 7006 a83c 6ab5 523f
00000360: 3429 993e 923f 333e 601d bebd 3279 9f3d
00000370: 0cd2 e0be a147 29bf dc7a db3e 24c9 9cbe
00000380: 74f0 8fbd 2b90 883e 1d62 e2be 1752 dbbb
00000390: 4d52 3ebe 86ca 1a3f 136f 383f e09b 0a3d
000003a0: d6f3 38be efe1 f63c f3c0 1bbf a059 553e
000003b0: 806d 3c3e cedb 9dbe 2b90 613d 62be 02bf
000003c0: 774d f5be 6428 1bbf ab03 de3e f121 19bf
000003d0: 107a 103e 25b9 4d3f e671 b2be be5f 893e
000003e0: c8e4 1d3f eae3 8fbf 46ae e1be be94 92be
000003f0: 48c3 103d cc9d 7dbe b30c 1b3f afa2 f33e

temporal_blocks.1.chan_norm1.weight f4 [8]
0.76773554 1.106432 1.2193406 1.0120482 0.9621373 1.0360202 0.9324378 0.8559757
00000000: 518a 443f 909f 8d3f 5a13 9c3f cc8a 813f
00000010: a14e 763f 4f9c 843f 3eb4 6e3f 3921 5b3f

temporal_blocks.1.chan_norm1.bias f4 [8]
-0.29420856 -0.26251712 -0.72491086 0.43490452 0.61212796 0.2784049 0.6402729 -0.24956131
00000000: 81a2 96be a568 86be c293 39bf ceab de3e
00000010: 6bb4 1c3f 168b 8e3e ede8 233f 008d 7fbe

temporal_blocks.1.chan_norm2.weight f4 [8]
0.78875744 1.1219931 1.2379472 1.3510234 1.6777405 1.2776159 1.4934599 1.9190487
00000000: 02ec 493f 789d 8f3f 0e75 9e3f 56ee ac3f
00000010: 33c0 d63f eb88 a33f b229 bf3f 63a3 f53f

temporal_blocks.1.chan_norm2.bias f4 [8]
-0.7758793 0.3425305 0.41429344 -0.56936747 -0.24734193 -0.44384524 -0.35343733 -0.23010582
00000000: 07a0 46bf 2860 af3e 451e d43e 11c2 11bf
00000010: 3447 7dbe af3f e3be bdf5 b4be dca0 6bbe

temporal_blocks.1.downsample.weight f4 [8, 4, 1]
0.36829516 0.06128949 0.06886268 -0.18195525 0.32555935 -0.20896989 -0.5923753 -0.21418218
-0.25073218 -0.20357274 -0.5423237 0.119669475 -0.0032603417 -0.4237301 0.2773586 -0.7168865
0.37939015 0.18133467 0.21252026 -0.297316 0.35915977 -0.14992134 -0.096396856 -1.422458
-0.3739647 0.16340111 -0.22519287 -0.40731516 0.046870623 -0.008515811 -0.74483883 0.3106517
00000000: 2f91 bc3e b00a 7b3d e007 8d3d 7a52 3abe
00000010: b7af a63e 34fc 55be e8a5 17bf 9352 5bbe
00000020: f85f 80be 5f75 50be bad5 0abf 4515 f53d
00000030: 75ab 55bb 27f3 d8be f201 8e3e e085 37bf
00000040: 6d3f c23e ccaf 393e e99e 593e ce39 98be
00000050: cae3 b73e fb84 19be b76b c5bd 1b13 b6bf
00000060: 4d78 bfbe 9f52 273e f698 66be 9d8b d0be
00000070: 69fb 3f3d e685 0bbc c2ad 3ebf bd0d 9f3e

temporal_blocks.1.downsample.bias f4 [8]
-0.4407073 -0.5894898 -0.66214633 0.3837797 -0.41849583 0.040045265 -0.037042253 -0.46230528
00000000: 63a4 e1be cee8 16bf 6c82 29bf c67e c43e
00000010: 1645 d6be 8106 243d 9eb9 17bd 47b3 ecbe

temporal_blocks.2.conv1.weight f4 [16, 8, 5]
-0.14666024 -0.055280175 -0.16704503 0.07054394 -0.14172617 0.33238965 0.1666313 -0.30940455
-0.06862131 -0.39391965 0.5760269 -0.14105105 0.43080622 0.10126295 0.07112361 0.5577319
0.20547602 0.34351367 -0.26109713 0.22496442 0.79985154 -0.2192758 -0.110964574 -0.22316676
-0.17451666 -0.564038 -0.9827968 0.075531475 -0.00243626 0.77257615 0.39009818 0.12002098
-0.14610736 -0.14503999 0.15278746 0.27558535 0.4657827 0.13988233 -0.03866443 0.17865865
0.023551561 -0.099704534 -0.30093682 -0.041012544 0.480037 0.39714536 -0.089727215 0.087620474
-0.00276427 -0.5330049 0.49089977 -0.014549392 0.2766561 -0.16915224 -0.006519528 -0.20372821
-0.51786226 0.20236094 -0.073960744 0.4903842 -0.16060053 -0.15855801 0.01210201 -0.22430862
-0.2807367 0.5216569 -0.0597682 0.17375067 -0.27576724 0.31262416 -0.48402044 -0.40434104
-0.08084621 -0.043422654 -0.15428051 0.3238959 0.2336616 -0.0551937 0.19858171 -0.37011263
-0.7768473 0.1092604 0.53183573 0.12471437 -0.24272612 0.5982618 0.18287495 -0.03173297
0.12592731 -0.64356875 -0.24556653 -0.36546263 0.054433204 0.20162393 0.30825028 -0.93331295
0.07570285 0.23740374 0.19164333 0.1502443 -0.097768866 -0.10681035 0.010616514 0.46638227
-0.7336447 0.05346973 -0.047771636 0.12129145 0.26591477 0.12393506 -0.80455846 -0.6553725
-0.03742785 0.057877395 0.3371924 -0.10400865 -0.38242474 -0.1399695 0.26754194 0.38643235
0.6199177 0.116210304 -0.379996 -0.16655515 -0.056541145 0.80769396 0.71847755 0.69578874
0.33624774 2.1240742 -0.9566405 0.28368118 -0.0009950261 -0.94786716 -0.807942 -0.20533985
-1.5234956 0.105987854 -0.6629115 -0.99965686 0.71405214 0.29083046 -0.3179087 0.38787773
0.7668365 -0.16695374 -0.39253545 -0.012395827 -0.08629098 1.3382326 -0.64727116 -0.28234285
0.19256057 -0.03723325 0.5102315 0.5097346 -0.1385771 0.41042167 1.2604529 0.6509928
0.02073749 0.15847765 -0.011869962 0.032953676 -0.15995511 0.3829369 -0.21582533 0.13204923
-0.08013934 0.17483945 -0.19329178 0.20214505 -0.20749854 0.44497743 0.20252496 0.21148752
0.3084995 -0.49494615 -0.22762786 0.0014712288 0.124703944 0.3984807 0.095061116 -0.16522898
0.6091659 -0.6555009 -0.26889333 -0.07487742 0.12914671 0.2889975 -0.12802154 0.08916769
0.08828739 -0.08017356 -0.31886783 -0.56335956 -0.16343507 0.13072413 -0.2117366 -0.118042015
-0.2743821 -0.18340105 0.05192463 -0.010409465 -0.09425014 0.83015734 0.24311036 0.34124023
0.32743025 0.6399369 -0.033491027 -0.29098415 -0.21186376 -0.03862412 -0.0054380046 -0.43366644
0.24638295 -0.30228916 0.03935409 -0.017792506 -0.37485668 0.60279715 -0.22540453 -0.19164324
-0.5529511 0.011763497 0.24958858 -0.35214496 0.3397763 -0.085493825 -0.053834252 0.48229143
0.11367665 0.27144498 0.048237797 -0.17218684 -0.44704133 0.20489357 -0.14851575 -0.25128213
-0.1240665 -0.10260291 -0.069578946 0.052570015 0.008381037 -0.36606407 -0.2631413 -0.42699394
0.01639841 0.8293724 0.15539107 0.52353406 0.0863291 0.34756646 -0.040523138 0.34405324
00000000: 1a2e 16be 776d 62bd da0d 2bbe 5779 903d
00000010: aa20 11be fa2e aa3e 65a1 2a3e 466a 9ebe
00000020: 5489 8cbd d6af c9be 8076 133f b06f 10be
00000030: a292 dc3e f362 cf3d 41a9 913d 85c7 0e3f
00000040: 4e68 523e 06e1 af3e 86ae 85be 135d 663e
00000050: 12c3 4c3f d689 60be 6541 e3bd d485 64be
00000060: 7fb4 32be cb64 10bf 9298 7bbf 3fb0 9a3d
00000070: a9a9 1fbb 8dc7 453f f3ba c73e 8fcd f53d
00000080: 2b9d 15be 5d85 14be 5174 1c3e 8619 8d3e
00000090: 127b ee3e 503d 0f3e 985e 1ebd 4bf2 363e
000000a0: 34ef c03c e431 ccbd 6414 9abe c5fc 27bd
000000b0: 69c7 f53e a356 cb3e e7c2 b7bd 5d72 b33d
000000c0: c128 35bb 0273 08bf 3757 fb3e 9360 6ebc
000000d0: dea5 8d3e 3f36 2dbe c4a1 d5bb 219e 50be
000000e0: 9f92 04bf b537 4f3e bb78 97bd a313 fb3e
000000f0: 7774 24be 085d 22be 8247 463c 29b1 65be
00000100: b9bc 8fbe 4e8b 053f 80cf 74bd b2eb 313e
00000110: 5d31 8dbe 4610 a03e 87d1 f7be ca05 cfbe
00000120: b392 a5bd f4db 31bd b6fb 1dbe afd5 a53e
00000130: fd44 6f3e ca12 62bd 0159 4b3e 677f bdbe
00000140: 77df 46bf ebc3 df3d 6326 083f 3f6a ff3d
00000150: 328d 78be af27 193f 9243 3b3e 6efa 01bd
00000160: 17f3 003e ecc0 24bf cb75 7bbe eb1d bbbe
00000170: 5af5 5e3d 8176 4e3e fbd2 9d3e 99ed 6ebf
00000180: 190a 9b3d f719 733e 263e 443e a4d9 193e
00000190: 0b3b c8bd 63bf dabd e3f0 2d3c a8c9 ee3e
000001a0: 24d0 3bbf 1303 5b3d 31ac 43bd a767 f83d
000001b0: fb25 883e aad1 fd3d 8bf7 4dbf 7ec6 27bf
000001c0: f24d 19bd d910 6d3d 7ba4 ac3e 7d02 d5bd
000001d0: 2dcd c3be 2a54 0fbe 42fb 883e 76da c53e
000001e0: edb2 1e3f abff ed3d d68e c2be 6f8d 2abe
000001f0: b097 67bd 08c5 4e3f 25ee 373f 361f 323f
00000200: aa28 ac3e d5f0 0740 64e6 74bf a93e 913e
00000210: 896b 82ba 6ca7 72bf 49d5 4ebf 9c44 52be
00000220: e701 c3bf 2910 d93d 91b4 29bf 83e9 7fbf
00000230: 1fcc 363f bbe7 943e eec4 a2be e997 c63e
00000240: 664f 443f ecf5 2abe 68fa c8be de17 4bbc
00000250: 53b9 b0bd 354b ab3f 90b3 25bf 3e8f 90be
00000260: 992e 453e e481 18bd 889e 023f f77d 023f
00000270: 28e7 0dbe ca22 d23e 8556 a13f 77a7 263f
00000280: abe1 a93c f747 223e 3b7a 42bc 6ffa 063d
00000290: 46cb 23be 4e10 c43e 5101 5dbe ea37 073e
000002a0: 1820 a4bd 1d09 333e 48ee 45be 1dff 4e3e
000002b0: 7f7a 54be 15d4 e33e b462 4f3e 2f90 583e
000002c0: a5f3 9d3e 9569 fdbe 4717 69be 3fd6 c03a
000002d0: c864 ff3d aa05 cc3e 67af c23d c931 29be
000002e0: 4cf2 1b3f e8ce 27bf 63ac 89be 5559 99bd
000002f0: 093f 043e 7bf7 933e 1418 03be 8d9d b63d
00000300: 05d0 b43d 0932 a4bd a542 a3be 5538 10bf
00000310: 865b 27be 8cdc 053e 7bd1 58be 03c0 f1bd
00000320: d07b 8cbe 7ccd 3bbe ecae 543d 768c 2abc
00000330: 3806 c1bd 3185 543f ecf1 783e 0ab7 ae3e
00000340: f0a4 a73e e8d2 233f e32d 09bd e0fb 94be
00000350: d0f2 58be 5334 1ebd 4a31 b2bb 8709 debe
00000360: d04b 7c3e a5c5 9abe c131 213d 97c1 91bc
00000370: 37ed bfbe ea50 1a3f 72d0 66be 203e 44be
00000380: 348e 0dbf afbb 403c 2694 7f3e 584c b4be
00000390: 29f7 ad3e 6317 afbd 4e81 5cbd e7ee f63e
000003a0: 4ecf e83d d6fa 8a3e ff94 453d bf51 30be
000003b0: 9ae2 e4be 9fcf 513e 8314 18be 0da8 80be
000003c0: 9416 febd 7921 d2bd 687f 8ebd a853 573d
000003d0: 9e50 093c c06c bbbe 75ba 86be f39e dabe
000003e0: f555 863c c051 543f d61e 1f3e 5406 063f
000003f0: 50cd b03d 3bf4 b13e 97fb 25bd bf27 b03e

temporal_blocks.2.conv2.weight f4 [16, 16, 5]
-0.36187005 0.22814217 -0.0767759 0.14296721 0.121730626 -0.413708 0.11964782 -0.058641925
-0.22442114 -0.10756849 0.58785516 0.77592653 0.27049732 0.13008262 -0.1977167 -0.32704195
-0.40833044 -0.35640213 0.26506996 -0.284224 -0.20343778 -0.4012823 -0.27525362 -0.0727457
0.14865145 0.39421725 0.05535269 -0.28593707 0.12095659 -0.11691199 -0.18587682 0.39999563
-0.89148754 -0.41852 -0.06409921 0.013627269 0.15132345 0.25418028 0.08017383 0.5546515
0.22809379 -0.3381153 -0.21285099 -0.21678545 0.08966154 0.5022814 0.4724742 0.38136107
0.09273468 -0.06930785 -0.33557007 0.06891362 -0.4018666 0.06935095 -0.2699693 0.8936272
-0.005229608 -0.40203077 -0.6280902 -0.57664883 -0.07143003 0.0031036774 0.13178533 -0.47049126
0.19952653 1.0609583 0.34041476 -0.06517053 -0.52674115 0.26120067 -0.5929642 -0.611931
0.16586939 0.41548118 0.0882319 0.5064546 0.17442639 0.767825 0.0769963 -0.23205942
-0.1090889 -0.34533286 -0.21314852 -0.123526454 0.50154734 0.05577357 0.21676895 -0.41754183
0.5750229 -0.27714667 0.39548317 0.21037166 0.009316356 -0.8739636 -0.73602706 -0.16369
-0.042689748 -0.4101275 0.032913785 -0.061762933 1.1203144 0.34587467 0.2609508 0.40726212
-0.19610913 1.5424662 0.80903304 0.008416005 -0.7556954 -0.27654305 0.053502623 0.43838593
-0.25659278 0.1543659 -0.38615978 -0.6670726 0.021743163 -0.07291767 -0.073562816 -0.15934418
-0.48858792 -0.57933575 0.050231792 0.19809277 0.33717528 -0.27203444 0.120237164 0.1619789
-0.06926877 0.08152338 -0.40764198 -0.6731202 -0.3541987 -0.4908656 0.028151851 -0.6934762
-0.51969874 -0.3002194 -0.23145202 -0.037638113 0.36947465 0.50925165 0.18013418 0.74562466
0.108996995 0.032289915 -0.3806881 0.41412318 -0.044019625 0.41539183 0.69589657 -0.08028501
0.34785518 -0.078622855 0.14450887 -0.28528187 -0.27153826 0.44707826 0.50466144 0.6450004
-0.36698425 -0.36309284 -0.35435957 -0.39146954 0.5835327 0.40784475 0.09489764 0.815661
-0.31919947 -1.1706083 -0.08706839 -0.99177456 0.035453282 0.2897673 0.50958174 -0.42017758
-0.10427811 0.040534005 0.0932634 0.38359895 1.2711569 0.21856372 -0.0036030957 0.2388887
0.6568291 0.97492546 0.27500215 0.6539862 -1.0034896 -0.54472053 -0.14958984 0.0037575052
0.4371026 0.65266365 0.6294805 -0.03450669 -1.0379814 -0.93346524 -0.1927783 -0.5222452
-0.004413822 0.57933515 0.10063189 0.31133693 0.49293035 -0.64486754 -0.23069936 -0.19432601
0.038331963 -0.03869272 -0.33410543 -0.07729479 -0.033087168 0.021469027 0.47272873 0.20998959
-0.49008194 0.7707508 -0.7391345 -0.4872515 0.19945261 0.10896562 -0.04912998 -0.16287495
-0.55222017 -0.05987129 1.0454504 0.083286144 0.17559807 -0.71116513 0.082663134 0.9805169
0.20892264 0.11667409 -0.49419323 0.58149385 0.6785499 -0.0121152215 -0.12067227 0.43862712
-0.026768928 0.22879621 -0.33869943 -1.1109828 -0.5050361 -0.475614 -0.15995441 -0.34740025
-0.43399498 -0.116148345 -0.15284741 0.099111244 0.23652276 0.1682289 0.8387416 -0.26386815
00000000: 0847 b9be 1a9e 693e af3c 9dbd ff65 123e
00000010: e84d f93d 89d1 d3be eb09 f53d 8432 70bd
00000020: a8ce 65be de4c dcbd ad7d 163f 1fa3 463f
00000030: a07e 8a3e 6134 053e 3f76 4abe 0b72 a7be
00000040: b010 d1be 577a b6be 40b7 873e cf85 91be
00000050: fe51 50be e074 cdbe 0bee 8cbe b3fb 94bd
00000060: 1638 183e d8d6 c93e 81b9 623d 5866 92be
00000070: 17b8 f73d 8e6f efbd 7e56 3ebe 3acc cc3e
00000080: 8738 64bf 4148 d6be 7246 83bd e944 5f3c
00000090: 89f4 1a3e eb23 823e 2d32 a43d a4fd 0d3f
000000a0: 6b91 693e 731d adbe 9cf5 59be 01fd 5dbe
000000b0: 78a0 b73d 8495 003f 23e8 f13e c241 c33e
000000c0: aeeb bd3d 46f1 8dbd d7cf abbe 9622 8d3d
000000d0: 76c1 cdbe df07 8e3d 6b39 8abe c1c4 643f
000000e0: 225d abbb fad6 cdbe 85ca 20bf 429f 13bf
000000f0: e849 92bd 1167 4b3b bcf2 063e 3be4 f0be
00000100: af50 4c3e 7bcd 873f d84a ae3e 2078 85bd
00000110: 82d8 06bf 18bc 853e 80cc 17bf 83a7 1cbf
00000120: aad9 293e f3b9 d43e edb2 b43d 02a7 013f
00000130: d59c 323e 2e90 443f 3cb0 9d3d fca0 6dbe
00000140: 006a dfbd 78cf b0be 9b43 5abe 70fb fcbd
00000150: 6865 003f d472 643d aef8 5d3e 0bc8 d5be
00000160: b334 133f 2be6 8dbe c57c ca3e ab6b 573e
00000170: a1a3 183c 14bc 5fbf 456c 3cbf 5a9e 27be
00000180: 72db 2ebd 3bfc d1be 9bd0 063d 21fb 7cbd
00000190: 7666 8f3f 7c16 b13e 589b 853e a984 d03e
000001a0: d5d0 48be 886f c53f ca1c 4f3f 49e3 093c
000001b0: 4175 41bf 0d97 8dbe 9125 5b3d 1f74 e03e
000001c0: 2160 83be 1812 1e3e bcb6 c5be 45c5 2abf
000001d0: b81e b23c dc55 95bd 1aa8 96bd 1f2b 23be
000001e0: 3228 fabe 594f 14bf dabf 4d3d d5d8 4a3e
000001f0: 3da2 ac3e 1948 8bbe e73e f63d ccdd 253e
00000200: c9dc 8dbd bbf5 a63d 73b6 d0be 9b51 2cbf
00000210: 8859 b5be bc52 fbbe b69e e63c a887 31bf
00000220: fa0a 05bf 5bb6 99be c201 6dbe 6c2a 1abd
00000230: c82b bd3e 515e 023f 1875 383e 42e1 3e3f
00000240: d139 df3d 6e42 043d 8de9 c2be f407 d43e
00000250: ec4d 34bd 3dae d43e 4726 323f 786c a4bd
00000260: 131a b23e 0505 a1bd 22fa 133e 7710 92be
00000270: 1007 8bbe 71e7 e43e 7e31 013f bf1e 253f
00000280: 5ce5 bbbe 4ee7 b9be 9e6e b5be b26e c8be
00000290: 6662 153f 07d1 d03e b259 c23d 29cf 503f
000002a0: 1d6e a3be 7ed6 95bf e950 b2bd f0e4 7dbf
000002b0: 7637 113d 615c 943e f373 023f 8421 d7be
000002c0: c38f d5bd fc06 263d e200 bf3d 1567 c43e
000002d0: 45b5 a23f 2bcf 5f3e ea21 6cbb 3d9f 743e
000002e0: f425 283f b794 793f 15cd 8c3e a46b 273f
000002f0: 5972 80bf ce72 0bbf 142e 19be 7a40 763b
00000300: e9cb df3e f714 273f a225 213f e356 0dbd
00000310: 93dc 84bf 94f7 6ebf ad67 45be ddb1 05bf
00000320: d3a1 90bb 4f4f 143f 1818 ce3d 8e67 9f3e
00000330: 5e61 fc3e 0a16 25bf 743c 6cbe 66fd 46be
00000340: fa01 1d3d 427c 1ebd de0f abbe bb4c 9ebd
00000350: 6986 07bd d0df af3c 8009 f23e 8307 573e
00000360: 05ec fabe ed4f 453f eb37 3dbf 0779 f9be
00000370: 4e3d 4c3e 5e29 df3d 853c 49bd b1c8 26be
00000380: 4d5e 0dbf 993b 75bd 52d1 853f ed91 aa3d
00000390: fbcf 333e eb0e 36bf 4a4b a93d 2803 7b3f
000003a0: d1ef 553e d3f2 ee3d e506 fdbe c8dc 143f
000003b0: 72b5 2d3f ec7e 46bc 0623 f7bd bc93 e03e
000003c0: 834a dbbc 8e49 6a3e 036a adbe af34 8ebf
000003d0: 0c4a 01bf ae83 f3be 17cb 23be 72de b1be
000003e0: 9734 debe 2fdf edbd 0884 1cbe d6fa ca3d
000003f0: 0633 723e 3244 2c3e c5b7 563f ba19 87be

temporal_blocks.2.chan_norm1.weight f4 [16]
1.3127443 1.2963128 1.4132062 0.5223845 1.4562551 1.1015149 1.208335 0.30044857
0.87258613 1.4793323 1.2405936 1.5313226 1.0937462 1.3020103 0.65879184 1.3137127
00000000: 0108 a83f 94ed a53f f1e3 b43f feba 053f
00000010: 9166 ba3f 71fe 8c3f b9aa 9a3f 65d4 993e
00000020: ce61 5f3f c35a bd3f c5cb 9e3f 6102 c43f
00000030: e0ff 8b3f 46a8 a63f 95a6 283f bd27 a83f

temporal_blocks.2.chan_norm1.bias f4 [16]
-0.5551897 -0.1362862 0.05486803 -0.035602804 0.01395835 0.10788585 -0.3259839 -0.20203899
0.16662875 -0.082522966 -0.23141603 0.30894533 0.09128807 0.24695833 0.6564648 -0.13217162
00000000: ea20 0ebf 9c8e 0bbe 4dbd 603d 3fd4 11bd
00000010: 90b1 643c 42f3 dc3d 5de7 a6be 4fe3 4ebe
00000020: baa0 2a3e cd01 a9bd 53f8 6cbe 152e 9e3e
00000030: 3df5 ba3d a5e2 7c3e 140e 283f ff57 07be

temporal_blocks.2.chan_norm2.weight f4 [16]
3.9639356 3.9845102 3.5600674 3.1484916 2.7207773 3.6160665 3.157961 3.4825819
3.0440335 2.0510824 3.8306532 4.1207805 2.414177 3.4786894 4.083265 4.804266
00000000: 1fb1 7d40 3702 7f40 25d8 6340 e380 4940
00000010: 3721 2e40 a26d 6740 081c 4a40 9fe2 5e40
00000020: 72d1 4240 ef44 0340 6c29 7540 6fdd 8340
00000030: e081 1a40 d9a2 5e40 1baa 8240 8cbc 9940

temporal_blocks.2.chan_norm2.bias f4 [16]
-0.28244 -0.41708162 0.095705114 0.1691622 0.33939254 0.18667485 -0.22006509 0.33539724
0.18704134 -0.08010906 0.2796418 0.3224136 0.17669554 0.524459 0.38426125 0.05631173
00000000: fa9b 90be b98b d5be 0b01 c43d db38 2d3e
00000010: dcc4 ad3e b127 3f3e be58 61be 30b9 ab3e
00000020: c487 3f3e 3810 a4bd 362d 8f3e 6513 a53e
00000030: adef 343e f242 063f e4bd c43e 21a7 663d

temporal_blocks.2.downsample.weight f4 [16, 8, 1]
-0.43063253 -0.3010428 -0.586508 0.53947634 -0.6433745 -0.8601573 0.5279848 -1.0362684
0.20565791 -0.99406636 -0.10113247 -0.859807 0.21494101 -0.0979508 -2.0994503 -2.6574016
-1.7432737 -0.17684692 0.22029163 -1.4652292 0.34753588 0.01147892 1.1345428 0.14219233
-0.2960976 -0.09371914 -0.2730396 -0.16861491 -0.014644905 0.45044693 0.22239159 -0.950079
0.3365424 -0.12655285 0.4076219 -0.26023814 0.008465886 0.097777404 -0.15172635 0.66008335
-5.0510874 0.40508795 -0.6805835 0.14172065 0.7066208 0.5986826 1.0528405 1.3283756
0.019420024 -1.6716969 -0.020731635 -0.527339 -1.2849689 -1.1070174 0.24446514 -0.61940056
-0.17942789 0.60360867 -0.11843967 -0.0668299 0.23874906 -0.13978903 -0.70810723 0.20358095
0.28867584 -0.5103695 0.48923275 -0.6243546 -1.1982481 0.07645905 -0.619694 -0.3256903
-0.022826862 0.13630022 -0.5156191 -0.2862665 -0.031462226 -0.3523843 -1.7063764 -1.0128713
0.29159546 0.30825087 0.4985948 0.61441743 -0.49789864 -0.43911403 -0.04791303 -2.2456594
0.44391263 0.500363 0.13310163 -0.59940743 0.09718797 -0.78993213 -0.40719834 0.94024837
0.08734929 -0.25936872 0.6406061 -0.55147475 -1.2519071 -0.0310796 -0.37246203 -0.7216925
-0.016983753 0.44363672 -0.81968254 0.097801514 0.22818626 -0.3012093 0.34460974 -0.2990407
-0.13398066 -0.6193931 0.13657872 0.36319348 0.30792952 0.19148365 0.7120941 -0.13831541
0.49177945 -0.08135742 -0.5896876 0.31423205 -0.9026107 -0.03443815 -1.4441903 -2.1915748
00000000: de7b dcbe 4822 9abe 6325 16bf 1f1b 0a3f
00000010: 31b4 24bf 4533 5cbf 032a 073f 71a4 84bf
00000020: fd97 523e 227b 7ebf 8a1e cfbd 501c 5cbf
00000030: 7f19 5c3e 6e9a c8bd 655d 06c0 de12 2ac0
00000040: 9823 dfbf 5c17 35be 2194 613e a18c bbbf
00000050: 39f0 b13e 1412 3c3c b338 913f de9a 113e
00000060: 1b9a 97be d2ef bfbd d9cb 8bbe 63a9 2cbe
00000070: 2ff1 6fbc fba0 e63e 9fba 633e 6138 73bf
00000080: 494f ac3e 1297 01be d1b3 d03e ef3d 85be
00000090: 80b4 0a3c 853f c83d 275e 1bbe 39fb 283f
000000a0: 82a2 a1c0 b067 cf3e b83a 2ebf 381f 113e
000000b0: 1ae5 343f 4343 193f 7ac3 863f 3608 aa3f
000000c0: be16 9f3c 2afa d5bf 64d5 a9bc b0ff 06bf
000000d0: dc79 a4bf bfb2 8dbf 1255 7a3e 0991 1ebf
000000e0: f2bb 37be 1986 1a3f 7f90 f2bd 1dde 88bd
000000f0: a27a 743e db24 0fbe 8446 35bf 8677 503e
00000100: 52cd 933e 93a7 02bf b77c fa3e b4d5 1fbf
00000110: 3260 99bf 9096 9c3d 44a4 1ebf e1c0 a6be
00000120: 66ff babc 4992 0b3e 9dff 03bf 8691 92be
00000130: 89de 00bd b76b b4be 8b6a dabf c4a5 81bf
00000140: 004c 953e 0fd3 9d3e d147 ff3e 764a 1d3f
00000150: 92ec febe 8ed3 e0be 7440 44bd e2b8 0fc0
00000160: 8448 e33e ca17 003f cb4b 083e c472 19bf
00000170: 7d0a c73d fe38 4abf 4d7c d0be 1eb4 703f
00000180: 2fe4 b23d facb 84be c3fe 233f 732d 0dbf
00000190: 7e3e a0bf a59a febc 58b3 bebe d7c0 38bf
000001a0: 8321 8bbc 5a24 e33e b7d6 51bf 294c c83d
000001b0: a9a9 693e 1b38 9abe b070 b03e dd1b 99be
000001c0: 3a32 09be 8c90 1ebf 4bdb 0b3e 7ff4 b93e
000001d0: f0a8 9d3e 4a14 443e cd4b 363f 8ea2 0dbe
000001e0: 84ca fb3e b89e a6bd c4f5 16bf 06e3 a03e
000001f0: 7f11 67bf 040f 0dbd 3adb b8bf c342 0cc0

temporal_blocks.2.downsample.bias f4 [16]
-0.12332199 -0.54413766 -0.34443796 0.027341323 -0.17478076 -1.5571997 -0.30914265 -0.3839192
0.2684386 0.27822155 -0.35240114 0.32981467 0.0459722 0.30263728 -0.2524797 -0.68244123
00000000: 3d90 fcbd 9b4c 0bbf 2c5a b0be e9fa df3c
00000010: baf9 32be 5252 c7bf f247 9ebe 0f91 c4be
00000020: c970 893e 0e73 8e3e ec6d b4be 78dd a83e
00000030: 584d 3c3d 46f3 9a3e 0545 81be 78b4 2ebf

fc.weight f4 [5, 16]
2.1981006 0.095592864 -1.6826481 -0.54668283 0.27882868 2.0133998 1.8242764 0.21095428
0.1976336 -0.8022692 0.7338225 -0.8951089 0.6592821 -0.84895474 -2.7947397 1.2403803
0.7057675 -0.96026653 2.318542 -0.2936161 0.7677 -1.9740489 -0.42121038 0.54092246
0.4056235 -0.14039169 0.9378884 -1.4809053 0.42252278 0.29175282 0.89539164 -3.5155084
-2.0748396 -2.4089582 0.62158096 -0.44274047 -0.58046895 -2.478064 -0.20667681 0.9044281
-1.034199 0.8537141 0.88887745 1.8740318 -1.2350488 0.7947774 -0.26052138 1.3960956
-1.6505406 0.9071915 -0.46750832 1.1183008 0.44305673 1.3376663 -0.98928475 -2.5464668
0.9176608 0.5833786 -2.1375332 1.1468843 0.53244275 -1.6218288 0.94453007 0.122296594
0.4562102 2.358591 -1.6535426 0.6406577 -1.6293498 1.3807013 -0.25355768 0.2609301
-1.2185202 -0.34385478 -0.6715609 -1.669529 -0.45454648 1.3545583 1.1215674 0.18692356
00000000: aead 0c40 31c6 c33d 0361 d7bf 68f3 0bbf
00000010: a2c2 8e3e 8bdb 0040 e481 e93f 6604 583e
00000020: 7660 4a3e 8461 4dbf cbdb 3b3f db25 65bf
00000030: b6c6 283f 1955 59bf 04dd 32c0 c8c4 9e3f
00000040: 2ead 343f 07d4 75bf fe62 1440 d954 96be
00000050: fd87 443f a2ad fcbf e3a8 d7be e579 0a3f
00000060: e2ad cf3e d7c2 0fbe 7419 703f 4e8e bdbf
00000070: e854 d83e a060 953e 6338 653f 17fe 60c0
00000080: 2cca 04c0 5f2c 1ac0 ee1f 1f3f e1ae e2be
00000090: 9d99 14bf 9a98 1ec0 16a3 53be 9a88 673f
000000a0: a260 84bf 028d 5a3f 798d 633f 46e0 ef3f
000000b0: 1416 9ebf 8876 4b3f 0f63 85be 43b3 b23f
000000c0: ea44 d3bf b43d 683f 405d efbe 7b24 8f3f
000000d0: 55d8 e23e a638 ab3f c441 7dbf 50f9 22c0
000000e0: d1eb 6a3f 4d58 153f 58cd 08c0 1bcd 923f
000000f0: 2b4e 083f 1698 cfbf b9cc 713f a376 fa3d
00000100: 6294 e93e 28f3 1640 49a7 d3bf 2502 243f
00000110: 898e d0bf d2ba b03f 50d2 81be a198 853e
00000120: 78f8 9bbf bc0d b0be 6aeb 2bbf 20b3 d5bf
00000130: 51ba e8be 2b62 ad3f 858f 8f3f e468 3f3e

fc.bias f4 [5]
-0.116962664 0.29784173 -0.07888619 -0.11219394 -0.31450078
00000000: 1f8a efbd b67e 983e 158f a1bd f0c5 e5bd
00000010: 3f06 a1be

onnx::Abs_488 f4 [20]
0.0958993 -0.06679599 0.44481918 -0.4669515 -0.7508749 -0.43637922 -0.5809035 -0.5128863
0.450817 0.6623046 0.601774 -0.15014428 -0.27023727 0.24924806 -0.7434648 -0.82826924
0.3540962 -0.2732741 -0.046993636 0.10138958
00000000: da66 c43d 56cc 88bd 57bf e33e 4414 efbe
00000010: 5639 40bf 196d dfbe 17b6 14bf 844c 03bf
00000020: 7cd1 e63e cb8c 293f dc0d 1a3f 6cbf 19be
00000030: 8a5c 8abe e23a 7f3e b653 3ebf 7409 54bf
00000040: 194c b53e 95ea 8bbe 667c 40bd 57a5 cf3d

onnx::Abs_490 f4 [80]
-0.07472046 0.24991648 -0.06291479 -0.6701388 -0.38169596 -0.48861164 -0.43727458 -0.5279845
-0.18101025 0.07680661 0.67437696 -0.031953763 -0.12113464 0.121840104 0.23694092 -0.8101256
0.014108824 0.28082258 -0.33956835 -0.7484132 -0.6404927 -0.016880864 -0.77902466 -0.41260967
-0.241401 0.7741037 0.28363812 1.2385018 0.89835066 0.48341233 -0.31492025 -0.070115484
0.19035956 -0.30535957 -0.19481584 0.5369583 0.06437187 -0.33872235 0.062023796 0.7590678
0.38487592 0.032582678 0.64355356 0.5995334 0.012131068 0.049793266 0.1461861 -0.20588799
-0.09033919 0.098291606 -0.44961822 -0.36105338 -0.18737885 -0.1632225 -0.20871808 0.73057395
0.31257933 -0.013927781 -0.23302713 0.28246987 -0.018788587 -0.36365128 0.33152795 0.4972499
0.92811936 0.061859664 0.021072032 -0.19973916 -0.4597303 -0.47716412 0.08830459 0.19397447
0.3944623 0.1649727 0.40021917 -0.080957346 0.1594309 -0.13629958 0.054438308 0.15445837
00000000: 0a07 99bd 1bea 7f3e 78d9 80bd 378e 2bbf
00000010: a76d c3be 4e2b fabe 74e2 dfbe fe29 07bf
00000020: c05a 39be c94c 9d3d f8a3 2c3f f3e1 02bd
00000030: 7015 f8bd 4e87 f93d a4a0 723e 6464 4fbf
00000040: b228 673c fac7 8f3e e7db adbe 0298 3fbf
00000050: 54f7 23bf bd49 8abc 296e 47bf 9341 d3be
00000060: d331 77be a92b 463f 0439 913e 3a87 9e3f
00000070: 4ffa 653f d281 f73e 3a3d a1be b598 8fbd
00000080: 9eed 423e 1758 9cbe ce7d 47be 1976 093f
00000090: 66d5 833d 046d adbe aa0c 7e3d 4452 423f
000000a0: 750e c53e 6a75 053d edbf 243f 057b 193f
000000b0: 63c1 463c 06f4 4b3d cfb1 153e 4dd4 52be
000000c0: c103 b9bd 1c4d c93d 5c34 e6be fddb b8be
000000d0: 3ee0 3fbe cd23 27be 31ba 55be e506 3b3f
000000e0: 660a a03e 5931 64bc aa9e 6ebe e49f 903e
000000f0: 86ea 99bc 8030 babe 08be a93e 8a97 fe3e
00000100: 3b99 6d3f 8f60 7d3d 419f ac3c 6c88 4cbe
00000110: c561 ebbe db4e f4be 09d9 b43d 3ea1 463e
00000120: f6f6 c93e 9aee 283e 87e9 cc3e f7cc a5bd
00000130: db41 233e 1e92 0bbe b4fa 5e3d 562a 1e3e

onnx::Abs_492 f4 [4]
-1.1697848 -0.083046824 0.6457035 1.6743891
00000000: 82bb 95bf 7414 aabd d34c 253f 6252 d63f

onnx::Abs_505 f4 [160]
-0.51837456 0.42562178 -0.2623053 0.5593113 -0.30609712 -0.13670284 -0.018835597 0.506707
1.3575202 0.6291779 0.10375636 -0.08593932 0.2473312 0.4739569 -0.2772535 -0.050695647
-0.39896026 0.057263084 1.2489605 -0.96042335 -0.009867449 0.5771972 -0.050981306 0.030470261
-0.16395685 -0.4873336 0.009477675 0.27412292 -0.07577661 0.16326609 -0.33187902 -0.16713662
0.19827013 0.45359108 0.24654447 -0.0027970073 -0.3751304 0.12962478 -0.64070636 0.51763535
-0.10364388 -0.37363815 0.46623632 -1.2678386 1.6193684 -0.008210194 0.1117112 0.06671686
-0.14321168 0.30514947 0.00817381 0.08266703 0.22167546 0.28733423 0.33053896 0.04486305
-0.006686743 -0.3151318 0.31560647 -0.34726232 -0.25156677 -0.21143334 0.1468386 0.26557568
-0.036366392 -0.46575525 -0.13361992 0.23109567 -0.1361216 -0.21594433 -0.2423464 -0.0926992
-0.43151033 -0.2731072 -0.28017923 0.28427354 0.07050157 -0.008794878 -0.24628605 0.29266638
-0.34781834 -1.0533354 0.73173636 -0.11271412 0.26920512 -0.25856215 -0.35467714 0.07469272
-0.34249422 -0.030555934 0.18443406 0.47439995 -0.09435493 -0.67805797 -0.31344253 -0.32912916
0.7557236 -0.613192 0.20021869 -0.114567555 -0.0649121 0.42125362 -0.3824623 0.558024
-0.5117526 0.29206318 0.18385127 0.071498066 0.036126215 0.279583 0.22016157 0.07660579
-0.26898092 -0.2260986 -0.113018684 -0.15884715 -0.40063843 0.20535722 -0.9506427 1.0366286
0.023170065 -0.2781627 -0.34799218 0.8371466 -0.723199 0.086545154 0.3419717 -0.13533624
-0.65998995 -0.063194014 0.08416873 -0.078771316 -0.74000686 -0.2941615 0.12302365 0.18604682
0.47157562 0.04468427 0.68254566 -1.1942465 0.50089544 1.1083324 -1.0185764 -0.3239396
-0.102726065 0.12278313 -0.082448326 -0.14455588 0.60951 -0.6105022 0.3166738 -0.049325835
0.13812323 0.6446721 0.15096316 0.36248413 -0.5055673 -0.05498548 0.48547617 -0.68537384
00000000: 32b4 04bf 19eb d93e e14c 86be 062f 0f3f
00000010: c3b8 9cbe d4fb 0bbe 1c4d 9abc 8db7 013f
00000020: 39c3 ad3f ce11 213f 377e d43d f400 b0bd
00000030: 6444 7d3e 7baa f23e 2cf4 8dbe 3da6 4fbd
00000040: 8544 ccbe b28c 6a3d f0dd 9f3f 4ede 75bf
00000050: 15ab 21bc 32c3 133f c6d1 50bd c59c f93c
00000060: 4ee4 27be ca83 f9be 4048 1b3c d759 8c3e
00000070: c430 9bbd 3a2f 273e 0cec a9be dd25 2bbe
00000080: 5307 4b3e 173d e83e 2776 7c3e ff4d 37bb
00000090: 1711 c0be 5cbc 043e 5505 24bf c083 043f
000000a0: 3e43 d4bd 804d bfbe 87b6 ee3e 8948 a2bf
000000b0: 7747 cf3f 0d84 06bc d7c8 e43d d9a2 883d
000000c0: 15a6 12be 8d3c 9c3e 72eb 053c 554d a93d
000000d0: e4fe 623e 791d 933e 673c a93e 51c2 373d
000000e0: 771c dbbb f558 a1be 2c97 a13e 5ecc b1be
000000f0: 5ccd 80be fb81 58be dc5c 163e 89f9 873e
00000100: edf4 14bd 7977 eebe a9d3 08be 58a4 6c3e
00000110: 7663 0bbe 8320 5dbe a829 78be 14d9 bdbd
00000120: ecee dcbe b5d4 8bbe a773 8fbe 4d8c 913e
00000130: 2163 903d 6418 10bc 6932 7cbe 5ed8 953e
00000140: 3f15 b2be b2d3 86bf 1353 3b3f a9d6 e6bd
00000150: 41d5 893e 4262 84be 3e98 b5be 7ff8 983d
00000160: 675b afbe 7050 fabc 48dc 3c3e 8de4 f23e
00000170: 283d c1bd 3595 2dbf 8a7b a0be 9e83 a8be
00000180: 1a77 413f 27fa 1cbf 2106 4d3e 65a2 eabd
00000190: a3f0 84bd 8eae d73e 19d2 c3be a9da 0e3f
000001a0: 3802 03bf 4e89 953e 8243 3c3e 946d 923d
000001b0: 15f9 133d 8125 8f3e 0972 613e 7fe3 9c3d
000001c0: deb7 89be 6486 67be 5776 e7bd d4a8 22be
000001d0: 7b20 cdbe 2a49 523e 525d 73bf 3fb0 843f
000001e0: 26cf bd3c 576b 8ebe 082c b2be 3d4f 563f
000001f0: 9223 39bf 963e b13d ea16 af3e 9595 0abe
00000200: 1af5 28bf dd6b 81bd a860 ac3d db52 a1bd
00000210: 1771 3dbf 569c 96be d3f3 fb3d 0f83 3e3e
00000220: 5c72 f13e da06 373d 50bb 2e3f 12dd 98bf
00000230: af3a 003f d6dd 8d3f b660 82bf 69db a5be
00000240: 0b62 d2bd b975 fb3d abda a8bd 7506 14be
00000250: d908 1c3f df49 1cbf 1123 a23e e309 4abd
00000260: 2d70 0d3e 3b09 253f 1696 1a3e 8597 b93e
00000270: dc6c 01bf 7438 61bd 5590 f83e a974 2fbf

onnx::Abs_507 f4 [320]
0.43011886 0.2206638 0.36137617 0.9963731 0.8860228 0.5468212 0.23871453 0.063451186
0.40152192 0.38837832 -0.021064099 0.16747637 0.35963568 -0.16495489 -0.42092147 -0.3407224
-0.29769495 -0.5404751 -0.47721386 -0.47063172 -0.24258113 -0.59170353 -0.07974199 -0.84481573
-0.8960348 0.19732705 -0.015680214 -0.35267308 0.08148118 0.31665727 -0.3696244 -0.35930488
-0.14745338 -0.13182566 -0.5362151 -0.10850234 0.44951198 0.5194796 0.4773753 0.8262741
-0.08182333 0.34695306 -0.17299168 -0.458711 -1.0911871 -0.26173648 -0.259191 -0.12620004
-0.1283802 -0.029303519 0.2975621 -0.12452975 0.10992402 0.3945358 -0.018638484 -0.3278187
-0.17178142 0.015227497 0.14002314 0.35464445 0.50114757 0.3614903 0.19806333 0.1809751
0.23902416 -0.41264024 -0.46404365 -0.49949744 -0.8398376 -0.39521414 0.14354819 0.18073791
0.116816595 -0.0211393 0.28776708 0.18025221 0.06689846 0.3490309 0.07392207 -0.2216325
0.1681477 0.26023716 -0.16019228 0.102527976 -0.3472846 -0.06571911 -0.16513042 -0.18480471
-0.23013605 -0.12492957 0.07588744 -0.1439507 0.38501945 0.34656456 0.35177273 -0.09127324
-0.17812456 -0.2263688 -0.30117136 -0.33593738 0.17444675 -0.23171437 0.2668617 0.17205223
0.09926708 -0.18476614 0.16333847 -0.12715386 -0.04603113 0.078916624 -0.135266 0.2752998
0.13466933 -0.112088434 0.25752735 0.26485664 0.059088368 0.1793865 0.32638875 0.31725267
-0.21110596 -0.10757565 -0.40379182 -0.20311722 0.060555864 0.100939356 0.2937504 0.31139472
-0.006187646 0.18437001 -0.047812283 -0.095861346 0.06242114 0.017884698 0.7507096 0.27414536
0.42832914 0.47145358 0.0729744 -0.0668829 -0.094699204 -0.265489 0.1860689 -0.32802096
-0.020417923 -0.67523897 -0.55869806 0.5286585 0.57632816 0.2114698 -0.2711794 -0.2102332
-0.40710223 -0.13998958 -0.7404641 -0.088905506 -0.21969397 -0.30262926 0.18946062 -0.35111818
0.22419702 0.047636114 0.092956595 0.057958934 0.41664314 -0.027053207 0.08635925 -0.07019415
-0.054395095 0.1390808 0.14763217 -0.25323674 -0.08152646 -0.39770937 -1.121773 0.2109657
0.027061095 -0.17692453 0.3360244 0.13839377 0.10043508 0.29557678 0.31717625 0.25528446
0.0030480772 -0.049152024 0.07101749 0.12653139 0.1771921 0.23591995 -0.34079534 0.045262896
0.10465631 0.21490318 0.08696867 -0.2889052 -0.48602042 -0.2519762 -0.07050505 -0.18043792
-0.47074887 0.31915748 -0.26074418 0.15649824 -0.25671488 -0.39086717 -0.20187898 -0.18912768
0.008446862 0.68371814 -1.131735 0.053038016 0.21017715 0.19641684 0.020510882 0.82308066
0.29914248 0.17504719 -0.092829466 0.07786788 -0.43910253 -0.6612492 0.42867172 -0.30622208
-0.07028285 0.2667249 -0.4421548 -0.0066931355 -0.18586083 0.60465276 0.72044486 0.03384006
-0.18061766 0.03013703 -0.6084129 0.2083497 0.18401146 -0.3083176 0.05506913 -0.5107175
-0.47910663 -0.60608506 0.43362173 -0.59817415 0.14109063 0.80360633 -0.34852523 0.26830858
0.6167722 -1.1241429 -0.44078273 -0.28629106 0.035342485 -0.24767226 0.6056625 0.47585055
00000000: 8a38 dc3e b1f5 613e 4c06 b93e 4f12 7f3f
00000010: 64d2 623f 79fc 0b3f 9571 743e b2f2 813d
00000020: 4894 cd3e 86d9 c63e 9e8e acbc ed7e 2b3e
00000030: 2b22 b83e efe9 28be 0583 d7be 2b73 aebe
00000040: 796b 98be 935c 0abf 6055 f4be a4f6 f0be
00000050: 3067 78be e279 17bf c54f a3bd d845 58bf
00000060: 8962 65bf 1a10 4a3e cb73 80bc 9191 b4be
00000070: 9bdf a63d e720 a23e 693f bdbe cff6 b7be
00000080: 05fe 16be 4efd 06be 6545 09bf 7a36 debd
00000090: 6f26 e63e 9dfc 043f 896a f43e b386 533f
000000a0: fd92 a7bd d5a3 b13e bb24 31be 2bdc eabe
000000b0: 05ac 8bbf 5302 86be afb4 84be 953a 01be
000000c0: 1976 03be ef0d f0bc 0f5a 983e 7409 ffbd
000000d0: d81f e13d 9900 ca3e bcaf 98bc dad7 a7be
000000e0: 78e7 2fbe c07c 793c 3a62 0f3e f593 b53e
000000f0: 354b 003f 4215 b93e 1dd1 4a3e 8951 393e
00000100: c0c2 743e 9545 d3be 2197 edbe 21be ffbe
00000110: 99ff 56bf 8259 cabe 4cfe 123e 5c13 393e
00000120: 8a3d ef3d 532c adbc 3556 933e 0994 383e
00000130: 0f02 893d 2eb4 b23e 7464 973d a1f3 62be
00000140: e92e 2c3e ce3d 853e 7209 24be 30fa d13d
00000150: 49cf b1be be97 86bd f317 29be 723d 3dbe
00000160: c9a8 6bbe 13db ffbd e06a 9b3d d067 13be
00000170: 4521 c53e e970 b13e 8e1b b43e 77ed babd
00000180: 4966 36be 39cd 67be 2233 9abe fcff abbe
00000190: 2ba2 323e 8846 6dbe 19a2 883e 762e 303e
000001a0: 8a4c cb3d 5633 3dbe 3342 273e 9f34 02be
000001b0: 238b 3cbd 0a9f a13d 2c83 0abe 18f4 8c3e
000001c0: c2e6 093e 9f8e e5bd a0da 833e 4a9b 873e
000001d0: a506 723d 18b1 373e 6d1c a73e f16e a23e
000001e0: 292c 58be 9f50 dcbd cdbd cebe f6fd 4fbe
000001f0: 6d09 783d 4bb9 ce3d 7466 963e 216f 9f3e
00000200: bdc1 cabb 7ecb 3c3e d0d6 43bd f452 c4bd
00000210: 4fad 7f3d ee82 923c 812e 403f c85c 8c3e
00000220: f54d db3e 5d62 f13e 9a73 953d e7f9 88bd
00000230: a8f1 c1bd 2dee 87be d988 3e3e 5df2 a7be
00000240: 7d43 a7bc 76dc 2cbf d606 0fbf 2a56 073f
00000250: 3e8a 133f 8a8b 583e 07d8 8abe 5f47 57be
00000260: b46f d0be 6e59 0fbe 0e8f 3dbf 1714 b6bd
00000270: 75f7 60be 39f2 9abe f701 423e c3c5 b3be
00000280: e793 653e 161e 433d 0760 be3d 5966 6d3d
00000290: 4052 d53e b09e ddbc 1edd b03d f3c1 8fbd
000002a0: 64cd 5ebd 326b 0e3e e32c 173e 3fa8 81be
000002b0: 58f7 a6bd 90a0 cbbe 4296 8fbf 6407 583e
000002c0: 3baf dd3c b42b 35be 640b ac3e 19b7 0d3e
000002d0: e8b0 cd3d d755 973e ed64 a23e a5b4 823e
000002e0: 40c2 473b a253 49bd 9e71 913d 7291 013e
000002f0: d971 353e 0095 713e ba7c aebe 9665 393d
00000300: 0c56 d63d 940f 5c3e a11c b23d 62eb 93be
00000310: abd7 f8be 0603 81be f464 90bd b8c4 38be
00000320: ff05 f1be 9c68 a33e 4380 85be 1341 203e
00000330: 2270 83be be1f c8be 5db9 4ebe b0aa 41be
00000340: b564 0a3c 2708 2f3f b1dc 90bf 643e 593d
00000350: ae38 573e 7f21 493e 7006 a83c 6ab5 523f
00000360: 3429 993e 923f 333e 601d bebd 3279 9f3d
00000370: 0cd2 e0be a147 29bf dc7a db3e 24c9 9cbe
00000380: 74f0 8fbd 2b90 883e 1d62 e2be 1752 dbbb
00000390: 4d52 3ebe 86ca 1a3f 136f 383f e09b 0a3d
000003a0: d6f3 38be efe1 f63c f3c0 1bbf a059 553e
000003b0: 806d 3c3e cedb 9dbe 2b90 613d 62be 02bf
000003c0: 774d f5be 6428 1bbf ab03 de3e f121 19bf
000003d0: 107a 103e 25b9 4d3f e671 b2be be5f 893e
000003e0: c8e4 1d3f eae3 8fbf 46ae e1be be94 92be
000003f0: 48c3 103d cc9d 7dbe b30c 1b3f afa2 f33e

onnx::Abs_509 f4 [32]
0.36829516 0.06128949 0.06886268 -0.18195525 0.32555935 -0.20896989 -0.5923753 -0.21418218
-0.25073218 -0.20357274 -0.5423237 0.119669475 -0.0032603417 -0.4237301 0.2773586 -0.7168865
0.37939015 0.18133467 0.21252026 -0.297316 0.35915977 -0.14992134 -0.096396856 -1.422458
-0.3739647 0.16340111 -0.22519287 -0.40731516 0.046870623 -0.008515811 -0.74483883 0.3106517
00000000: 2f91 bc3e b00a 7b3d e007 8d3d 7a52 3abe
00000010: b7af a63e 34fc 55be e8a5 17bf 9352 5bbe
00000020: f85f 80be 5f75 50be bad5 0abf 4515 f53d
00000030: 75ab 55bb 27f3 d8be f201 8e3e e085 37bf
00000040: 6d3f c23e ccaf 393e e99e 593e ce39 98be
00000050: cae3 b73e fb84 19be b76b c5bd 1b13 b6bf
00000060: 4d78 bfbe 9f52 273e f698 66be 9d8b d0be
00000070: 69fb 3f3d e685 0bbc c2ad 3ebf bd0d 9f3e
