finn/finn_config/model_v18.onnx (onnx, 126731 bytes, 36 tensors)

temporal_blocks.0.conv1.weight f4 [4, 1, 5]
-0.59178907 -0.0061843665 0.06710192 0.09478194 -0.5568488 -0.38099107 -0.7027889 -0.30027807
0.4354815 0.74775606 0.8747858 -0.11837418 -0.70535296 -0.10043293 -0.3067499 -1.1461555
-0.07442993 -0.038509477 0.7389362 -0.07289518
00000000: 7d7f 17bf 3aa6 cabb bb6c 893d 091d c23d
00000010: a58d 0ebf 4311 c3be f9e9 33bf 0cbe 99be
00000020: 6ef7 de3e f16c 3f3f f6f1 5f3f 296e f2bd
00000030: 0392 34bf c8af cdbd 530e 9dbe 39b5 92bf
00000040: b86e 98bd 1dbc 1dbd ec2a 3d3f 114a 95bd

temporal_blocks.0.conv2.weight f4 [4, 4, 5]
-0.45083395 -0.18373631 -0.32371095 0.010036697 0.5177767 0.31238726 0.23490807 0.37448886
-0.005017157 -0.5315026 -0.5607615 -0.034630544 0.01449692 0.44922626 0.85158306 0.118951574
0.13056625 0.055641163 -0.32078025 -0.025087556 -0.09857649 0.61242735 -0.2723198 -0.22869872
-1.2887022 -0.06813621 -0.31472057 0.16370592 0.53450054 0.9301398 -0.9667676 -0.18978786
-0.38039315 -0.1712118 -0.45167983 0.770234 0.76929224 -0.4418832 0.0053072777 -0.06731659
0.10151003 -0.49419987 -0.0949297 0.19129705 0.16770865 -0.17915417 0.30777997 -0.089620166
0.21114337 0.2766078 1.2845004 0.40439668 0.019522442 -0.6380747 -0.6483275 -0.46094626
-0.68566465 0.14678472 0.76625335 0.20379846 -0.030575328 0.5832195 0.4590555 0.7067276
0.33464426 0.26199645 -0.45335352 -0.66287327 -0.75273 -0.5420518 0.051990725 0.02253418
0.20188272 -0.07190346 0.31622073 -0.9486478 0.67016584 0.1272775 0.08787123 0.009164682
00000000: b5d3 e6be 5f25 3cbe 71bd a5be f570 243c
00000010: 048d 043f 39f1 9f3e be8b 703e 01bd bf3e
00000020: f766 a4bb 8e10 08bf 118e 0fbf c2d8 0dbd
00000030: 7d84 6d3c fc00 e63e 5901 5a3f e29c f33d
00000040: 29b3 053e fde7 633d 4f3d a4be 6b84 cdbc
00000050: 79e2 c9bd 0ac8 1c3f 806d 8bbe ff2f 6abe
00000060: 32f4 a4bf ff8a 8bbd 0e23 a1be 86a2 273e
00000070: 07d5 083f a41d 6e3f 157e 77bf c057 42be
00000080: e4c2 c2be 2552 2fbe 9442 e7be 0e2e 453f
00000090: 56f0 443f 843e e2be ace8 ad3b 48dd 89bd
000000a0: 7ee4 cf3d c407 fdbe 816a c2bd 60e3 433e
000000b0: d1bb 2b3e 3174 37be 5695 9d3e c78a b7bd
000000c0: f835 583e 8a9f 8d3e 826a a43f 150d cf3e
000000d0: 87ed 9f3c dd58 23bf cbf8 25bf 2601 ecbe
000000e0: b887 2fbf bc4e 163e 2e29 443f 8bb0 503e
000000f0: 1c79 fabc e04d 153f 5309 eb3e 1aec 343f
00000100: 7e56 ab3e 6624 863e f41d e8be 10b2 29bf
00000110: eab2 40bf e8c3 0abf 3af4 543d 9a99 b83c
00000120: 58ba 4e3e 1f42 93bd afe7 a13e 95da 72bf
00000130: fd8f 2b3f 0855 023e d5f5 b33d 7627 163c

temporal_blocks.0.chan_norm1.weight f4 [4]
0.9418806 1.0432858 1.3982306 1.0929754
00000000: 161f 713f 648a 853f 38f9 b23f 9ee6 8b3f

temporal_blocks.0.chan_norm1.bias f4 [4]
-0.1996993 0.50275195 -0.20640464 -0.1368291
00000000: f97d 4cbe 5ab4 003f bd5b 53be ed1c 0cbe

temporal_blocks.0.chan_norm2.weight f4 [4]
0.15496649 0.27194467 0.47598216 0.4188507
00000000: 89af 1e3e 553c 8b3e efb3 f33e 9973 d63e

temporal_blocks.0.chan_norm2.bias f4 [4]
-0.36542675 -0.5353448 -0.3130983 -0.5099275
00000000: 3719 bbbe 5b0c 09bf 6c4e a0be 9c8a 02bf

temporal_blocks.0.downsample.weight f4 [4, 1, 1]
1.3264501 -1.1583171 -0.22990453 0.5350858
00000000: 1ec9 a93f bc43 94bf 186c 6bbe 62fb 083f

temporal_blocks.0.downsample.bias f4 [4]
-0.63077176 0.5488485 0.6090571 1.0410632
00000000: 427a 21bf 5681 0c3f 2beb 1b3f 8f41 853f

temporal_blocks.1.conv1.weight f4 [8, 4, 5]
-0.071040735 0.044667374 -0.22090144 -0.16883454 0.614124 -0.05882109 -0.6797513 0.48814312
0.056577872 0.006804076 0.23386592 -0.32475823 0.236722 0.16829525 0.49018413 -0.2118841
-0.34837735 -0.21261036 0.13152045 0.19223845 -1.5963271 0.09124317 0.12528794 0.009948464
0.7509873 0.60100293 -0.14908004 -0.53494704 0.08207706 0.15093784 -0.4290546 -0.5995732
-0.42969984 -0.24652357 0.17699414 -0.30278227 0.23277453 -0.08394381 -0.0031260736 -0.037531406
0.44684896 -0.35833776 -0.09463846 -0.14942229 -0.17121041 -0.61563534 0.71456045 -0.25860405
-0.19904767 0.6318401 -0.24825828 0.6224414 -0.14966217 -0.69212264 -0.21219298 -0.072999835
0.14786641 0.46758252 -0.34359854 0.073082216 -0.39639285 -0.10312412 -0.25262856 -0.1442244
0.16307527 0.5684281 0.54160273 0.7229351 -0.005080083 -0.9827894 0.12248578 0.2999124
0.44963282 0.082656264 -0.19069868 0.24897178 0.29685992 -0.0066850935 0.40379608 -0.03205006
-0.42099872 0.4740677 0.15641281 -0.33182558 -0.08171839 1.2278311 -0.050580885 0.057117395
-0.27927563 -0.6843398 0.07516637 -0.24073763 0.11376759 0.31535614 -0.28043306 -0.4920408
0.048193943 -0.3264142 0.7430922 0.73605734 0.20831196 -0.31541222 0.8942069 0.34828725
-0.36234 -0.2997154 0.23043919 -0.021456834 0.6662113 0.12687266 -0.39424422 -0.08180804
0.11082046 0.14842317 -0.020217285 -0.16606422 -0.66438985 -0.05919903 -0.37773058 -0.6477365
1.5788583 -0.36807337 -0.2043101 -0.11076722 -0.77184224 -0.7898185 -0.31400934 0.3188433
0.21593487 0.1767786 0.10489248 -0.08768634 0.019583328 0.34706914 0.20642689 0.3667542
-0.20296204 -0.11739102 0.030464452 -0.016769536 0.115650766 -0.15435636 -0.26444173 0.2903187
0.16389625 0.10436989 0.059789337 -0.20610465 -0.33172002 0.04189761 0.6397051 0.89173114
0.14888917 -0.6317352 -0.09566007 0.28013384 0.43655068 -0.12735793 -0.38471806 -0.5126099
00000000: ce7d 91bd 23f5 363d fd33 62be f6e2 2cbe
00000010: 3b37 1d3f 62ee 70bd 2e04 2ebf e5ed f93e
00000020: 33be 673d baf4 de3b 8c7a 6f3e b646 a6be
00000030: 4167 723e 9755 2c3e 6af9 fa3e 25f8 58be
00000040: 845e b2be 88b6 59be 4cad 063e 28da 443e
00000050: 7254 ccbf b3dd ba3d 7b4b 003e e2fe 223c
00000060: b440 403f 54db 193f 70a8 18be 4af2 08bf
00000070: 0518 a83d 738f 1a3e 0bad dbbe a17d 19bf
00000080: 9e01 dcbe ad70 7cbe f43d 353e 4706 9bbe
00000090: 725c 6e3e bbea abbd d0de 4cbb 88ba 19bd
000000a0: 63c9 e43e 0c78 b7be cfd1 c1bd 2802 19be
000000b0: c851 2fbe 479a 1dbf 6fed 363f c067 84be
000000c0: 27d3 4bbe 46c0 213f 6b37 7ebe 5258 1f3f
000000d0: 0a41 19be f32e 31bf 1e49 59be f080 95bd
000000e0: 4b6a 173e fa66 ef3e 26ec afbe 21ac 953d
000000f0: 01f4 cabe bd32 d3bd 8858 81be 90af 13be
00000100: 34fd 263e 8184 113f 7aa6 0a3f 4612 393f
00000110: d376 a6bb 1698 7bbf d3d9 fa3d 1e8e 993e
00000120: 4636 e63e b047 a93d 8446 43be 75f2 7e3e
00000130: 06fe 973e a10e dbbb 5cbe ce3e ec46 03bd
00000140: 258d d7be 00b9 f23e ae2a 203e 0be5 a9be
00000150: f95b a7bd 9229 9d3f e72d 4fbd eef3 693d
00000160: 37fd 8ebe e530 2fbf d3f0 993d ed83 76be
00000170: fbfe e83d 5c76 a13e ec94 8fbe c6ec fbbe
00000180: 0367 453d c31f a7be 4a3b 3e3f 416e 3c3f
00000190: bb4f 553e b67d a1be beea 643f b552 b23e
000001a0: a184 b9be 4c74 99be 40f8 6b3e 3ec6 afbc
000001b0: d38c 2a3f e8ea 013e 61da c9be f98a a7bd
000001c0: d6f5 e23d 3efc 173e b89e a5bc bd0c 2abe
000001d0: 7415 2abf af7a 72bd e765 c1be 0fd2 25bf
000001e0: 0718 ca3f 1d74 bcbe ab36 51be edd9 e2bd
000001f0: 7497 45bf 8c31 4abf d5c5 a0be 6e3f a33e
00000200: 081e 5d3e 7305 353e ded1 d63d e594 b3bd
00000210: 376d a03c 0cb3 b13e 9261 533e 35c7 bb3e
00000220: 48d5 4fbe b46a f0bd 9690 f93c 4460 89bc
00000230: 4fda ec3d 980f 1ebe e864 87be a7a4 943e
00000240: 6bd4 273e e2bf d53d aae5 743d 190d 53be
00000250: 35d7 a9be d49c 2b3d b7c3 233f 7e48 643f
00000260: 6776 183e 66b9 21bf 6de9 c3bd b46d 8f3e
00000270: 9283 df3e 1e6a 02be c4f9 c4be 673a 03bf

temporal_blocks.1.conv2.weight f4 [8, 8, 5]
-0.010929462 -0.22389244 -1.0544844 0.20563251 -0.19319557 -0.6546164 0.5425802 0.63228023
1.0514591 0.33389026 0.179932 0.57590157 0.7190083 0.0699844 -0.0060119797 0.8026026
-0.1571734 -0.42861003 -0.9280384 -0.6048363 0.63757604 -0.9503877 -0.53263915 -0.28646693
-0.504557 -0.72861713 0.0029649062 0.47918272 0.44702432 0.23231623 -0.077337 -0.34860173
-0.24925284 -0.2686811 0.31479785 -0.09905268 0.620896 0.37342188 0.016713118 0.70031554
-0.3363393 -0.25199044 -1.1093943 -0.5312042 0.54114515 -0.052445326 0.063773274 -0.19255199
-0.15706237 0.30064118 0.5086699 0.20828936 0.19487187 0.63756204 1.0837668 -1.1114208
-1.0131918 -0.48960352 -0.20103334 -0.37963757 0.11497464 0.19751397 0.30596676 -0.3384359
-0.4038004 0.05618065 0.27452675 1.0097977 0.6117005 -0.046339307 0.44953415 0.12833448
0.08938379 0.16747443 0.22390534 -0.027038159 -0.09151938 -0.13037474 -0.19942796 -0.57341594
0.31295252 0.52371955 -0.1980149 -0.45006013 -0.30064645 -0.17694744 0.01721473 -0.07415231
0.15996274 -0.5936626 0.845052 -0.68634427 -0.19630541 0.041683875 0.3631223 0.12353111
0.2534906 0.34402916 0.2925353 0.26021197 -0.26603523 0.60028994 0.5682758 0.47829625
-0.024594894 -0.5425284 -0.7081573 -0.36294302 -0.2380079 -0.3780527 0.38128433 -0.16530485
0.22612956 -0.057433955 0.56442416 0.8805195 0.45764413 0.3149433 -0.23807189 0.13235436
0.91402763 -0.08402569 -0.531336 0.01799679 -0.27267733 -0.20228139 -0.49603757 -0.39751667
0.16947398 0.1548501 -0.1247759 0.46496412 -0.19334735 -0.5005565 -0.7109338 0.27170068
0.1460129 0.50300395 0.1772562 0.11715224 -0.18089618 -0.49672812 0.007828255 0.21531193
0.37906665 0.037089325 0.19130336 0.0012848268 0.037219442 -0.07142821 0.014876629 0.3895459
-0.1879005 -0.54262865 -1.0092679 -0.33106604 -0.32695842 -0.36151043 -0.20766318 0.50414896
-0.16444296 -0.06026964 0.11853964 0.24483097 0.05936516 0.41240612 0.3266071 0.2548396
0.42431816 0.012587983 -0.51103437 -0.23609811 0.02631847 -0.3820251 -0.09084118 -0.021563103
-0.065231696 0.25784093 0.006466403 0.17599508 0.32272008 0.14839044 0.124403074 0.36612526
0.4395553 0.15124306 -0.086046375 -0.2560417 -0.18926726 -0.38412127 -0.5418082 -0.45921275
-0.6092425 -0.6442464 -0.4584138 -0.9010078 -0.5037066 -0.05174548 0.2140644 0.0810459
-0.029374 0.06624054 0.30109364 0.7714436 0.6677182 0.92986065 0.74838823 0.96936846
0.48374945 0.5916952 -0.87383735 -0.011053923 -0.095465675 -0.5191146 0.13922285 -1.2984486
-0.47996166 -1.110064 -0.48052213 -0.3102541 -0.21357884 0.5667297 0.30140442 -0.025461027
-0.08305304 1.20803 -0.11152831 0.22660019 -0.2847001 -0.17649266 0.39592522 -0.3165402
0.0026832279 0.38466814 -0.16806497 -0.5030647 -0.71747714 -0.9126813 -0.30462807 -0.7838824
-0.7148694 0.18266921 0.85004336 -0.32444566 -0.15564747 0.198196 -0.011777713 0.3483414
-0.17790522 0.19662246 0.2844359 -0.391075 -0.12058755 0.13060975 0.3454973 -0.11679075
00000000: 7c11 33bc 0f44 65be 58f9 86bf 5491 523e
00000010: 0fd5 45be f194 27bf 89e6 0a3f 1edd 213f
00000020: 3696 863f aaf3 aa3e 1840 383e 496e 133f
00000030: ee10 383f fb53 8f3d 2400 c5bb 5d77 4d3f
00000040: 10f2 20be c672 dbbe ed93 6dbf 8dd6 1abf
00000050: 2f38 233f 9c4c 73bf 0a5b 08bf cbab 92be
00000060: a62a 01bf a786 3abf df4e 423b 7057 f53e
00000070: 5fe0 e43e 4ee4 6d3e dc62 9ebd ed7b b2be
00000080: 233c 7fbe 9290 89be 2f2d a13e 22dc cabd
00000090: 0af3 1e3f 2731 bf3e f3e9 883c e147 333f
000000a0: aa34 acbe e404 81be a200 8ebf 00fd 07bf
000000b0: 7d88 0a3f e9d0 56bd 909b 823d 592c 45be
000000c0: f5d4 20be a4ed 993e 3138 023f ce49 553e
000000d0: 7e8c 473e 4437 233f dfb8 8a3f 0943 8ebf
000000e0: 45b0 81bf 50ad fabe afdb 4dbe db5f c2be
000000f0: d377 eb3d 1a41 4a3e ada7 9c3e 7847 adbe
00000100: edbe cebe ae1d 663d c58e 8c3e 0d41 813f
00000110: 6798 1c3f 49ce 3dbd 5729 e63e 1d6a 033e
00000120: d90e b73d 6b7e 2b3e 7147 653e 217f ddbc
00000130: 836e bbbd f580 05be d836 4cbe 63cb 12bf
00000140: 503b a03e 7c12 063f 6bc4 4abe 486e e6be
00000150: 55ee 99be b631 35be e805 8d3c 2bdd 97bd
00000160: 46cd 233e 46fa 17bf 5455 583f 42b4 2fbf
00000170: 4904 49be b6bc 2a3d 2beb b93e e1fd fc3d
00000180: 85c9 813e 9724 b03e 30c7 953e 813a 853e
00000190: c535 88be 9aac 193f 867a 113f 3fe3 f43e
000001a0: 3b7b c9bc 24e3 0abf cc49 35bf abd3 b9be
000001b0: 58b8 73be 2090 c1be b337 c33e ad45 29be
000001c0: 828e 673e de3f 6bbd 1a7e 103f ba69 613f
000001d0: 5550 ea3e 4040 a13e 1ec9 73be e787 073e
000001e0: b7fd 693f a915 acbd a305 08bf 016e 933c
000001f0: 5d9c 8bbe da22 4fbe a3f8 fdbe 4e87 cbbe
00000200: 968a 2d3e 0691 1e3e 828a ffbd c70f ee3e
00000210: d9fc 45be 7924 00bf c2ff 35bf 5a1c 8b3e
00000220: 6884 153e dec4 003f a682 353e 83ed ef3d
00000230: d93c 39be 2653 febe 1542 003c bb7a 5c3e
00000240: 0615 c23e faea 173d 07e5 433e a267 a83a
00000250: 6a73 183d f448 92bd 1bbd 733c 8f72 c73e
00000260: fd68 40be b6e9 0abf b12f 81bf 7d81 a9be
00000270: 1867 a7be e517 b9be a8a5 54be e80f 013f
00000280: bc63 28be 4cdd 76bd e9c4 f23d f8b4 7a3e
00000290: e228 733d e526 d33e 0c39 a73e 567a 823e
000002a0: 3b40 d93e d43d 4e3c 26d3 02bf b4c3 71be
000002b0: d599 d73c cb98 c3be f10a babd 1ba5 b0bc
000002c0: 3298 85bd ba03 843e 1fe4 d33b 0e38 343e
000002d0: 913b a53e aaf3 173e 0ac7 fe3d c574 bb3e
000002e0: 640d e13e 76df 1a3e 1539 b0bd e617 83be
000002f0: 47cf 41be 8bab c4be f1b3 0abf ef1d ebbe
00000300: 51f7 1bbf 55ed 24bf 37b5 eabe 72a8 66bf
00000310: eaf2 00bf 12f3 53bd b333 5b3e 65fb a53d
00000320: bea1 f0bc 1fa9 873d f228 9a3e 547d 453f
00000330: 94ef 2a3f 590b 6e3f 5f96 3f3f 8828 783f
00000340: 02ae f73e 5679 173f ceb3 5fbf 831b 35bc
00000350: 8283 c3bd b2e4 04bf 6f90 0e3e 9033 a6bf
00000360: 89bd f5be 9416 8ebf ff06 f6be a0d9 9ebe
00000370: 69b4 5abe 3315 113f ae51 9a3e a593 d0bc
00000380: b617 aabd baa0 9a3f f468 e4bd e109 683e
00000390: 36c4 91be 7eba 34be b6b6 ca3e 8f11 a2be
000003a0: 18d9 2f3b 39f3 c43e 3919 2cbe d9c8 00bf
000003b0: 95ac 37bf 7ba5 69bf 36f8 9bbe 84ac 48bf
000003c0: ae01 37bf a30d 3b3e 719c 593f be1d a6be
000003d0: 0d62 1fbe e4f3 4a3e 4ff7 40bc ce59 b23e
000003e0: c92c 36be 6657 493e 95a1 913e fb3a c8be
000003f0: 9bf6 f6bd 90be 053e 06e5 b03e fd2f efbd

temporal_blocks.1.chan_norm1.weight f4 [8]
1.4609776 0.9647557 1.5486449 0.7775793 0.94813913 0.865235 1.0355207 1.7312797
00000000: 5001 bb3f 3bfa 763f ff39 c63f 700f 473f
00000010: 3fb9 723f 0a80 5d3f f18b 843f 939a dd3f

temporal_blocks.1.chan_norm1.bias f4 [8]
0.058087192 0.64750504 0.07544417 -0.38363755 -0.5238205 0.56729746 0.032786097 0.119647026
00000000: d6ec 6d3d e4c2 253f 7982 9a3d 246c c4be
00000010: 1a19 06bf 683a 113f b74a 063d 8009 f53d

temporal_blocks.1.chan_norm2.weight f4 [8]
1.6215793 1.8301303 1.2623618 1.4118807 1.2013739 1.322235 1.658963 1.1239113
00000000: e98f cf3f b641 ea3f 1295 a13f 82b8 b43f
00000010: 9fc6 993f ff3e a93f e658 d43f 53dc 8f3f

temporal_blocks.1.chan_norm2.bias f4 [8]
0.28244844 0.100943536 0.85306746 0.049418103 0.15941972 -0.31838042 -0.47151506 -0.3610739
00000000: 159d 903e 7cbb ce3d a162 5a3f a36a 4a3d
00000010: ec3e 233e c202 a3be 6c6a f1be aede b8be

temporal_blocks.1.downsample.weight f4 [8, 4, 1]
0.66681725 0.10625266 0.02598998 -0.8057293 -0.031469684 0.16941728 -0.12900564 -0.5854305
-0.7293829 -1.520434 -0.9625944 -1.7479328 0.36610103 -0.8636364 -0.51136124 -0.11500696
0.044259574 -0.98011374 -1.2179974 -0.30335706 -0.09323658 0.09130132 -0.18799774 0.024181392
0.10861341 -0.25725165 0.2540695 -0.16618277 -0.175471 0.3603115 -0.060899638 -0.025186481
00000000: 89b4 2a3f ff9a d93d f0e8 d43c 4744 4ebf
00000010: 5be6 00bd b97b 2d3e 0e1a 04be c6de 15bf
00000020: d6b8 3abf 959d c2bf 966c 76bf 43bc dfbf
00000030: 9871 bb3e 4617 5dbf 92e8 02bf c588 ebbd
00000040: 8749 353d bce8 7abf 57e7 9bbf 9e51 9bbe
00000050: d2f2 bebd 30fc ba3d 7b82 40be 0e18 c63c
00000060: b570 de3d 7db6 83be 6615 823e d12b 2abe
00000070: abae 33be c07a b83e e671 79bd e153 cebc

temporal_blocks.1.downsample.bias f4 [8]
-0.12760916 -0.31084305 -1.0699519 -0.6568357 -0.29075918 0.27357897 -0.26140192 -0.51917577
00000000: faab 02be d226 9fbe 2ff4 88bf 6226 28bf
00000010: 63de 94be 8b12 8c3e 79d6 85be b4e8 04bf

temporal_blocks.2.conv1.weight f4 [16, 8, 5]
-0.1719596 0.07208018 -0.025809875 -0.11802963 -0.44789845 0.51118577 -0.38975003 -0.08351375
0.20483011 -0.20060444 -0.36769146 -1.196866 0.03812626 0.0017404475 -0.2831589 0.032116756
0.0090258755 0.072945565 0.5514756 -0.21629654 -0.08384318 0.45598024 -0.15061638 0.428342
0.5356206 -0.4336117 0.21210304 -0.013061555 0.20126669 0.18565294 -1.4161373 -0.74271446
-0.33050576 -0.20133905 -0.8616197 -0.20635533 -0.11255801 0.022303423 0.19466332 0.026533345
0.23110123 -0.296467 -0.21948735 0.08611894 0.6225916 0.24261865 0.09432666 0.26193285
0.273719 -0.46791464 0.40581286 0.34839588 -0.009994476 -0.3866267 -0.59385926 1.3271517
0.03196209 0.2570778 -0.5401894 -0.06861052 0.04321105 -0.09894835 0.24174562 0.24929036
-0.5322859 0.14865424 -0.2805345 -0.073378325 0.18632486 -0.34786 0.57658106 -0.038752813
-0.008793564 -0.15832566 0.35092086 0.18894957 -0.2214628 0.09862248 0.21943669 -0.45944557
-0.033284232 0.097946264 0.009712569 0.11496782 -0.19707039 0.15074193 -0.3815228 0.1603416
0.14884834 0.12814 -0.08078549 -0.2928933 -0.23365355 -0.18806374 -0.09957014 -0.14571868
0.2971055 0.36152548 -0.101302765 0.31775308 0.10887202 -0.1346211 -0.44867226 -0.21466076
-0.024569044 0.013357059 -0.011930574 0.007374419 -0.08041061 -0.10321315 0.74920213 0.9273085
0.6984411 0.13444142 0.7166715 0.47100112 -0.098615795 0.027340963 -0.12013669 0.13021478
0.16228943 -0.0057081953 -0.030596336 0.06954021 0.26707855 0.13836667 -0.05298252 -0.19801047
-0.25033453 0.27806774 0.16620941 -0.7497913 0.0134123815 0.30806828 0.06549605 0.1647332
0.041118316 -0.22049652 0.5771992 0.15054196 0.040397044 0.025342217 -0.004095203 0.0055561652
0.33275935 0.13378654 -0.5559853 -0.048148606 -0.16048685 0.06316747 0.17271364 0.10115236
-0.35582322 -0.050335374 0.37395468 0.031086765 0.18990234 0.35007793 -0.18635127 0.010911992
-0.44088143 0.37133405 -0.16172372 0.47952542 -0.048302915 -0.50337046 -0.24764015 -0.047023233
0.009722877 1.5566177 -0.10323906 -0.0773923 0.3982818 0.5430828 -0.10442877 -0.21635792
0.14632091 0.054467786 1.2608117 0.19997017 -0.6612006 -0.2440207 -0.3162865 -0.5687818
-1.1434305 -0.33709428 -0.23374973 0.2167922 -0.08007306 0.12127232 -1.0907694 -0.19477417
-0.15520822 0.22566776 -0.0823936 0.24090198 -0.097478494 -0.00016628661 0.08314829 0.29935646
-0.1890328 0.23781703 -0.031121025 0.46664014 -0.47212636 0.08041185 0.47912747 -0.6363195
-0.4476649 0.972551 0.28567702 0.27599135 0.29161638 -0.15264648 0.22595884 -1.9720061
0.21476601 0.5369981 0.4452438 -0.029754689 -0.49574646 1.1170956 0.10691038 -0.2566457
0.12554091 -0.47683218 -0.49613142 0.06744348 0.004909262 0.27908766 -0.19877803 0.20203935
0.38152322 0.7876843 -1.1551118 -0.28331682 -0.829252 -0.2779197 0.07090616 0.47598612
0.06638301 0.21055031 0.14030167 -0.51286036 0.04740773 0.08546518 0.17095006 0.11753789
0.05276442 0.6310142 -0.18024737 -0.27751562 -0.23107877 -0.017302655 0.098103985 -0.19430973
00000000: 2d16 30be c69e 933d 3b6f d3bc 85b9 f1bd
00000010: f252 e5be 12dd 023f 518d c7be 4209 abbd
00000020: fcbe 513e 406b 4dbe 0e42 bcbe e832 99bf
00000030: 482a 1c3d ba1f e43a 34fa 90be dc8c 033d
00000040: 44e1 133c 7c64 953d 812d 0d3f d77c 5dbe
00000050: f9b5 abbd 3e76 e93e 2e3b 1abe a54f db3e
00000060: 6f1e 093f 5a02 debe 8a31 593e 2200 56bc
00000070: db18 4e3e ce1b 3e3e fd43 b5bf 8922 3ebf
00000080: 0d38 a9be d32b 4ebe 1c93 5cbf d04e 53be
00000090: d084 e6bd abb5 b63c d255 473e 755c d93c
000000a0: cda5 6c3e 86ca 97be 4bc1 60be 205f b03d
000000b0: 2a62 1f3f 0671 783e 562e c13d 101c 863e
000000c0: e624 8c3e 8292 efbe b4c6 cf3e f260 b23e
000000d0: dfbf 23bc eff3 c5be 2907 18bf 1be0 a93f
000000e0: aeea 023d b49f 833e da49 0abf ac83 8cbd
000000f0: 12fe 303d 6fa5 cabd 2a8c 773e f945 7f3e
00000100: e443 08bf d138 183e 38a2 8fbe 6047 96bd
00000110: f2cb 3e3e b51a b2be d19a 133f 45bb 1ebd
00000120: e112 10bc 1f20 22be e6ab b33e ff7b 413e
00000130: 25c7 62be 95fa c93d 03b4 603e 733c ebbe
00000140: 0c55 08bd 0d98 c83d 7821 1f3c 4074 eb3d
00000150: d2cc 49be 185c 1a3e f556 c3be 9730 243e
00000160: b36b 183e 2237 033e dd72 a5bd 1cf6 95be
00000170: e042 6fbe c893 40be 6eeb cbbd 4737 15be
00000180: 361e 983e de19 b93e d377 cfbd 88b0 a23e
00000190: 4bf8 de3d 1dda 09be 5fb8 e5be 08d0 5bbe
000001a0: 0545 c9bc 91d7 5a3c 7478 43bc 1ca5 f13b
000001b0: 51ae a4bd 6a61 d3bd b6cb 3f3f 1764 6d3f
000001c0: 09cd 323f 03ab 093e c977 373f 0f27 f13e
000001d0: 14f7 c9bd 28fa df3c 3a0a f6bd 0657 053e
000001e0: 332f 263e d00b bbbb 2ba5 fabc 196b 8e3d
000001f0: 85be 883e feaf 0d3e 3304 59bd 42c3 4abe
00000200: d92b 80be e55e 8e3e cd32 2a3e 53f2 3fbf
00000210: 9bbf 5b3c 20bb 9d3e cb22 863d d2af 283e
00000220: ae6b 283d d7c9 61be 54c3 133f ac27 1a3e
00000230: 5f77 253d 7b9a cf3c 0d31 86bb 7e10 b63b
00000240: 6f5f aa3e 57ff 083e 0d55 0ebf 7937 45bd
00000250: aa56 24be f25d 813d d8db 303e f828 cf3d
00000260: 762e b6be 772c 4ebd fd76 bf3e aca9 fe3c
00000270: c275 423e 6a3d b33e ded2 3ebe 36c8 323c
00000280: 36bb e1be 7f1f be3e e79a 25be 5b84 f53e
00000290: 47d9 45bd e3dc 00bf 6195 7dbe 6f9b 40bd
000002a0: b44c 1f3c 403f c73f 006f d3bd db7f 9ebd
000002b0: 98eb cb3e 7907 0b3f c0de d5bd ee8c 5dbe
000002c0: 26d5 153e 9d19 5f3d 4762 a13f fbc4 4c3e
000002d0: 7144 29bf 90e0 79be 4ef0 a1be af9b 11bf
000002e0: ee5b 92bf 9f97 acbe 175c 6fbe c6fe 5d3e
000002f0: 58fd a3bd 9f5d f83d 559e 8bbf e172 47be
00000300: e7ee 1ebe 7315 673e fabd a8bd 02af 763e
00000310: cea2 c7bd 395d 2eb9 a749 aa3d 4045 993e
00000320: d091 41be 4f86 733e 85f1 febc 75eb ee3e
00000330: 8cba f1be f8ae a43d 3250 f53e d6e5 22bf
00000340: 5534 e5be 1af9 783f 4244 923e bd4e 8d3e
00000350: be4e 953e 5c4f 1cbe c161 673e b26a fcbf
00000360: 9feb 5b3e b578 093f fff6 e33e 1bc0 f3bc
00000370: 7bd2 fdbe fdfc 8e3f d4f3 da3d 1167 83be
00000380: cc8d 003e 5923 f4be f004 febe cf1f 8a3d
00000390: e0dd a03b 94e4 8e3e 788c 4bbe 67e3 4e3e
000003a0: 0357 c33e aea5 493f b4da 93bf e70e 91be
000003b0: dc49 54bf 7e4b 8ebe 4037 913d 74b4 f33e
000003c0: d1f3 873d 809a 573e 3eab 0f3e d14a 03bf
000003d0: 9c2e 423d 5e08 af3d 880d 2f3e b5b7 f03d
000003e0: 811f 583d 268a 213f c492 38be 8716 8ebe
000003f0: ea9f 6cbe 4cbe 8dbc beea c83d 21f9 46be

temporal_blocks.2.conv2.weight f4 [16, 16, 5]
0.52043337 0.15863545 0.010699877 -0.3889151 -0.039201785 0.43370822 -0.5210498 -0.65243185
0.20948595 0.2854619 -0.6798484 -0.21648957 0.045887005 -0.09857195 -0.058524217 -0.48291764
0.08804464 0.3181664 -0.37831095 -0.42003927 -0.25621626 -0.7139706 -0.07765298 -0.049615175
0.08360877 0.22121489 -0.1938233 -0.62999666 -0.20697182 -0.3544513 0.44660643 -0.15750532
0.13048366 -0.2127256 -0.27934304 -0.78685397 0.22980194 0.6351368 0.021949146 -0.24646887
-0.07250506 0.46096396 0.23104964 -0.2601659 0.5469724 0.10011015 0.0060759974 0.53234714
0.106279 -0.25485852 -0.5657846 0.36500657 -0.7792668 0.36847264 -0.30040503 -0.778401
0.3039776 0.6322257 0.64735395 0.3171456 -0.04145884 -0.05044311 -0.39209294 0.98868114
-0.10142382 0.101301216 0.41910338 0.3626922 0.09991422 0.8392003 0.45686063 -0.25877237
0.032131307 -0.23766392 -0.31660327 0.9153194 -0.34184578 0.110945724 0.46695903 0.4519113
0.52037746 -0.14084294 -0.22685102 0.009750907 -0.28817084 -0.8327751 -0.01457515 -0.34831363
-0.28095323 0.42344165 -0.278423 -0.019083114 -0.0902952 -0.36148816 0.3047231 -0.40253508
-0.1807406 0.0073520336 0.46869656 0.53196836 0.38528532 0.19280337 -0.20084421 0.63042885
0.29191905 0.07787631 0.35289446 0.21400349 0.05283614 0.30929196 -0.35006407 0.4666105
0.80593145 0.34268552 0.30165318 0.45600262 0.17603718 0.058032878 -0.08389367 -0.13438281
0.19506198 -0.07355379 0.15952714 -0.18368948 -0.5962099 0.5760666 0.104374774 -0.03527163
0.044121347 -0.22303094 -0.06561287 0.23180942 0.08173473 0.3439806 -0.0484927 0.41658607
-0.55204594 -0.1715681 -0.28169486 -0.029684639 0.6669952 0.11147567 -0.47410363 -0.27047223
-0.2257009 -0.23815188 -0.67958236 -0.6720257 -0.74186873 -0.0772415 -0.55175483 0.057584167
0.481596 0.15118456 -0.19039528 0.083192326 0.1066663 -0.0159113 0.13155837 -0.2325707
-0.89828557 -1.1197093 -0.9341651 -0.4992242 0.4161579 0.7390129 1.1699692 0.18819468
0.40788245 -0.36699185 -0.07084182 -0.11083285 -0.33153617 -0.41037232 -0.27749577 0.9163308
0.88454884 0.8761784 0.20908529 0.025346586 0.65225744 -0.40769213 0.47059062 -0.078351885
-0.33134684 0.28513083 -0.32664627 -0.45645174 -0.2268056 0.0042146994 -0.69780964 0.19347623
0.2112449 0.5985726 -0.20256555 0.93744826 0.40812936 0.61234105 0.4396874 -0.331361
0.79355156 0.80909854 0.045225285 -0.027051887 0.61615485 -1.1333477 -0.518011 0.56651413
-0.033530775 -1.2308439 -0.12663175 0.16104858 1.3716676 0.98476595 0.3234133 -0.29847348
-0.20516913 -0.8505299 -0.27478278 0.6707672 0.41892016 -0.27241212 0.17923528 0.26661187
0.18630251 -0.74499637 -0.82634157 -0.2668928 0.2711165 0.82147175 -0.24638948 -0.196235
-0.5826137 -0.5024201 -0.29965422 -0.66184705 -0.33586112 0.11773107 -0.087151065 -0.8076557
-0.18685493 -0.35457242 -0.2613206 -0.74304295 -0.018281298 0.56897277 0.25350487 -0.6131528
-0.07371175 0.60471916 -0.21837516 -0.52985054 -0.988005 0.050158013 -0.21723633 0.80361354
00000000: 1f3b 053f 5571 223e 894e 2f3c e11f c7be
00000010: 0d92 20bd 010f de3e 8563 05bf c605 27bf
00000020: 7c83 563e 1028 923e 8b0a 2ebf 71af 5dbe
00000030: 03f4 3b3d 17e0 c9bd 17b7 6fbd fb40 f7be
00000040: c050 b43d b5e6 a23e f9b1 c1be 630f d7be
00000050: c72e 83be c7c6 36bf 8708 9fbd 4839 4bbd
00000060: 133b ab3d 2886 623e 9d79 46be 7647 21bf
00000070: 6cf0 53be a47a b5be 99a9 e43e 1349 21be
00000080: 829d 053e bdd4 59be 0d06 8fbe 436f 49bf
00000090: 3351 6b3e 5398 223f b2ce b33c 5662 7cbe
000000a0: 887d 94bd 7803 ec3e 4798 6c3e 7734 85be
000000b0: 6206 0c3f 8d06 cd3d 2919 c73b e747 083f
000000c0: cea8 d93d d17c 82be 42d7 10bf 24e2 ba3e
000000d0: 077e 47bf 72a8 bc3e b0ce 99be 4a45 47bf
000000e0: f4a2 9b3e 8bd9 213f fdb8 253f e860 a23e
000000f0: bfd0 29bd 6f9d 4ebd 68c0 c8be 351a 7d3f
00000100: 4bb7 cfbd 0377 cf3d b894 d63e cbb2 b93e
00000110: d49f cc3d d5d5 563f a3e9 e93e d07d 84be
00000120: 1e9c 033d 2c5e 73be d319 a2be 5f52 6a3f
00000130: 6906 afbe 8337 e33d 4115 ef3e eb60 e73e
00000140: 7537 053f 2239 10be a24b 68be 45c2 1f3c
00000150: 218b 93be c030 55bf 9ccc 6ebc 2a56 b2be
00000160: 1ad9 8fbe 58cd d83e 768d 8ebe 3154 9cbc
00000170: b1ec b8bd fa14 b9be ab04 9c3e 1419 cebe
00000180: 1014 39be 54e9 f03b fff8 ef3e 142f 083f
00000190: 1e44 c53e 3f6e 453e 1baa 4dbe c963 213f
000001a0: 6a76 953e 9d7d 9f3d 95ae b43e bb23 5b3e
000001b0: b56a 583d 845b 9e3e 993b b3be 92e7 ee3e
000001c0: 8651 4e3f 7a74 af3e 4972 9a3e 2d79 e93e
000001d0: 1743 343e e2b3 6d3d 72d0 abbd a69b 09be
000001e0: 54be 473e 5fa3 96bd 155b 233e 1819 3cbe
000001f0: 36a1 18bf 1a79 133f 71c2 d53d fc78 10bd
00000200: 96b8 343d 3962 64be 0a60 86bd 735f 6d3e
00000210: 8a64 a73d 3a1e b03e 48a0 46bd c54a d53e
00000220: e252 0dbf 8caf 2fbe 4f3a 90be 332d f3bc
00000230: 33c0 2a3f 5b4d e43d b6bd f2be 567b 8abe
00000240: 231e 67be 16de 73be 1cf9 2dbf e009 2cbf
00000250: 1ceb 3dbf cb30 9ebd ce3f 0dbf 60dd 6b3d
00000260: c093 f63e 20d0 1a3e fbf6 42be bd60 aa3d
00000270: dc73 da3d 6a58 82bc 3db7 063e 0327 6ebe
00000280: 0bf6 65bf a252 8fbf 7225 6fbf 509a ffbe
00000290: a612 d53e f32f 3d3f 8dc1 953f 1bb6 403e
000002a0: f8d5 d03e 5be6 bbbe 8415 91bd 55fc e2bd
000002b0: 1cbf a9be 521c d2be ed13 8ebe a894 6a3f
000002c0: cb71 623f 3a4d 603f 741a 563e a5a3 cf3c
000002d0: 58fa 263f 06bd d0be 41f1 f03e f476 a0bd
000002e0: 4ba6 a9be abfc 913e 2e3e a7be 0bb4 e9be
000002f0: ba3f 68be 761b 8a3b a7a3 32bf a21e 463e
00000300: 9550 583e 0e3c 193f 586d 4fbe 9cfc 6f3f
00000310: 55f6 d03e 62c2 1c3f b51e e13e 26a8 a9be
00000320: 3226 4b3f 1521 4f3f 263e 393d eb9b ddbc
00000330: 53bc 1d3f 8a11 91bf 5e9c 04bf 1207 113f
00000340: 9157 09bd 4b8c 9dbf c1ab 01be ebe9 243e
00000350: ce92 af3f 9f19 7c3f 6e96 a53e 84d1 98be
00000360: db17 52be 54bc 59bf 54b0 8cbe 66b7 2b3f
00000370: b47c d63e 9a79 8bbe 7489 373e 5a81 883e
00000380: 16c6 3e3e 15b8 3ebf 1f8b 53bf 2ca6 88be
00000390: c8cf 8a3e f94b 523f 864d 7cbe d4f1 48be
000003a0: 2c26 15bf 9b9e 00bf 476c 99be cf6e 29bf
000003b0: fdf5 abbe fd1c f13d 427c b2bd 86c2 4ebf
000003c0: e656 3fbe 848a b5be d0cb 85be 1038 3ebf
000003d0: a9c2 95bc 33a8 113f 64cb 813e 95f7 1cbf
000003e0: 30f6 96bd e0ce 1a3f bd9d 5fbe 49a4 07bf
000003f0: e5ed 7cbf 7d72 4d3d 3373 5ebe 9eb9 4d3f

temporal_blocks.2.chan_norm1.weight f4 [16]
1.6222664 1.279465 1.4256488 1.7734934 0.94072515 0.8298559 1.6311502 1.4321506
0.5567989 1.3757653 0.7810324 0.8174224 1.5012027 1.1825125 0.6227973 1.2242662
00000000: 6da6 cf3f 82c5 a33f a97b b63f d501 e33f
00000010: 5dd3 703f 7071 543f 88c9 d03f b650 b73f
00000020: 5f8a 0e3f 1419 b03f bdf1 473f 9842 513f
00000030: 6927 c03f 925c 973f a56f 1f3f c1b4 9c3f

temporal_blocks.2.chan_norm1.bias f4 [16]
-0.02021257 -0.1506577 -0.32278714 0.14318287 -0.046392925 0.2545183 0.2445221 -0.2766239
0.41026083 0.0362235 -0.26480982 -0.038541924 0.27839726 0.11303055 -0.39570504 0.07337396
00000000: d594 a5bc 0346 1abe 5b44 a5be 889e 123e
00000010: 8206 3ebd 3950 823e 0064 7a3e a6a1 8dbe
00000020: b50d d23e 185f 143d 2795 87be 23de 1dbd
00000030: 168a 8e3e 907c e73d da99 cabe 1645 963d

temporal_blocks.2.chan_norm2.weight f4 [16]
4.213154 3.1471334 0.5867154 3.257766 4.119682 2.8779826 4.3198485 3.6307566
3.4657083 4.20758 3.5742059 3.6438594 3.9876592 3.1483862 3.5299895 3.032497
00000000: 28d2 8640 a26a 4940 fb32 163f 3d7f 5040
00000010: 6fd4 8340 de30 3840 333c 8a40 515e 6840
00000020: 2ace 5d40 7fa4 8640 cabf 6440 fe34 6940
00000030: cf35 7f40 297f 4940 59eb 6140 6e14 4240

temporal_blocks.2.chan_norm2.bias f4 [16]
-0.24234584 0.192426 -0.17476673 0.022808297 0.13482971 -0.021309834 0.20261182 0.09691248
-0.103865415 -0.20485228 0.18966782 0.320639 0.12392541 -0.1420219 0.10572158 -0.10205386
00000000: 8229 78be 520b 453e 0df6 32be 77d8 ba3c
00000010: cd10 0a3e f691 aebc 7979 4f3e 0d7a c63d
00000020: 64b7 d4bd ccc4 51be 4838 423e cc2a a43e
00000030: 9bcc fd3d 306e 11be 8e84 d83d 9d01 d1bd

temporal_blocks.2.downsample.weight f4 [16, 8, 1]
-2.3926878 -0.13272859 0.65850556 0.21672821 -4.0818143 -1.4028763 -0.47521174 -1.9707227
0.33536172 0.36127684 -0.8484585 0.2872262 0.675923 0.3045986 0.12449086 -0.06739453
0.5795101 0.31343558 0.61416966 -1.2399786 1.2406973 -1.5980978 1.8684133 -1.0433115
0.13945103 1.1390249 -0.38689104 0.06759981 -0.43493426 -0.15762234 0.51014566 -1.4062417
-4.829577 -4.795886 -4.2624183 -3.2387097 0.8893312 -1.5120472 -3.4961782 -0.5776454
-0.8292153 -0.97183704 -1.7691 -1.7752116 0.12562193 -0.025893172 2.8983676 -0.10384168
0.10610402 -0.7134882 -3.5185134 -0.93566704 -0.8761563 0.53178364 3.4167619 0.65691155
0.59144765 -0.3264492 0.07529308 0.2794895 0.45300567 -0.124794014 0.41090018 -0.30223536
0.030855536 -0.297718 -0.11415922 0.1840308 -0.5533669 -0.4407638 -0.13866588 -0.0862362
-0.06913631 -0.15917398 0.40879488 -0.6699225 -0.47098768 -0.36709315 1.8923475 0.6220933
0.36736548 -0.34211725 0.016831577 0.7990838 -0.23452267 0.21501645 -0.4110195 -0.23382738
0.40418014 0.31700054 0.42617822 0.20334147 0.6327249 -0.98562855 1.0948925 0.43520296
0.47998723 1.0954084 0.18143894 0.57184273 -0.26583982 -0.61366665 -0.16490662 -0.5362381
0.3053522 -1.4354633 1.1377591 0.74960685 1.1695164 -0.756319 3.3201935 -0.33523744
-1.400186 -0.92248493 -0.8038058 0.4722508 -0.26836717 -0.67911726 -0.9537701 0.23831914
-0.081329815 -0.25276065 0.17475614 0.23904574 -0.01913929 0.013295007 0.281492 0.8000834
00000000: cc21 19c0 01ea 07be d293 283f 00ee 5d3e
00000010: 399e 82c0 7391 b3bf f44e f3be a440 fcbf
00000020: 88b4 ab3e 47f9 b83e 9434 59bf 500f 933e
00000030: 4a09 2d3f 59f4 9b3e 10f5 fe3d 2506 8abd
00000040: c65a 143f a17a a03e 393a 1d3f 9eb7 9ebf
00000050: 2bcf 9e3f 788e ccbf 2b28 ef3f 3b8b 85bf
00000060: 40cc 0e3e 91cb 913f 9516 c6be c571 8a3d
00000070: b4af debe c067 21be e898 023f baff b3bf
00000080: e58b 9ac0 e677 99c0 bb65 88c0 0547 4fc0
00000090: 36ab 633f c38a c1bf 62c1 5fc0 92e0 13bf
000000a0: 7447 54bf 50ca 78bf de71 e2bf 223a e3bf
000000b0: 09a3 003e eb1d d4bc db7e 3940 f2aa d4bd
000000c0: 104d d93d 2aa7 36bf 532f 61c0 e087 6fbf
000000d0: c74b 60bf f922 083f 3aac 5a40 5b2b 283f
000000e0: 1d69 173f 5924 a7be 4233 9a3d 3f19 8f3e
000000f0: 5cf0 e73e 0194 ffbd 8261 d23e 98be 9abe
00000100: c0c4 fc3c 7e6e 98be 4fcc e9bd 9272 3c3e
00000110: 74a9 0dbf cbab e1be 6efe 0dbe 9b9c b0bd
00000120: 5697 8dbd 81fe 22be 904d d13e 0a80 2bbf
00000130: 4c25 f1be a2f3 bbbe 7138 f23f 8241 1f3f
00000140: 5417 bc3e fe29 afbe 60e2 893c c290 4c3f
00000150: b626 70be 462d 5c3e 2671 d2be 7270 6fbe
00000160: b3f0 ce3e e54d a23e 0834 da3e bf38 503e
00000170: 42fa 213f 2752 7cbf 7025 8c3f ecd2 de3e
00000180: e3c0 f53e 5836 8c3f 21cb 393e 4964 123f
00000190: 281c 88be 4219 1dbf 48dd 28be e646 09bf
000001a0: 2057 9c3e 43bd b7bf 17a2 913f 3ce6 3f3f
000001b0: b7b2 953f 1f9e 41bf 0d7e 5440 3ea4 abbe
000001c0: 4b39 b3bf f927 6cbf 38c6 4dbf dbca f13e
000001d0: 6c67 89be a1da 2dbf 472a 74bf ef09 743e
000001e0: 3f90 a6bd d869 81be 46f3 323e 68c8 743e
000001f0: 00ca 9cbc 4dd3 593c b81f 903e 44d2 4c3f

temporal_blocks.2.downsample.bias f4 [16]
-0.24836043 -0.511274 -0.7744692 0.07088516 -0.46716717 -0.07598145 -0.44708717 -1.1969064
0.22264601 0.046156093 0.3099648 -0.7351921 -0.14364693 -1.0799074 -0.060177926 -0.16408998
00000000: 3252 7ebe dae2 02bf 9d43 46bf 3d2c 913d
00000010: 8930 efbe 2a9c 9bbd 9ce8 e4be 3b34 99bf
00000020: 51fd 633e 2c0e 3d3d b5b3 9e3e 8d35 3cbf
00000030: 2e18 13be 683a 8abf 217d 76bd 3407 28be

fc.weight f4 [5, 16]
1.7384512 -1.4339149 0.1911697 1.4300839 -1.674148 1.1380085 1.1619426 -2.6683543
-0.16782719 1.6262444 -1.2349907 -0.53110874 -0.7974719 2.1918314 -1.2108163 0.5279141
-2.0588806 0.6946447 -0.19962338 -2.0842226 0.87980986 0.3807681 1.7119012 2.5210092
-0.63393813 0.78876203 0.74100584 1.4695386 -1.6851336 -1.8026443 -0.36964455 0.021391891
-0.6898065 0.88246906 -0.5649722 0.05506847 -2.871717 -1.8489257 -0.6788026 0.9873968
-0.66013265 -2.4474719 -0.32891583 1.7283883 2.089285 0.26187864 -0.083705895 -1.0478423
-1.1543517 -1.2710592 -0.24022035 0.13921109 1.9024788 -0.44015595 -2.447674 -0.5248623
1.9970658 0.82522166 1.5467498 -1.2638576 1.3339669 -0.008976251 -1.5357492 -1.4877584
2.3088095 0.9945879 0.4667669 0.68713325 1.6254094 0.80525964 -0.76910967 -0.37511867
-1.310996 -1.7983575 -0.27162534 -1.5004101 -1.4222709 -1.3386356 2.3312027 1.3550569
00000000: 9285 de3f 868a b7bf fdc1 433e fd0c b73f
00000010: 7b4a d6bf 43aa 913f 89ba 943f 51c6 2ac0
00000020: e4da 2bbe c728 d03f 2d14 9ebf bef6 07bf
00000030: 1e27 4cbf f746 0c40 07fc 9abf 6125 073f
00000040: b3c4 03c0 3cd4 313f 126a 4cbe e763 05c0
00000050: 383b 613f 09f4 c23e 941f db3f 3758 2140
00000060: c549 22bf 4fec 493f 8fb2 3d3f d719 bc3f
00000070: 75b2 d7bf 0cbd e6bf 0d42 bdbe 0c3e af3c
00000080: 2997 30bf 7ee9 613f 05a2 10bf 7a8f 613d
00000090: 36ca 37c0 99a9 ecbf 02c6 2dbf 09c6 7c3f
000000a0: 74fe 28bf 61a3 1cc0 a867 a8be d43b dd3f
000000b0: d8b6 0540 f514 863e ff6d abbd b21f 86bf
000000c0: ccc1 93bf 11b2 a2bf 53fc 75be 5a8d 0e3e
000000d0: 6d84 f33f 1f5c e1be b1a6 1cc0 605d 06bf
000000e0: da9f ff3f ba41 533f e6fb c53f 16c6 a1bf
000000f0: 6dbf aa3f 2011 13bc 6e93 c4bf de6e bebf
00000100: 89c3 1340 509d 7e3f 12fc ee3e f7e7 2f3f
00000110: 6a0d d03f 7f25 4e3f 5fe4 44bf 8e0f c0be
00000120: b8ce a7bf 9430 e6bf 7a12 8bbe 700d c0bf
00000130: f90c b6bf 6958 abbf 6d32 1540 8172 ad3f

fc.bias f4 [5]
-0.21694918 -0.11740566 -0.08814801 0.30934146 -0.18622597
00000000: ed27 5ebe 6172 f0bd f286 b4bd 0162 9e3e
00000010: 05b2 3ebe

onnx::Abs_488 f4 [20]
-0.59178907 -0.0061843665 0.06710192 0.09478194 -0.5568488 -0.38099107 -0.7027889 -0.30027807
0.4354815 0.74775606 0.8747858 -0.11837418 -0.70535296 -0.10043293 -0.3067499 -1.1461555
-0.07442993 -0.038509477 0.7389362 -0.07289518
00000000: 7d7f 17bf 3aa6 cabb bb6c 893d 091d c23d
00000010: a58d 0ebf 4311 c3be f9e9 33bf 0cbe 99be
00000020: 6ef7 de3e f16c 3f3f f6f1 5f3f 296e f2bd
00000030: 0392 34bf c8af cdbd 530e 9dbe 39b5 92bf
00000040: b86e 98bd 1dbc 1dbd ec2a 3d3f 114a 95bd

onnx::Abs_490 f4 [80]
-0.45083395 -0.18373631 -0.32371095 0.010036697 0.5177767 0.31238726 0.23490807 0.37448886
-0.005017157 -0.5315026 -0.5607615 -0.034630544 0.01449692 0.44922626 0.85158306 0.118951574
0.13056625 0.055641163 -0.32078025 -0.025087556 -0.09857649 0.61242735 -0.2723198 -0.22869872
-1.2887022 -0.06813621 -0.31472057 0.16370592 0.53450054 0.9301398 -0.9667676 -0.18978786
-0.38039315 -0.1712118 -0.45167983 0.770234 0.76929224 -0.4418832 0.0053072777 -0.06731659
0.10151003 -0.49419987 -0.0949297 0.19129705 0.16770865 -0.17915417 0.30777997 -0.089620166
0.21114337 0.2766078 1.2845004 0.40439668 0.019522442 -0.6380747 -0.6483275 -0.46094626
-0.68566465 0.14678472 0.76625335 0.20379846 -0.030575328 0.5832195 0.4590555 0.7067276
0.33464426 0.26199645 -0.45335352 -0.66287327 -0.75273 -0.5420518 0.051990725 0.02253418
0.20188272 -0.07190346 0.31622073 -0.9486478 0.67016584 0.1272775 0.08787123 0.009164682
00000000: b5d3 e6be 5f25 3cbe 71bd a5be f570 243c
00000010: 048d 043f 39f1 9f3e be8b 703e 01bd bf3e
00000020: f766 a4bb 8e10 08bf 118e 0fbf c2d8 0dbd
00000030: 7d84 6d3c fc00 e63e 5901 5a3f e29c f33d
00000040: 29b3 053e fde7 633d 4f3d a4be 6b84 cdbc
00000050: 79e2 c9bd 0ac8 1c3f 806d 8bbe ff2f 6abe
00000060: 32f4 a4bf ff8a 8bbd 0e23 a1be 86a2 273e
00000070: 07d5 083f a41d 6e3f 157e 77bf c057 42be
00000080: e4c2 c2be 2552 2fbe 9442 e7be 0e2e 453f
00000090: 56f0 443f 843e e2be ace8 ad3b 48dd 89bd
000000a0: 7ee4 cf3d c407 fdbe 816a c2bd 60e3 433e
000000b0: d1bb 2b3e 3174 37be 5695 9d3e c78a b7bd
000000c0: f835 583e 8a9f 8d3e 826a a43f 150d cf3e
000000d0: 87ed 9f3c dd58 23bf cbf8 25bf 2601 ecbe
000000e0: b887 2fbf bc4e 163e 2e29 443f 8bb0 503e
000000f0: 1c79 fabc e04d 153f 5309 eb3e 1aec 343f
00000100: 7e56 ab3e 6624 863e f41d e8be 10b2 29bf
00000110: eab2 40bf e8c3 0abf 3af4 543d 9a99 b83c
00000120: 58ba 4e3e 1f42 93bd afe7 a13e 95da 72bf
00000130: fd8f 2b3f 0855 023e d5f5 b33d 7627 163c

onnx::Abs_492 f4 [4]
1.3264501 -1.1583171 -0.22990453 0.5350858
00000000: 1ec9 a93f bc43 94bf 186c 6bbe 62fb 083f

onnx::Abs_505 f4 [160]
-0.071040735 0.044667374 -0.22090144 -0.16883454 0.614124 -0.05882109 -0.6797513 0.48814312
0.056577872 0.006804076 0.23386592 -0.32475823 0.236722 0.16829525 0.49018413 -0.2118841
-0.34837735 -0.21261036 0.13152045 0.19223845 -1.5963271 0.09124317 0.12528794 0.009948464
0.7509873 0.60100293 -0.14908004 -0.53494704 0.08207706 0.15093784 -0.4290546 -0.5995732
-0.42969984 -0.24652357 0.17699414 -0.30278227 0.23277453 -0.08394381 -0.0031260736 -0.037531406
0.44684896 -0.35833776 -0.09463846 -0.14942229 -0.17121041 -0.61563534 0.71456045 -0.25860405
-0.19904767 0.6318401 -0.24825828 0.6224414 -0.14966217 -0.69212264 -0.21219298 -0.072999835
0.14786641 0.46758252 -0.34359854 0.073082216 -0.39639285 -0.10312412 -0.25262856 -0.1442244
0.16307527 0.5684281 0.54160273 0.7229351 -0.005080083 -0.9827894 0.12248578 0.2999124
0.44963282 0.082656264 -0.19069868 0.24897178 0.29685992 -0.0066850935 0.40379608 -0.03205006
-0.42099872 0.4740677 0.15641281 -0.33182558 -0.08171839 1.2278311 -0.050580885 0.057117395
-0.27927563 -0.6843398 0.07516637 -0.24073763 0.11376759 0.31535614 -0.28043306 -0.4920408
0.048193943 -0.3264142 0.7430922 0.73605734 0.20831196 -0.31541222 0.8942069 0.34828725
-0.36234 -0.2997154 0.23043919 -0.021456834 0.6662113 0.12687266 -0.39424422 -0.08180804
0.11082046 0.14842317 -0.020217285 -0.16606422 -0.66438985 -0.05919903 -0.37773058 -0.6477365
1.5788583 -0.36807337 -0.2043101 -0.11076722 -0.77184224 -0.7898185 -0.31400934 0.3188433
0.21593487 0.1767786 0.10489248 -0.08768634 0.019583328 0.34706914 0.20642689 0.3667542
-0.20296204 -0.11739102 0.030464452 -0.016769536 0.115650766 -0.15435636 -0.26444173 0.2903187
0.16389625 0.10436989 0.059789337 -0.20610465 -0.33172002 0.04189761 0.6397051 0.89173114
0.14888917 -0.6317352 -0.09566007 0.28013384 0.43655068 -0.12735793 -0.38471806 -0.5126099
00000000: ce7d 91bd 23f5 363d fd33 62be f6e2 2cbe
00000010: 3b37 1d3f 62ee 70bd 2e04 2ebf e5ed f93e
00000020: 33be 673d baf4 de3b 8c7a 6f3e b646 a6be
00000030: 4167 723e 9755 2c3e 6af9 fa3e 25f8 58be
00000040: 845e b2be 88b6 59be 4cad 063e 28da 443e
00000050: 7254 ccbf b3dd ba3d 7b4b 003e e2fe 223c
00000060: b440 403f 54db 193f 70a8 18be 4af2 08bf
00000070: 0518 a83d 738f 1a3e 0bad dbbe a17d 19bf
00000080: 9e01 dcbe ad70 7cbe f43d 353e 4706 9bbe
00000090: 725c 6e3e bbea abbd d0de 4cbb 88ba 19bd
000000a0: 63c9 e43e 0c78 b7be cfd1 c1bd 2802 19be
000000b0: c851 2fbe 479a 1dbf 6fed 363f c067 84be
000000c0: 27d3 4bbe 46c0 213f 6b37 7ebe 5258 1f3f
000000d0: 0a41 19be f32e 31bf 1e49 59be f080 95bd
000000e0: 4b6a 173e fa66 ef3e 26ec afbe 21ac 953d
000000f0: 01f4 cabe bd32 d3bd 8858 81be 90af 13be
00000100: 34fd 263e 8184 113f 7aa6 0a3f 4612 393f
00000110: d376 a6bb 1698 7bbf d3d9 fa3d 1e8e 993e
00000120: 4636 e63e b047 a93d 8446 43be 75f2 7e3e
00000130: 06fe 973e a10e dbbb 5cbe ce3e ec46 03bd
00000140: 258d d7be 00b9 f23e ae2a 203e 0be5 a9be
00000150: f95b a7bd 9229 9d3f e72d 4fbd eef3 693d
00000160: 37fd 8ebe e530 2fbf d3f0 993d ed83 76be
00000170: fbfe e83d 5c76 a13e ec94 8fbe c6ec fbbe
00000180: 0367 453d c31f a7be 4a3b 3e3f 416e 3c3f
00000190: bb4f 553e b67d a1be beea 643f b552 b23e
000001a0: a184 b9be 4c74 99be 40f8 6b3e 3ec6 afbc
000001b0: d38c 2a3f e8ea 013e 61da c9be f98a a7bd
000001c0: d6f5 e23d 3efc 173e b89e a5bc bd0c 2abe
000001d0: 7415 2abf af7a 72bd e765 c1be 0fd2 25bf
000001e0: 0718 ca3f 1d74 bcbe ab36 51be edd9 e2bd
000001f0: 7497 45bf 8c31 4abf d5c5 a0be 6e3f a33e
00000200: 081e 5d3e 7305 353e ded1 d63d e594 b3bd
00000210: 376d a03c 0cb3 b13e 9261 533e 35c7 bb3e
00000220: 48d5 4fbe b46a f0bd 9690 f93c 4460 89bc
00000230: 4fda ec3d 980f 1ebe e864 87be a7a4 943e
00000240: 6bd4 273e e2bf d53d aae5 743d 190d 53be
00000250: 35d7 a9be d49c 2b3d b7c3 233f 7e48 643f
00000260: 6776 183e 66b9 21bf 6de9 c3bd b46d 8f3e
00000270: 9283 df3e 1e6a 02be c4f9 c4be 673a 03bf

onnx::Abs_507 f4 [320]
-0.010929462 -0.22389244 -1.0544844 0.20563251 -0.19319557 -0.6546164 0.5425802 0.63228023
1.0514591 0.33389026 0.179932 0.57590157 0.7190083 0.0699844 -0.0060119797 0.8026026
-0.1571734 -0.42861003 -0.9280384 -0.6048363 0.63757604 -0.9503877 -0.53263915 -0.28646693
-0.504557 -0.72861713 0.0029649062 0.47918272 0.44702432 0.23231623 -0.077337 -0.34860173
-0.24925284 -0.2686811 0.31479785 -0.09905268 0.620896 0.37342188 0.016713118 0.70031554
-0.3363393 -0.25199044 -1.1093943 -0.5312042 0.54114515 -0.052445326 0.063773274 -0.19255199
-0.15706237 0.30064118 0.5086699 0.20828936 0.19487187 0.63756204 1.0837668 -1.1114208
-1.0131918 -0.48960352 -0.20103334 -0.37963757 0.11497464 0.19751397 0.30596676 -0.3384359
-0.4038004 0.05618065 0.27452675 1.0097977 0.6117005 -0.046339307 0.44953415 0.12833448
0.08938379 0.16747443 0.22390534 -0.027038159 -0.09151938 -0.13037474 -0.19942796 -0.57341594
0.31295252 0.52371955 -0.1980149 -0.45006013 -0.30064645 -0.17694744 0.01721473 -0.07415231
0.15996274 -0.5936626 0.845052 -0.68634427 -0.19630541 0.041683875 0.3631223 0.12353111
0.2534906 0.34402916 0.2925353 0.26021197 -0.26603523 0.60028994 0.5682758 0.47829625
-0.024594894 -0.5425284 -0.7081573 -0.36294302 -0.2380079 -0.3780527 0.38128433 -0.16530485
0.22612956 -0.057433955 0.56442416 0.8805195 0.45764413 0.3149433 -0.23807189 0.13235436
0.91402763 -0.08402569 -0.531336 0.01799679 -0.27267733 -0.20228139 -0.49603757 -0.39751667
0.16947398 0.1548501 -0.1247759 0.46496412 -0.19334735 -0.5005565 -0.7109338 0.27170068
0.1460129 0.50300395 0.1772562 0.11715224 -0.18089618 -0.49672812 0.007828255 0.21531193
0.37906665 0.037089325 0.19130336 0.0012848268 0.037219442 -0.07142821 0.014876629 0.3895459
-0.1879005 -0.54262865 -1.0092679 -0.33106604 -0.32695842 -0.36151043 -0.20766318 0.50414896
-0.16444296 -0.06026964 0.11853964 0.24483097 0.05936516 0.41240612 0.3266071 0.2548396
0.42431816 0.012587983 -0.51103437 -0.23609811 0.02631847 -0.3820251 -0.09084118 -0.021563103
-0.065231696 0.25784093 0.006466403 0.17599508 0.32272008 0.14839044 0.124403074 0.36612526
0.4395553 0.15124306 -0.086046375 -0.2560417 -0.18926726 -0.38412127 -0.5418082 -0.45921275
-0.6092425 -0.6442464 -0.4584138 -0.9010078 -0.5037066 -0.05174548 0.2140644 0.0810459
-0.029374 0.06624054 0.30109364 0.7714436 0.6677182 0.92986065 0.74838823 0.96936846
0.48374945 0.5916952 -0.87383735 -0.011053923 -0.095465675 -0.5191146 0.13922285 -1.2984486
-0.47996166 -1.110064 -0.48052213 -0.3102541 -0.21357884 0.5667297 0.30140442 -0.025461027
-0.08305304 1.20803 -0.11152831 0.22660019 -0.2847001 -0.17649266 0.39592522 -0.3165402
0.0026832279 0.38466814 -0.16806497 -0.5030647 -0.71747714 -0.9126813 -0.30462807 -0.7838824
-0.7148694 0.18266921 0.85004336 -0.32444566 -0.15564747 0.198196 -0.011777713 0.3483414
-0.17790522 0.19662246 0.2844359 -0.391075 -0.12058755 0.13060975 0.3454973 -0.11679075
00000000: 7c11 33bc 0f44 65be 58f9 86bf 5491 523e
00000010: 0fd5 45be f194 27bf 89e6 0a3f 1edd 213f
00000020: 3696 863f aaf3 aa3e 1840 383e 496e 133f
00000030: ee10 383f fb53 8f3d 2400 c5bb 5d77 4d3f
00000040: 10f2 20be c672 dbbe ed93 6dbf 8dd6 1abf
00000050: 2f38 233f 9c4c 73bf 0a5b 08bf cbab 92be
00000060: a62a 01bf a786 3abf df4e 423b 7057 f53e
00000070: 5fe0 e43e 4ee4 6d3e dc62 9ebd ed7b b2be
00000080: 233c 7fbe 9290 89be 2f2d a13e 22dc cabd
00000090: 0af3 1e3f 2731 bf3e f3e9 883c e147 333f
000000a0: aa34 acbe e404 81be a200 8ebf 00fd 07bf
000000b0: 7d88 0a3f e9d0 56bd 909b 823d 592c 45be
000000c0: f5d4 20be a4ed 993e 3138 023f ce49 553e
000000d0: 7e8c 473e 4437 233f dfb8 8a3f 0943 8ebf
000000e0: 45b0 81bf 50ad fabe afdb 4dbe db5f c2be
000000f0: d377 eb3d 1a41 4a3e ada7 9c3e 7847 adbe
00000100: edbe cebe ae1d 663d c58e 8c3e 0d41 813f
00000110: 6798 1c3f 49ce 3dbd 5729 e63e 1d6a 033e
00000120: d90e b73d 6b7e 2b3e 7147 653e 217f ddbc
00000130: 836e bbbd f580 05be d836 4cbe 63cb 12bf
00000140: 503b a03e 7c12 063f 6bc4 4abe 486e e6be
00000150: 55ee 99be b631 35be e805 8d3c 2bdd 97bd
00000160: 46cd 233e 46fa 17bf 5455 583f 42b4 2fbf
00000170: 4904 49be b6bc 2a3d 2beb b93e e1fd fc3d
00000180: 85c9 813e 9724 b03e 30c7 953e 813a 853e
00000190: c535 88be 9aac 193f 867a 113f 3fe3 f43e
000001a0: 3b7b c9bc 24e3 0abf cc49 35bf abd3 b9be
000001b0: 58b8 73be 2090 c1be b337 c33e ad45 29be
000001c0: 828e 673e de3f 6bbd 1a7e 103f ba69 613f
000001d0: 5550 ea3e 4040 a13e 1ec9 73be e787 073e
000001e0: b7fd 693f a915 acbd a305 08bf 016e 933c
000001f0: 5d9c 8bbe da22 4fbe a3f8 fdbe 4e87 cbbe
00000200: 968a 2d3e 0691 1e3e 828a ffbd c70f ee3e
00000210: d9fc 45be 7924 00bf c2ff 35bf 5a1c 8b3e
00000220: 6884 153e dec4 003f a682 353e 83ed ef3d
00000230: d93c 39be 2653 febe 1542 003c bb7a 5c3e
00000240: 0615 c23e faea 173d 07e5 433e a267 a83a
00000250: 6a73 183d f448 92bd 1bbd 733c 8f72 c73e
00000260: fd68 40be b6e9 0abf b12f 81bf 7d81 a9be
00000270: 1867 a7be e517 b9be a8a5 54be e80f 013f
00000280: bc63 28be 4cdd 76bd e9c4 f23d f8b4 7a3e
00000290: e228 733d e526 d33e 0c39 a73e 567a 823e
000002a0: 3b40 d93e d43d 4e3c 26d3 02bf b4c3 71be
000002b0: d599 d73c cb98 c3be f10a babd 1ba5 b0bc
000002c0: 3298 85bd ba03 843e 1fe4 d33b 0e38 343e
000002d0: 913b a53e aaf3 173e 0ac7 fe3d c574 bb3e
000002e0: 640d e13e 76df 1a3e 1539 b0bd e617 83be
000002f0: 47cf 41be 8bab c4be f1b3 0abf ef1d ebbe
00000300: 51f7 1bbf 55ed 24bf 37b5 eabe 72a8 66bf
00000310: eaf2 00bf 12f3 53bd b333 5b3e 65fb a53d
00000320: bea1 f0bc 1fa9 873d f228 9a3e 547d 453f
00000330: 94ef 2a3f 590b 6e3f 5f96 3f3f 8828 783f
00000340: 02ae f73e 5679 173f ceb3 5fbf 831b 35bc
00000350: 8283 c3bd b2e4 04bf 6f90 0e3e 9033 a6bf
00000360: 89bd f5be 9416 8ebf ff06 f6be a0d9 9ebe
00000370: 69b4 5abe 3315 113f ae51 9a3e a593 d0bc
00000380: b617 aabd baa0 9a3f f468 e4bd e109 683e
00000390: 36c4 91be 7eba 34be b6b6 ca3e 8f11 a2be
000003a0: 18d9 2f3b 39f3 c43e 3919 2cbe d9c8 00bf
000003b0: 95ac 37bf 7ba5 69bf 36f8 9bbe 84ac 48bf
000003c0: ae01 37bf a30d 3b3e 719c 593f be1d a6be
000003d0: 0d62 1fbe e4f3 4a3e 4ff7 40bc ce59 b23e
000003e0: c92c 36be 6657 493e 95a1 913e fb3a c8be
000003f0: 9bf6 f6bd 90be 053e 06e5 b03e fd2f efbd

onnx::Abs_509 f4 [32]
0.66681725 0.10625266 0.02598998 -0.8057293 -0.031469684 0.16941728 -0.12900564 -0.5854305
-0.7293829 -1.520434 -0.9625944 -1.7479328 0.36610103 -0.8636364 -0.51136124 -0.11500696
0.044259574 -0.98011374 -1.2179974 -0.30335706 -0.09323658 0.09130132 -0.18799774 0.024181392
0.10861341 -0.25725165 0.2540695 -0.16618277 -0.175471 0.3603115 -0.060899638 -0.025186481
00000000: 89b4 2a3f ff9a d93d f0e8 d43c 4744 4ebf
00000010: 5be6 00bd b97b 2d3e 0e1a 04be c6de 15bf
00000020: d6b8 3abf 959d c2bf 966c 76bf 43bc dfbf
00000030: 9871 bb3e 4617 5dbf 92e8 02bf c588 ebbd
00000040: 8749 353d bce8 7abf 57e7 9bbf 9e51 9bbe
00000050: d2f2 bebd 30fc ba3d 7b82 40be 0e18 c63c
00000060: b570 de3d 7db6 83be 6615 823e d12b 2abe
00000070: abae 33be c07a b83e e671 79bd e153 cebc
