finn/finn_config/model_v10.onnx (onnx, 135299 bytes, 36 tensors)

temporal_blocks.0.conv1.weight f4 [4, 1, 1, 5]
0	0x3b63e120	0.0034771636
1	0xbeee6651	-0.46562436
2	0xbf3cae86	-0.737038
3	0xbe85ffa9	-0.26171616
4	0x3f5d72ac	0.865031
5	0x3f295eea	0.6616045
6	0xbd0b79a1	-0.03405154
7	0xbe25ce7d	-0.1619205
8	0x3d099f50	0.033599198
9	0xbf569688	-0.8382344
10	0xbf5b2d53	-0.85616034
11	0xbe8aeed7	-0.27135345
12	0x3eb92613	0.3616186
13	0x3e9fa32b	0.31179175
14	0x3dd87462	0.10569073
15	0xbf2ee9f3	-0.6832573
16	0xbccbbec3	-0.024871236
17	0x3f4abbea	0.79192984
18	0x3eb880c0	0.36035728
19	0xbddfd401	-0.109291084

temporal_blocks.0.conv2.weight f4 [4, 4, 1, 5]
0	0xbe12d960	-0.14340734
1	0x3e467e96	0.19384226
2	0x3e714b7e	0.23563954
3	0x3e27ea0d	0.16397877
4	0x3da06af3	0.07832899
5	0xbecfbd36	-0.40574044
6	0xbe488f0d	-0.1958582
7	0xbe2cd47c	-0.16877931
8	0xbdc40d7b	-0.09572884
9	0xbec29dd0	-0.38011026
10	0x3ea268dd	0.3172063
11	0xbd5a5819	-0.053306673
12	0xbec35614	-0.3815161
13	0xbe99a744	-0.30010426
14	0xbbf9b44c	-0.00762037
15	0xbc02f6b8	-0.007993393
16	0xbe14e2bb	-0.14539616
17	0xbe6dcd72	-0.23222902
18	0xbd87b789	-0.066268034
19	0xbe40da28	-0.1883322
20	0x3be23e61	0.006904409
21	0xbf35b1c4	-0.70974374
22	0xbfb60340	-1.4219742
23	0xbf0ab0a2	-0.5417577
24	0x3d2d911b	0.04237471
25	0x3e89602c	0.26831186
26	0x3e791e9e	0.24328086
27	0x3e579294	0.21052009
28	0x3e855cd4	0.26047385
29	0x3f030101	0.51173407
30	0xbf41a69d	-0.75644857
31	0x3d792f28	0.060835987
32	0xbdd323ac	-0.10309538
33	0x3c090a91	0.008364336
34	0xbf03fab1	-0.515544
35	0x3e578a3c	0.21048826
36	0x3f2a9c53	0.6664478
37	0x3f1cd36b	0.612601
38	0x3e04e1bc	0.12976736
39	0xbe660af7	-0.2246512
40	0xbd915620	-0.07096505
41	0x3ebcea83	0.36897668
42	0x3f08bd58	0.53413916
43	0x3ee485cc	0.4463333
44	0x3ccc5748	0.024943963
45	0xbea75aff	-0.32686612
46	0xbefc5292	-0.49281746
47	0xbf30d155	-0.69069415
48	0xbf16189e	-0.5863131
49	0xbf87e8f7	-1.061797
50	0x3f33c11f	0.70216554
51	0x3f1b0033	0.6054718
52	0x3f63a3ff	0.88922113
53	0x3f065fab	0.5248973
54	0x3f742a5e	0.9537715
55	0xbdbf72d1	-0.09348071
56	0xbd6ef50e	-0.05833917
57	0xbec9e764	-0.3943435
58	0x3d8d1062	0.068878904
59	0x3f055766	0.52086484
60	0x3e116bde	0.14201304
61	0x3ed5a877	0.4173009
62	0x3dd71240	0.10501528
63	0xbec8aa71	-0.39192536
64	0xbf16d116	-0.5891279
65	0x3f77576e	0.9661778
66	0x3efb13b6	0.49038476
67	0x3e2bca90	0.1677649
68	0x3f28bf74	0.65917134
69	0x3f9b6390	1.2139759
70	0xbf4351a4	-0.7629645
71	0xbee0142e	-0.43765396
72	0xbe5224fe	-0.20521924
73	0xbe61545d	-0.22004838
74	0xbed48fef	-0.41516063
75	0xbf0bb584	-0.54573846
76	0xbed03a87	-0.40669653
77	0xbe0ed718	-0.13949239
78	0xbde8c986	-0.113665625
79	0xbea9d816	-0.33172673

temporal_blocks.0.chan_norm1.weight f4 [4]
0	0x3f8e13a8	1.1099749
1	0x3fe36a94	1.77669
2	0x3f77685f	0.9664363
3	0x3f187e94	0.5956814

temporal_blocks.0.chan_norm1.bias f4 [4]
0	0x3ea677d2	0.3251329
1	0xbbdc9d23	-0.0067325993
2	0xbf276dd4	-0.6540196
3	0xbdbb36ec	-0.09141335

temporal_blocks.0.chan_norm2.weight f4 [4]
0	0x3ea8d93a	0.3297823
1	0x3f87636a	1.0577214
2	0x3f6c98ff	0.92420954
3	0x3e90cd94	0.28281844

temporal_blocks.0.chan_norm2.bias f4 [4]
0	0x3dad2adb	0.0845544
1	0x3f1ed863	0.6204893
2	0x3d640905	0.055672664
3	0xbf08ec69	-0.53485733

temporal_blocks.0.downsample.weight f4 [4, 1, 1, 1]
0	0x3f03c9b0	0.51479626
1	0xbe74f4fc	-0.23921579
2	0xbd272194	-0.040803507
3	0x3fbc6643	1.4718708

temporal_blocks.0.downsample.bias f4 [4]
0	0x3ed9a92e	0.42511886
1	0xbfa8da6b	-1.3191656
2	0xbf5ce709	-0.8629003
3	0xbe5809eb	-0.21097533

temporal_blocks.1.conv1.weight f4 [8, 4, 1, 5]
0	0xbe99a79a	-0.30010682
1	0xbd2a7184	-0.041612163
2	0xbe813912	-0.25238854
3	0xbe074adb	-0.13212149
4	0x3e295b9b	0.16538851
5	0xbe42d505	-0.19026573
6	0x3e2d16a2	0.16903165
7	0xbf2ecb77	-0.6827921
8	0xbdf6c222	-0.12048747
9	0xbf3bffe2	-0.7343732
10	0xbe67b2a5	-0.22626741
11	0x3d6a8d30	0.057263553
12	0x3e9a65e3	0.30155858
13	0x3e9c9a22	0.30586344
14	0x3df9376a	0.121687725
15	0x3e8e1344	0.27749074
16	0xbd7daa49	-0.061929975
17	0x3ecaba48	0.39595246
18	0xbf28b286	-0.65897405
19	0x3f4e9070	0.80689144
20	0x3f032c0b	0.5123908
21	0x3d1a89fc	0.03772925
22	0xbedea9fa	-0.43489057
23	0xbec071ac	-0.37586725
24	0xbe113156	-0.14178976
25	0x3e771660	0.24129629
26	0xbe9d92a3	-0.30775937
27	0xbdf839f4	-0.12120429
28	0x3f49a410	0.78765965
29	0xbed0ee57	-0.4080684
30	0xbe13b8bd	-0.14425941
31	0x3defe0d4	0.117128044
32	0xbe8cab80	-0.27474594
33	0xbeefc0b4	-0.46826708
34	0x3e900aa9	0.28133133
35	0x3f0d3106	0.5515293
36	0xbe3f9c7c	-0.18712038
37	0xbc6ef1ca	-0.014584014
38	0xbf245c66	-0.6420349
39	0x3fe17944	1.7615132
40	0xbd035569	-0.032063875
41	0x3f028e93	0.509988
42	0x3e41fa89	0.18943228
43	0x3e988294	0.29787123
44	0x3ee09818	0.43866038
45	0xbdd99c2c	-0.106254905
46	0xbd5a0c62	-0.053234465
47	0x3f94ef11	1.1635457
48	0x3f0e983c	0.5570104
49	0x3fd43743	1.6579365
50	0x3e65f21c	0.22455639
51	0x3e4d76ad	0.20064802
52	0xbf47cd1a	-0.78047335
53	0xbe6ea8dd	-0.23306604
54	0x3de331f4	0.11093512
55	0xbe89b9de	-0.26899618
56	0xbe6cab3d	-0.23112197
57	0xbea9ab32	-0.33138424
58	0x3ee437a8	0.44573712
59	0xbf02fa6f	-0.5116338
60	0xbedba05b	-0.4289578
61	0xbcd65bb6	-0.026166778
62	0x3e64edec	0.22356385
63	0x3c7f595f	0.015585273
64	0xbe5b9b85	-0.21446045
65	0x3e503260	0.20331717
66	0xbe151ffe	-0.14562985
67	0x3d6ca3e8	0.0577735
68	0x3b8fdc12	0.004390248
69	0xbe3b82ca	-0.18311611
70	0x3e85c06c	0.2612337
71	0x3dc7bc64	0.097527295
72	0xbd05561d	-0.032552827
73	0xbe16ee80	-0.14739418
74	0xbea88ca1	-0.3291979
75	0xbf1c8e44	-0.6115458
76	0x3efc25bf	0.49247548
77	0x3ebbce57	0.36680862
78	0x3efca22a	0.4934247
79	0xbf27eb66	-0.65593565
80	0x3e9cadb6	0.3060128
81	0x3e0659ad	0.13120146
82	0x3b737ddb	0.0037153873
83	0xbd9aa6de	-0.07551359
84	0xbe95b126	-0.29236716
85	0x3d62f3e2	0.055408366
86	0x3eb4ea1f	0.3533487
87	0x3e5eb2b2	0.21747854
88	0x3d6c9640	0.057760477
89	0x3fd8b41f	1.6929969
90	0x3ea84665	0.32866207
91	0x3ebf5248	0.37367463
92	0x3eb7b8bd	0.35883132
93	0x3e1b9b23	0.15195899
94	0xbe001452	-0.12507752
95	0xbd93a56e	-0.072092876
96	0xbdb42e0a	-0.08797844
97	0xbec88008	-0.3916018
98	0x3f922fef	1.1420878
99	0xbee0636d	-0.43825856
100	0x3ea43524	0.32071793
101	0xbed18db5	-0.40928426
102	0xbdc88e34	-0.09792748
103	0x3e23a8bb	0.15982334
104	0x3e14c976	0.14529976
105	0x3db39932	0.08769454
106	0xbe34ad55	-0.17644246
107	0xbf357580	-0.70882416
108	0xbe5ec9b1	-0.21756627
109	0x3d3bd131	0.045853797
110	0x3d68b9d5	0.05681785
111	0xbe8ec75a	-0.27886468
112	0x3e157409	0.14595045
113	0xbddb13a9	-0.10697109
114	0x3cfd01b4	0.030884601
115	0x3f41ab61	0.7565213
116	0x3c2619b0	0.01013796
117	0xbd5833dc	-0.052783832
118	0xbd96c157	-0.073610954
119	0x3e7d99e8	0.24765742
120	0x3e300d77	0.17192636
121	0xbd86599d	-0.06560061
122	0x3e803aae	0.2504477
123	0xbd6c356a	-0.057668127
124	0x3e683611	0.22676875
125	0xbec79ba6	-0.38985938
126	0xbf095d0e	-0.53657615
127	0xbf1aa250	-0.6040392
128	0xbe95e723	-0.29277906
129	0xbf383698	-0.71958303
130	0xbf3222f8	-0.6958461
131	0x3de0d333	0.10977783
132	0xbe574714	-0.21023208
133	0xbdbcc795	-0.09217755
134	0xbea43272	-0.32069737
135	0xbf06fbb3	-0.5272781
136	0x3eb83790	0.3597989
137	0x3eb4ff17	0.35350868
138	0xbf0a6afd	-0.540695
139	0xbf8169ff	-1.0110472
140	0xbef018a2	-0.46893793
141	0xbe9454cc	-0.28970945
142	0x3e101f53	0.14074449
143	0xbd27e2ac	-0.040987656
144	0x3e68f685	0.2275029
145	0x3e2ca03d	0.16858001
146	0x3ebe125f	0.3712339
147	0x3e8c2cad	0.27377835
148	0x3c96d008	0.018409744
149	0x3eb9f06c	0.3631624
150	0x3de2da2f	0.110767715
151	0x3e2e20a9	0.17004646
152	0x3e5d16ef	0.2159078
153	0x3df8158c	0.12113485
154	0xbd609ddd	-0.05483805
155	0x3f1a1eca	0.6020323
156	0x3e83bb3b	0.25728783
157	0xbecf480d	-0.40484658
158	0x3db855b8	0.090007246
159	0x3dee06d2	0.116223946

temporal_blocks.1.conv2.weight f4 [8, 8, 1, 5]
0	0xbc3e8c1c	-0.011630084
1	0xbedb5447	-0.42837736
2	0xbd884795	-0.06654278
3	0xbf1c9f78	-0.6118083
4	0xbea5dcab	-0.3239492
5	0x3e974372	0.29543644
6	0x3e3a0126	0.181645
7	0xbcc03077	-0.02346061
8	0x3e95ab34	0.2923218
9	0x3f275497	0.6536345
10	0xbdfb1dc2	-0.12261535
11	0x3e4529f7	0.1925429
12	0x3ea10ddf	0.31455895
13	0x3ede6e0c	0.43443334
14	0x3e005ef3	0.1253622
15	0x3e091586	0.13387117
16	0xbe09c69d	-0.13454671
17	0xbeabcc8d	-0.33554497
18	0xbef29150	-0.4737649
19	0xbf26b982	-0.6512681
20	0x3e514fde	0.20440623
21	0x3ec7df12	0.39037377
22	0x3ec768de	0.38947195
23	0x3f09a332	0.5376464
24	0x3e893f74	0.26806223
25	0xbd95cb37	-0.07314151
26	0x3e823aab	0.25435385
27	0x3da7d74a	0.0819536
28	0x3e43f89c	0.19137806
29	0x3d913c56	0.07091586
30	0xbeba7f8c	-0.36425436
31	0xbef0de6e	-0.470447
32	0xbe8ddc35	-0.27707067
33	0xbeca26b0	-0.3948264
34	0xbe921b4e	-0.28536457
35	0x3d060c33	0.032726478
36	0xbe1ea5ef	-0.15492986
37	0xbe19b6cf	-0.15011142
38	0xbe3fe747	-0.18740569
39	0x3de447dc	0.111465186
40	0x3e2bad70	0.1676538
41	0x3ebf6364	0.37380517
42	0x3eb17243	0.34657487
43	0x3e6a4a16	0.22879824
44	0x3e0f0b12	0.13969067
45	0x3b9515a8	0.0045497008
46	0x3e2a7a3f	0.16648196
47	0xbe8d0ee1	-0.27550414
48	0xbd99c92b	-0.07509073
49	0x3de5718d	0.11203299
50	0x3de8e95a	0.11372633
51	0x3d2bea9c	0.041971788
52	0xbb48090c	-0.003052297
53	0x3e4265d5	0.18984158
54	0xbd355056	-0.044266067
55	0xbe2840dd	-0.16430993
56	0xbe4975a3	-0.19673781
57	0xbe14fc35	-0.14549334
58	0xbe5ddeaf	-0.21666978
59	0xbe189b4e	-0.14902994
60	0xbe18878c	-0.14895457
61	0xbe74b35f	-0.2389655
62	0x3d8e0a3c	0.06935546
63	0xbc85c009	-0.016326921
64	0xbe240377	-0.16016947
65	0xbe1086b3	-0.14113884
66	0x3d8f4536	0.06995623
67	0x3ebf6e82	0.37388998
68	0x3db58dde	0.0886495
69	0x3e3d2e47	0.18474685
70	0x3e4af4b5	0.19819911
71	0xbe140511	-0.14455058
72	0xbde927f9	-0.11384577
73	0xbed8762a	-0.42277652
74	0xbeb2da43	-0.34932145
75	0xbe91ee92	-0.28502327
76	0x3dae7540	0.085184574
77	0x3ee93f35	0.45556036
78	0x3f456358	0.7710471
79	0x3f583259	0.84451824
80	0xbdf7d40e	-0.12100993
81	0xbeb5cfd7	-0.35510132
82	0x3e55cb29	0.2087828
83	0x3df7422f	0.120731704
84	0x3cc9b232	0.024621103
85	0xbf683809	-0.907105
86	0x3df6bff9	0.12048335
87	0x3ef65144	0.48108876
88	0xbe82f645	-0.25578514
89	0xbdb30f05	-0.08743099
90	0xbd5df300	-0.05418682
91	0xbe14f7f7	-0.14547716
92	0xbd95c1ff	-0.073123924
93	0x3dc4fdfd	0.09618757
94	0xbe5a0308	-0.21290219
95	0x3f895eb9	1.0732032
96	0x3ea04bc9	0.3130782
97	0xbe21a368	-0.15784991
98	0x3ea17bd4	0.31539786
99	0x3f04eec6	0.5192684
100	0x3ea061f2	0.31324726
101	0xbd987a35	-0.07445184
102	0x3e0c74cf	0.13716434
103	0x3e1b010a	0.15137115
104	0xbe80867c	-0.25102603
105	0xbf191579	-0.5979839
106	0xbe41b1e7	-0.1891552
107	0x3eedccaf	0.46445224
108	0xbe9ab790	-0.30218172
109	0xbea314e6	-0.31851882
110	0x3f058141	0.5215035
111	0x3dc96b16	0.09834878
112	0xbf4f6f9d	-0.81029683
113	0xbf00bf5d	-0.50292
114	0x3df7525e	0.12076257
115	0xbf0f856e	-0.5606297
116	0x3ea2a5a0	0.31766987
117	0x3f43fbe8	0.76556253
118	0x3e26c2c9	0.16285242
119	0xbdf59d73	-0.11992922
120	0x3f40f1e4	0.75369096
121	0x3e8a4ada	0.27010232
122	0xbd941960	-0.072314024
123	0xbf7499ea	-0.95547354
124	0x3ef0250b	0.46903262
125	0x3eccae12	0.39976555
126	0x3e9b37bf	0.30315968
127	0x3d5746dd	0.052557815
128	0xbec6f875	-0.38861433
129	0xbd360db5	-0.044446666
130	0xbed9b3af	-0.425199
131	0xbe2e78fb	-0.17038338
132	0xbe798a59	-0.24369182
133	0xbe21199b	-0.15732424
134	0xbebb9d09	-0.36643246
135	0xbf353227	-0.7077965
136	0xbdd14528	-0.10218269
137	0x3eae9c84	0.34103787
138	0x3ef5ae17	0.47984383
139	0xbe1479bd	-0.14499564
140	0xbfa5f6a4	-1.2965894
141	0x3e8c9106	0.27454394
142	0xbee5e460	-0.449008
143	0x3d43a44c	0.047764108
144	0xbf353cad	-0.7079571
145	0x3f86b7be	1.0524824
146	0xbe5b318c	-0.2140562
147	0x3ea38554	0.3193766
148	0x3ebeabac	0.3724035
149	0x3e929a2d	0.28633252
150	0xbdcccadf	-0.09999632
151	0xbe0cb272	-0.13739946
152	0x3f24c68c	0.6436546
153	0x3f59902f	0.8498563
154	0x3ea4cf8f	0.32189605
155	0x3f6245c1	0.88387686
156	0xbef867e4	-0.48516762
157	0xbf50466e	-0.8135747
158	0x3de86592	0.11347498
159	0xbdc351d8	-0.09537095
160	0x3e890997	0.2676513
161	0x3ecfc6cc	0.40581357
162	0x3ef0eb2c	0.47054422
163	0x3d89644d	0.06708584
164	0x3edb58fe	0.42841333
165	0x3c632aff	0.013865232
166	0xbe5657a5	-0.20931871
167	0xbe571eaa	-0.21007791
168	0x3d48c2e6	0.049013995
169	0xbe9f6cd6	-0.31137723
170	0x3e0e99ec	0.13925904
171	0x3ecdda45	0.4020559
172	0x3ced4555	0.028963724
173	0x3be3f73d	0.0069569633
174	0x3d825bea	0.063651875
175	0xbddfcdba	-0.10927911
176	0xbe6d86dd	-0.23195978
177	0x38c90d88	9.586947e-05
178	0x3ccc1be7	0.024915649
179	0xbd38344a	-0.04497174
180	0xbf343bb1	-0.7040358
181	0xbe8fbff2	-0.2807613
182	0xbf02d614	-0.5110791
183	0xbea47b2a	-0.32125217
184	0xbf62e0cc	-0.8862426
185	0xbef29ecd	-0.4738678
186	0xbccb9fcc	-0.02485647
187	0xbcbd7073	-0.023124909
188	0xbdb0ea57	-0.08638447
189	0x3ea6af1d	0.32555476
190	0x3ec9b424	0.3939525
191	0x3e3a99a1	0.18222667
192	0x3f18e6d7	0.59727234
193	0x3e811fac	0.25219476
194	0x3eb0c2c6	0.345236
195	0xbe25157f	-0.16121481
196	0xbe84f231	-0.25966027
197	0xbf1cd75b	-0.61266106
198	0xbc6ca42d	-0.014443439
199	0x3dc72408	0.09723669
200	0xbf6ba01e	-0.92041194
201	0xbef002db	-0.4687718
202	0x3bec4304	0.0072101373
203	0xbe0e0ecc	-0.13872832
204	0xbdfc74e0	-0.1232698
205	0x3f393f51	0.7236224
206	0xbf3ab003	-0.7292482
207	0xbf939c5a	-1.153209
208	0xbf212ea2	-0.6296178
209	0x3e010bb0	0.12602115
210	0x3e107c05	0.1410981
211	0x3f036e84	0.5134051
212	0x3efec4e6	0.49759597
213	0x3f147785	0.5799487
214	0x3e784cc6	0.24248037
215	0xbe0729ed	-0.13199587
216	0x3da3d970	0.08000457
217	0x3ddae2ab	0.10687765
218	0xbe4610b0	-0.19342303
219	0xbe5b4aff	-0.21415327
220	0x3ed2528d	0.41078606
221	0x3f1d8f29	0.6154657
222	0x3ef87a8d	0.48531
223	0x3edc6a37	0.43049785
224	0x3f29b5d1	0.66293055
225	0xbea663b7	-0.3249795
226	0xbf4f5532	-0.8098937
227	0xbf60de12	-0.8783885
228	0xbebaa95c	-0.36457336
229	0xbf0b0e10	-0.5431833
230	0xbe715dcf	-0.23570941
231	0xbe6c6706	-0.23086175
232	0x3f2c56b5	0.67319804
233	0x3e35b8f3	0.17746334
234	0x3cd1ebd6	0.02562515
235	0x3e7a6a84	0.24454695
236	0x3f068577	0.525474
237	0xbf558fad	-0.83422357
238	0xbeed581f	-0.46356294
239	0xbfcd0f09	-1.6020213
240	0xbe07766c	-0.13228768
241	0x3e92c942	0.28669173
242	0xbda33c85	-0.079705276
243	0x3f4ce92d	0.800433
244	0xbf17e60b	-0.5933539
245	0xbe1fd7e2	-0.15609697
246	0xbeb03e53	-0.3442255
247	0x3d556528	0.052098423
248	0x3f225553	0.63411444
249	0xbe43bd38	-0.1911515
250	0x3eaecccf	0.34140632
251	0xbdb9e3af	-0.0907663
252	0x3dfa6339	0.122259565
253	0xbf507474	-0.81427693
254	0x3e4de506	0.20106897
255	0x3cf7a65e	0.030230697

temporal_blocks.1.chan_norm1.weight f4 [8]
0	0x3f9c644c	1.2218108
1	0x3f451719	0.7698837
2	0x3f6e2eb2	0.9304
3	0x3f7f5040	0.99731827
4	0x3fbe19b1	1.485159
5	0x3f9249df	1.1428794
6	0x3f57b0d9	0.84254223
7	0x3f90add2	1.1303046

temporal_blocks.1.chan_norm1.bias f4 [8]
0	0x3e881efc	0.2658614
1	0xbeacbbd1	-0.33737043
2	0xbe2b53ba	-0.16731158
3	0x3e0e70c5	0.13910206
4	0xbd86ff74	-0.065916926
5	0xbe8f380f	-0.27972457
6	0x3f27097b	0.6524884
7	0xbed258b6	-0.41083306

temporal_blocks.1.chan_norm2.weight f4 [8]
0	0x3f9c5079	1.2212058
1	0x3fec4fa3	1.8461803
2	0x3facdcfc	1.3504939
3	0x3f8fb7f9	1.1228019
4	0x3f924d97	1.1429929
5	0x3f1e3f1d	0.61815053
6	0x3fe1425e	1.7598379
7	0x3fe08313	1.7540001

temporal_blocks.1.chan_norm2.bias f4 [8]
0	0xbec15681	-0.3776131
1	0x3d2508a1	0.040291432
2	0xbe4198c0	-0.18905926
3	0xbf243822	-0.6414815
4	0xbe2ebfbd	-0.1706533
5	0xbf877cc0	-1.0584946
6	0xbefdf5e3	-0.4960166
7	0x3f17c654	0.59287

temporal_blocks.1.downsample.weight f4 [8, 4, 1, 1]
0	0xbfa94cb7	-1.3226537
1	0xbe8a6f8e	-0.27038234
2	0xbf695aa8	-0.91153955
3	0x3efda349	0.4953864
4	0xbf18ef1e	-0.59739864
5	0xbca896c2	-0.0205797
6	0x3e5e34a1	0.21699764
7	0xbe6cb5ca	-0.23116222
8	0xbeb0fbf7	-0.34567234
9	0x3e0ea679	0.13930692
10	0xbd75c6d4	-0.06000407
11	0xbdc1622d	-0.09442554
12	0xbf0f7965	-0.5604461
13	0xbd9c5143	-0.07632687
14	0xbea704eb	-0.3262094
15	0x3d841651	0.06449569
16	0xbef54e52	-0.47911316
17	0x3d21a976	0.03946825
18	0x3e004551	0.12526442
19	0x3d8e262b	0.06940874
20	0x3dd28b63	0.10280492
21	0x3b3d69ee	0.002890225
22	0xbf431e63	-0.7621824
23	0xbe1afb57	-0.15134941
24	0x3ea7cbf3	0.32772788
25	0xbde26711	-0.110548146
26	0x3e1d59bc	0.15366262
27	0x3e43d06e	0.19122478
28	0xbf4531be	-0.77029026
29	0xbf92235f	-1.1417044
30	0xbe947c29	-0.29000977
31	0x3eba9745	0.36443534

temporal_blocks.1.downsample.bias f4 [8]
0	0x3d29ecf8	0.041485757
1	0x3e87a914	0.26496184
2	0xbd9edc8a	-0.07756908
3	0x3f14298e	0.5787591
4	0xbda3d167	-0.07998925
5	0x3f5ba80b	0.8580329
6	0xba253ea0	-0.00063035823
7	0xbe02faa5	-0.12790926

temporal_blocks.2.conv1.weight f4 [16, 8, 1, 5]
0	0xbc277706	-0.0102212485
1	0xbda0ba72	-0.078480616
2	0x3e71daa7	0.23618565
3	0x3e6cf93e	0.23141953
4	0xbeadcefa	-0.33946973
5	0x3ef3054a	0.47464973
6	0xbe61ab12	-0.22037914
7	0xbd07f223	-0.033189904
8	0x3eb0deae	0.3454489
9	0x3d07ab5d	0.03312241
10	0xbf952e5d	-1.1654774
11	0xbf0987fc	-0.5372312
12	0xbe99bd98	-0.3002746
13	0xbeebab70	-0.46029234
14	0x3df26ed9	0.11837549
15	0x3e6fbb7d	0.23411365
16	0xbf46364f	-0.7742662
17	0x3ebc3dd5	0.36765924
18	0xbea0f23a	-0.31434804
19	0xbe368f7c	-0.17828172
20	0xbf0dd2a1	-0.5539952
21	0x3eab1cdd	0.33420458
22	0xbea748bd	-0.32672682
23	0xbc9e285b	-0.019306352
24	0x3f089eb4	0.5336716
25	0x3f88b5c6	1.0680473
26	0x3e3259e5	0.17417105
27	0x3d76ffed	0.060302664
28	0xbddc33be	-0.107520565
29	0xbf156595	-0.58358127
30	0xbf5ee89d	-0.8707369
31	0xbe884e54	-0.2662226
32	0xbe3caa52	-0.18424347
33	0xbe5b3af2	-0.21409205
34	0x3ea1242f	0.31472918
35	0xbe685f45	-0.22692592
36	0x3f1ca438	0.6118808
37	0x3e895707	0.2682421
38	0x3e6319fc	0.22177881
39	0xbe2b66e6	-0.16738471
40	0x3f20f1be	0.6286887
41	0x3e5dbd67	0.21654283
42	0x3eddc60b	0.43315157
43	0x3ea3397d	0.31879798
44	0x3f50954d	0.81477815
45	0xbf061aa4	-0.523844
46	0xbdf0aa82	-0.11751272
47	0xbeb8a6d6	-0.36064786
48	0x3d687470	0.05675167
49	0x3cb541d3	0.022126114
50	0xbf2e1d7e	-0.6801375
51	0xbed06890	-0.40704775
52	0xbe9e02ad	-0.30861416
53	0xbebdd898	-0.3707931
54	0x3df8479d	0.12123034
55	0xbda78075	-0.08178798
56	0xbeeb5a44	-0.45967305
57	0xbd598ba3	-0.053111684
58	0xbe8f2556	-0.27958173
59	0xbe90d931	-0.28290704
60	0x3ea7b3c4	0.32754338
61	0x3f19e7e1	0.60119444
62	0x3e038edf	0.1284747
63	0x3e008685	0.12551315
64	0xbe4504bc	-0.19240087
65	0x3e5a0695	0.21291573
66	0x3de52c22	0.11190058
67	0x3e8583fe	0.26077265
68	0x3d2968ed	0.04135983
69	0x3d7a23f9	0.061069462
70	0xbf3d7039	-0.73999363
71	0xbf40f145	-0.7536815
72	0xbe9e77ca	-0.30950767
73	0xbe085040	-0.13311863
74	0xbdb1d93d	-0.08684013
75	0xbe79a2ff	-0.24378584
76	0xbd2a5052	-0.041580506
77	0x3e5f7b9e	0.218245
78	0xbf012c1d	-0.50457937
79	0xbebbf2ce	-0.36708683
80	0x3e683d84	0.22679716
81	0x3c9473f6	0.0181217
82	0x3e82cd25	0.25547138
83	0xbed19d22	-0.40940195
84	0xbe6cb270	-0.23114944
85	0xbf1c4e8d	-0.6105736
86	0xbe0688a7	-0.13138066
87	0xbd049917	-0.03237256
88	0x3c8fc05f	0.017547784
89	0x3ede2c82	0.43393332
90	0xbc0f8135	-0.008758833
91	0x3de8826c	0.11353001
92	0x3e89d569	0.26920632
93	0x3e53613d	0.20642562
94	0x3d379cbe	0.044827215
95	0xbf81ee5a	-1.0150864
96	0x3c9c97cf	0.019115357
97	0x3d0afd4e	0.033932976
98	0xbeb404de	-0.35159963
99	0xbd8ccc97	-0.0687496
100	0xbecca541	-0.3996983
101	0x3ec979a9	0.39350632
102	0xbe690a39	-0.22757806
103	0x3d8ed4a5	0.069741525
104	0xbf82d2ee	-1.0220621
105	0xbf0bb75d	-0.54576665
106	0xbec893ab	-0.39175162
107	0xbe80f337	-0.25185558
108	0xbe00bc06	-0.12571725
109	0x3f6650f5	0.8996728
110	0xbfa53a60	-1.290844
111	0xbe4990de	-0.19684169
112	0x3e9023ce	0.28152317
113	0x3eda3338	0.42617202
114	0xbe15c4ba	-0.14625826
115	0x3f04a149	0.518086
116	0xbe80f085	-0.25183502
117	0x3f0ea7c9	0.5572477
118	0xbe6ed5a5	-0.23323686
119	0x3e5ae476	0.21376213
120	0xbd10cc51	-0.0353511
121	0x3e947929	0.28998688
122	0x3e615e99	0.22008742
123	0xbe5d5069	-0.21612705
124	0xbe6b06d0	-0.22951818
125	0x3f07ff97	0.53124374
126	0x3eaa42b3	0.33254012
127	0xbeb198a7	-0.34686777
128	0xbdf8cbbf	-0.121482365
129	0x3e94d8fc	0.29071796
130	0x3e6a423f	0.22876833
131	0x3e789ae7	0.2427784
132	0x3e9e8f70	0.3096881
133	0x3dca7fd8	0.098876655
134	0x3d28eb0e	0.04123979
135	0xbe02f7ca	-0.12789837
136	0x3e350d91	0.17680956
137	0x3e4118c9	0.18857111
138	0x3df07fd5	0.11743132
139	0xbe56aabb	-0.20963566
140	0x3ee0c0f7	0.4389722
141	0xbcf73530	-0.030176729
142	0x3bef125d	0.0072958902
143	0xbd48d2eb	-0.049029272
144	0xbec89a7c	-0.39180362
145	0x3e88cfc5	0.26721016
146	0xbc061c0e	-0.0081854
147	0x3d27a57b	0.0409293
148	0xbe68d3d1	-0.22737052
149	0xbd7a8e29	-0.06117073
150	0xbd689681	-0.056784157
151	0x3e7e196b	0.24814384
152	0x3e95b444	0.29239094
153	0x3d0d3b8f	0.034480628
154	0x3cc333be	0.023828384
155	0xbf26a446	-0.6509441
156	0xbeb3eafb	-0.35140213
157	0xbf2fa617	-0.6861281
158	0x3d9ee480	0.07758427
159	0xbf16962d	-0.588229
160	0xbc64034c	-0.013916802
161	0xbdd7261a	-0.10505314
162	0xbd9f33ef	-0.077735774
163	0xbddcb2a4	-0.107762605
164	0x3e5068e4	0.20352513
165	0xbcf85c9e	-0.0303176
166	0xbedc7db3	-0.4306465
167	0xbd659443	-0.056049597
168	0x3d1dfae9	0.038569365
169	0x3c7c59be	0.015402256
170	0x3e7921f0	0.24329352
171	0xbe6a2748	-0.22866547
172	0x3e24deec	0.16100663
173	0x3e9c629d	0.30543986
174	0xbe334423	-0.17506461
175	0x3e591d02	0.21202472
176	0x3f1030b4	0.56324315
177	0xbe37542d	-0.17903204
178	0xbe57c173	-0.21069889
179	0xbd7db609	-0.06194118
180	0xbf0ac1c8	-0.54201937
181	0xbea174a9	-0.31534317
182	0x3ef52dd0	0.47886515
183	0x3e2326e7	0.15932809
184	0x3db8a017	0.0901491
185	0xbd7eb633	-0.062185477
186	0xbdde9b07	-0.10869413
187	0xbedfbc03	-0.4369813
188	0x3e24e577	0.16103159
189	0x3f0b2eee	0.54368484
190	0xbd7b312f	-0.061326202
191	0x3f019b36	0.5062746
192	0x3d9ff5a5	0.07810525
193	0x3da7becd	0.08190689
194	0xbd3f60b3	-0.04672308
195	0xbde41703	-0.11137202
196	0xbcac0828	-0.020999983
197	0x3e128630	0.14309001
198	0xbf0f0d33	-0.55879515
199	0x3d811524	0.063028604
200	0xbe84f81c	-0.25970542
201	0xbee5f70a	-0.44915038
202	0xbe3c78f6	-0.18405518
203	0x3edebc78	0.43503165
204	0x3f0b76ec	0.54478335
205	0x3e7de0ed	0.24792834
206	0xbd7dbc97	-0.06194743
207	0x3cc0a043	0.023513919
208	0x3d4a8df0	0.04945177
209	0x3e850320	0.25978947
210	0xbed812c7	-0.42201826
211	0xbd1e1097	-0.03859004
212	0x3c5fe71d	0.013665942
213	0xbe050452	-0.1298993
214	0xbdf474c1	-0.119363315
215	0xbf8db71e	-1.1071508
216	0xbf5469b1	-0.8297377
217	0xbee2d366	-0.4430191
218	0xbec81a69	-0.3908265
219	0xbef66d87	-0.48130438
220	0x3e474069	0.19458164
221	0x3e9633a1	0.29336265
222	0x3c6b6c3e	0.014369069
223	0x3e7b0370	0.2451303
224	0x3eaadf44	0.33373463
225	0xbe1665e3	-0.14687304
226	0x3d6c75d9	0.057729576
227	0x3e276a96	0.16349253
228	0x3e88ee32	0.2674423
229	0x3f1329b4	0.5748551
230	0xbf8503df	-1.0391806
231	0x3d034ec4	0.03205754
232	0xbe07b163	-0.13251261
233	0xbe065e8d	-0.13122006
234	0xbdee3bf7	-0.11632531
235	0x3e916006	0.28393573
236	0xbc2568c1	-0.010095776
237	0x3f556cf5	0.8336938
238	0xbe6838c4	-0.22677904
239	0x3ecabff9	0.3959959
240	0xbe881162	-0.26575762
241	0x3e20cab9	0.15702333
242	0x3e25a758	0.16177118
243	0x3dece1f5	0.115665354
244	0x3dc4e3ef	0.096137874
245	0x3d8116c8	0.06303173
246	0x3eebc5e6	0.46049422
247	0x3f13ef45	0.5778697
248	0x3e8a9fed	0.2707514
249	0x3e7ff82e	0.24997017
250	0x3de28c5b	0.11061927
251	0x3ee8a258	0.45436358
252	0xbf0fa4c8	-0.5611081
253	0xbe7bfaa6	-0.24607334
254	0xbdbebd74	-0.09313479
255	0x3e13212f	0.14368127

temporal_blocks.2.conv2.weight f4 [16, 16, 1, 5]
0	0x3ea954f1	0.33072618
1	0xbe193655	-0.14962132
2	0xbe9a80b5	-0.3017632
3	0xbea20609	-0.3164523
4	0xbeb386ac	-0.35063684
5	0xbf01d860	-0.5072079
6	0xbe7316f7	-0.23739229
7	0xbdbf1740	-0.093306065
8	0xbcf736d7	-0.030177517
9	0x3dcf1c92	0.10112871
10	0xbf1fd86f	-0.62439626
11	0xbc1183fc	-0.008881565
12	0x3e119590	0.1421721
13	0x3d9a03c4	0.075202495
14	0xbd1ebe11	-0.03875548
15	0x3f199734	0.5999634
16	0x3f0cd734	0.55015874
17	0x3f9534da	1.1656754
18	0x3f3f5fda	0.7475563
19	0x3f6188ad	0.88099176
20	0xbefcaba3	-0.49349698
21	0x3f11a86c	0.56897616
22	0x3ee3354d	0.44376603
23	0x3e956b5e	0.29183477
24	0x3f037a71	0.51358706
25	0xbf68c097	-0.9091887
26	0x3b9b678e	0.0047425693
27	0xbe940fc3	-0.28918275
28	0xbdff7da8	-0.12475139
29	0x3f5b81c5	0.8574489
30	0x3f8560c3	1.0420154
31	0x3ecbd8de	0.39813894
32	0x3d793d40	0.06084943
33	0xbe8cad95	-0.27476183
34	0xbd8fc16a	-0.07019313
35	0xbe297db5	-0.1655186
36	0xbe80985c	-0.2511624
37	0xbf2addbb	-0.66744584
38	0xbeeec487	-0.46634313
39	0xbe2a6446	-0.16639814
40	0xbedc1d73	-0.42991218
41	0xbeb110a4	-0.34583008
42	0xbe3d2305	-0.1847039
43	0xbf0696c2	-0.5257379
44	0xbf735a5c	-0.9505975
45	0x3ef9325d	0.48671237
46	0x3ee4ec04	0.44711316
47	0xbd6db3bf	-0.058032747
48	0xbdb2b4f9	-0.08725924
49	0x3e0cfffb	0.13769524
50	0x3ed8760e	0.4227757
51	0xbe942178	-0.28931785
52	0x3dfcfa58	0.12352437
53	0x3e21ea9f	0.15812157
54	0xbf0afe1d	-0.54293996
55	0xbd8bfc5f	-0.06835245
56	0x3d87fc17	0.06639879
57	0xbde755b0	-0.112956405
58	0xbd28a544	-0.041173235
59	0x3d5eb70f	0.054373797
60	0xbe2d3535	-0.16914828
61	0xbeb4f2ca	-0.35341483
62	0xbeacaf80	-0.33727646
63	0xbebd9a67	-0.37031862
64	0xbe0fbede	-0.14037654
65	0xbeeee9c6	-0.4666273
66	0xbe0bca2a	-0.13651338
67	0x3cd5e9b3	0.026112413
68	0x3e1bdbf0	0.15220618
69	0x3c884db9	0.016638624
70	0x3ec1327f	0.37733838
71	0x3e98e2e0	0.29860592
72	0xbe2b0b79	-0.16703595
73	0x3e20f7e6	0.15719566
74	0x3ec15476	0.3775975
75	0x3f4fb48b	0.8113486
76	0xbdc6fb93	-0.09715953
77	0x3f061990	0.52382755
78	0x3f35defa	0.7104336
79	0xbe94c47c	-0.29056156
80	0x3ddbcd6e	0.10732542
81	0x3cdad326	0.026712012
82	0x3c9f19ec	0.01942154
83	0x3e94d51f	0.29068848
84	0x3eb87c4f	0.3603234
85	0x3d95da19	0.073169895
86	0xbe159932	-0.1460922
87	0x3e787638	0.24263847
88	0x3d3e37f5	0.046440084
89	0x3f3a2081	0.7270585
90	0x3ed07976	0.40717667
91	0x3d51e760	0.051246047
92	0xbf04593f	-0.5169868
93	0xbe987ad4	-0.2978121
94	0x3d28d3ed	0.041217733
95	0x3e877f14	0.2646414
96	0xbf19dab0	-0.60099316
97	0xbe8cabef	-0.27474925
98	0x3dbe00e8	0.092775166
99	0x3f0c07a4	0.5469916
100	0x3e69d04b	0.22833364
101	0xbc06696e	-0.008203847
102	0xbe047eec	-0.12939042
103	0xbe0cf4af	-0.13765214
104	0x3e48ca27	0.19608365
105	0xbd5a1dbf	-0.053251024
106	0xbf465c0d	-0.7748421
107	0xbed8f2d3	-0.4237276
108	0xbe508a91	-0.20365359
109	0x3e89d1af	0.26917788
110	0xbd4b63e1	-0.0496558
111	0xbe8089d1	-0.25105146
112	0xbe897392	-0.26845986
113	0xbdcf0323	-0.1010802
114	0x3fbdc856	1.4826763
115	0xbeb46f9f	-0.3524141
116	0xbe4b0b70	-0.19828582
117	0x3ca0636f	0.019578664
118	0x3e830079	0.25586298
119	0x3e1353d9	0.14387454
120	0x3e51d3cf	0.20490955
121	0x3e723372	0.23652437
122	0xbeb1a25c	-0.34694183
123	0xbf05a8d1	-0.5221072
124	0xbd3ec545	-0.04657485
125	0xbf8444cf	-1.0333499
126	0x3eddb01b	0.4329842
127	0x3ec82ca1	0.3909655
128	0x3d11a572	0.03555817
129	0xbf976e9a	-1.1830628
130	0xbf3f0552	-0.74617493
131	0x3dede8cb	0.11616667
132	0x3e126d41	0.1429949
133	0x3f198f42	0.5998422
134	0xbe6d4362	-0.23170236
135	0x3f1717ad	0.590205
136	0xbeb57b0d	-0.35445443
137	0x3ccfbf09	0.025359647
138	0x3f9d5da5	1.2294203
139	0xbec8e97c	-0.39240634
140	0xbecff9cb	-0.40620264
141	0x3e2a8e47	0.16655837
142	0x3dd4a6e1	0.10383392
143	0xbe5eb086	-0.21747026
144	0x3ef8ba55	0.4857966
145	0x3ef8f2ab	0.4862264
146	0x3ecb79cf	0.3974137
147	0x3e45f997	0.19333492
148	0xbf37b886	-0.71765935
149	0xbe2e90de	-0.1704745
150	0x3ece7c89	0.40329388
151	0xbeaab521	-0.33341315
152	0x3e6e9800	0.23300171
153	0xbeff0120	-0.49805546
154	0xbf5e2862	-0.8678037
155	0xbecda1bb	-0.40162453
156	0x3f36437c	0.71196723
157	0x3ec8aed4	0.39195883
158	0xbe059920	-0.13046694
159	0xbe85cd4e	-0.26133198
160	0x3f22edce	0.6364411
161	0xbf13162f	-0.57455724
162	0x3e095088	0.13409626
163	0xbb470c54	-0.0030372338
164	0x3e40f98f	0.18845199
165	0xbe6c9650	-0.23104215
166	0x3c1b5172	0.009479867
167	0x3e757896	0.23971781
168	0x3d82a327	0.06378775
169	0xbde27e0a	-0.11059196
170	0xbc6d3104	-0.014477018
171	0x3e8aade1	0.27085784
172	0x3ebc4af2	0.3677593
173	0x3f061929	0.5238214
174	0x3dab101c	0.08352682
175	0xbecff732	-0.40618283
176	0xbc66c7b2	-0.014085697
177	0xbe8569ed	-0.26057377
178	0x3e2fa9aa	0.17154565
179	0xbeff1bd0	-0.49825907
180	0x3eff6e17	0.4988868
181	0x3e36c303	0.17847829
182	0xbe0ed7de	-0.13949534
183	0xbec112b2	-0.37709576
184	0xbdd13a50	-0.102162
185	0xbe16a5e8	-0.14711726
186	0xbe1d183a	-0.15341273
187	0x3dd89f82	0.10577299
188	0xbe855b50	-0.26046228
189	0xbb572806	-0.0032830252
190	0xbf860685	-1.047074
191	0xbefbd4ce	-0.49185795
192	0xbf36c173	-0.7138893
193	0xbf214576	-0.62996614
194	0x3df1927f	0.1179552
195	0x3f54e908	0.8316808
196	0x3eef83a2	0.46780115
197	0x3f587aeb	0.8456256
198	0x3f3e1fb2	0.74267113
199	0x3f307ec3	0.68943423
200	0x3eca020b	0.39454684
201	0x3f5e0491	0.8672572
202	0x3f3675a5	0.7127326
203	0x3f0dd2a2	0.55399525
204	0x3f44dbab	0.76897687
205	0xbf7282d4	-0.9473088
206	0xbf0368be	-0.513317
207	0xbf43a1db	-0.76418847
208	0xbf47b89c	-0.78016067
209	0xbeaace8a	-0.33360702
210	0xbf1b11a0	-0.6057377
211	0xbd53740c	-0.051624343
212	0xbefbfc8b	-0.49216112
213	0xbe0628a2	-0.13101438
214	0xbdddb7de	-0.108260855
215	0x3e0b2e18	0.13591802
216	0x3e911f6e	0.2834429
217	0x3c33e1e0	0.010979146
218	0x3e74f2c3	0.23920731
219	0xbd84c8e9	-0.06483633
220	0x3f3f08fe	0.74623096
221	0x3f7df463	0.9920103
222	0x3f4d4115	0.8017743
223	0x3f774278	0.965858
224	0x3efeef02	0.49791723
225	0x3edffb6c	0.43746507
226	0xbd2a5951	-0.041589085
227	0x3ef89b73	0.48556098
228	0x3dbefdef	0.09325778
229	0xbe2a6774	-0.16641027
230	0x3e82c7f3	0.25543174
231	0xbedb6837	-0.42852947
232	0xbe9652b1	-0.29359964
233	0xbf395ef3	-0.72410506
234	0xbda3ca74	-0.07997599
235	0x3d965699	0.07340736
236	0x3df055ef	0.117351405
237	0xbe85ba33	-0.2611862
238	0xbc9bf986	-0.01903988
239	0xbd92e841	-0.07173205
240	0x3e741c3e	0.23838899
241	0x3e25e743	0.162015
242	0xbca59fc1	-0.020217778
243	0xbe39eb87	-0.18156253
244	0xbead1461	-0.3380461
245	0xbe388812	-0.18020657
246	0x3f2efa2d	0.6835049
247	0x3f419c76	0.75629365
248	0xbd163d15	-0.036679346
249	0xbecfabaf	-0.40560672
250	0xbee91b3c	-0.4552859
251	0xbeb3bdef	-0.35105845
252	0xbf1145aa	-0.56746924
253	0xbea16694	-0.31523573
254	0x3f398593	0.72469443
255	0xbe82dc6b	-0.2555879

temporal_blocks.2.chan_norm1.weight f4 [16]
0	0x3f782da1	0.96944624
1	0x3f4d52ea	0.8020464
2	0x3f26effa	0.65209925
3	0x3f99aeca	1.2006466
4	0x3f93ccaa	1.1546834
5	0x3faad831	1.3347226
6	0x3f65e1c8	0.8979764
7	0x3f4fa914	0.8111737
8	0x3f9bcbcc	1.2171569
9	0x3fa121bf	1.2588423
10	0x3f2c8a22	0.67398274
11	0x3f87dbd4	1.0613961
12	0x3f341c15	0.7035535
13	0x3f983b91	1.1893178
14	0x3f814955	1.0100504
15	0x3f59de36	0.8510469

temporal_blocks.2.chan_norm1.bias f4 [16]
0	0x3e7b30b7	0.24530302
1	0x3ddb277c	0.107008904
2	0x3f075a69	0.5287233
3	0xbedd2899	-0.43195036
4	0xbdb34f27	-0.087553315
5	0x3ed729df	0.42024133
6	0xbf3e052f	-0.7422666
7	0x3f47118f	0.7776117
8	0x3e980bca	0.29696494
9	0xbf34a20c	-0.70559764
10	0xbf2d540d	-0.67706376
11	0xbe7408dc	-0.23831505
12	0x3f1bb7c6	0.6082729
13	0xbde49f1f	-0.111631624
14	0xbf06ce44	-0.52658486
15	0x3eb5ab7a	0.3548239

temporal_blocks.2.chan_norm2.weight f4 [16]
0	0x4096c8e7	4.712024
1	0x4071ce0d	3.7782013
2	0x3fcbe862	1.5930293
3	0x40873242	4.224885
4	0x407125e0	3.7679367
5	0x4070a989	3.7603476
6	0x408640dd	4.195418
7	0x4080038a	4.000432
8	0x405cfd01	3.4529421
9	0x4089cb3a	4.306058
10	0x407128ed	3.768123
11	0x40456ff4	3.084958
12	0x3fe6f919	1.8044769
13	0x4041506a	3.020533
14	0x4080f1c7	4.029514
15	0x404535f3	3.0814178

temporal_blocks.2.chan_norm2.bias f4 [16]
0	0xbe3801c3	-0.17969422
1	0xbc43911f	-0.011936455
2	0xbcb37a1d	-0.021908814
3	0xbd9abdeb	-0.07555755
4	0x3e067af5	0.13132842
5	0x3e6844b3	0.22682457
6	0xbe2c5620	-0.16829729
7	0x3ea58a99	0.32332304
8	0x3deb9904	0.11503795
9	0x3f129b35	0.5726808
10	0x3ea1f919	0.3163536
11	0x3eb779b0	0.35835028
12	0x3ed20945	0.41022697
13	0x3e0318d2	0.12802437
14	0x3e223416	0.15840182
15	0x3db35c58	0.087578475

temporal_blocks.2.downsample.weight f4 [16, 8, 1, 1]
0	0x3ed01228	0.40638852
1	0xbea5db4c	-0.32393873
2	0x3f86002c	1.0468802
3	0x3eb68e3f	0.356554
4	0x3e87d96e	0.26533073
5	0xbd84c604	-0.06483081
6	0x3f7b4b3b	0.9816167
7	0xbf8b85c7	-1.0900201
8	0xbde1d244	-0.11026433
9	0xbf2993d8	-0.66241217
10	0xc0465a7c	-3.0992727
11	0x3f3ea72e	0.74473846
12	0xbf82d223	-1.0220379
13	0xbeaf05b0	-0.34184027
14	0x3b568959	0.0032735674
15	0xbfcea866	-1.6145141
16	0x3ee9d87e	0.45672983
17	0x3e11e2f1	0.14246728
18	0xbe5a0265	-0.21289976
19	0xbee25050	-0.442019
20	0xbe8be943	-0.27326402
21	0xbfc39ba3	-1.5281872
22	0xbf385cc5	-0.72016555
23	0x3eb55e80	0.3542366
24	0xbf3963ac	-0.7241771
25	0xbd37f1cd	-0.044908334
26	0xc03ad486	-2.9192214
27	0xbfd08878	-1.6291647
28	0xbeb804bb	-0.3594111
29	0xbe8c626e	-0.27418846
30	0x3efc1d81	0.4924126
31	0x3e159941	0.14609243
32	0x3e12f1d3	0.14350061
33	0xbebbd45e	-0.3668546
34	0x3f39042d	0.72271997
35	0x3f1a0156	0.6015829
36	0x3eaaaad2	0.3333345
37	0x3ea7106c	0.32629716
38	0xbf0f5e0c	-0.5600288
39	0xc0210849	-2.5161307
40	0xbf8aa7bc	-1.0832438
41	0x3ec6683c	0.387514
42	0xbe9a9773	-0.30193672
43	0xbe384e11	-0.1799853
44	0xbe1b215d	-0.15149446
45	0xbe6a1b87	-0.22862063
46	0xbdcb6613	-0.099315785
47	0x3edce41f	0.43142793
48	0x3e9d882b	0.3076795
49	0x3f899418	1.074832
50	0xbe97a475	-0.29617658
51	0xbdfdb3c4	-0.12387803
52	0x3efccafc	0.49373615
53	0xbe554f75	-0.20831092
54	0xbeb6597c	-0.35615146
55	0x3f546529	0.8296686
56	0xbe4697db	-0.19393866
57	0xbe503c71	-0.20335557
58	0xbe60a5a8	-0.21938193
59	0x3f2e3ec3	0.68064517
60	0xbf2cc33b	-0.674854
61	0xbd87affd	-0.06625364
62	0x3f34d156	0.7063192
63	0xbec4d8ee	-0.38446754
64	0xbf8aeb9d	-1.0853153
65	0xbf35663b	-0.70859116
66	0xbf0adab2	-0.5423995
67	0x3f40c1c6	0.75295675
68	0xbd89930e	-0.067175016
69	0x3d57e249	0.052706037
70	0xbe32b7e4	-0.17452961
71	0xbf0ef0bb	-0.55836076
72	0xbd2889fd	-0.04114722
73	0xbf8304a9	-1.0235797
74	0x3ffcc5e5	1.9747893
75	0xbf20caa5	-0.6280921
76	0xc05c3c4a	-3.4411798
77	0xc0331ee3	-2.7987602
78	0x3f482113	0.7817547
79	0x3f5feb8f	0.8746881
80	0xbfe34c6c	-1.7757697
81	0xbeb10650	-0.3457513
82	0xbd8abcc2	-0.06774284
83	0x3e78dbed	0.24302645
84	0x3e0ce489	0.13759054
85	0xbe347df6	-0.17626175
86	0xbe23aa52	-0.15982941
87	0x3f23c238	0.6396823
88	0xbf0f51ec	-0.5598438
89	0x3ed8a4c6	0.42313212
90	0x3cba3623	0.022730893
91	0xbe953444	-0.29141438
92	0x3e20ad39	0.15691079
93	0xbb8f77e2	-0.004378305
94	0xbe3834ad	-0.17988844
95	0xbeca4ed0	-0.39513254
96	0xc01819fd	-2.3765862
97	0xbfed9311	-1.8560506
98	0xbeb782bc	-0.3584193
99	0xc00165bb	-2.0218341
100	0x3d0f7ec9	0.03503302
101	0x3e24400b	0.16040055
102	0xbffa5f9b	-1.9560426
103	0xc04be474	-3.1858187
104	0x3e897b49	0.26851872
105	0x3f6dcf44	0.9289439
106	0xbbcaf0ef	-0.0061932723
107	0xbed2dbc1	-0.41183284
108	0x3e6e47e5	0.23269613
109	0x3d5338ad	0.051567722
110	0xbe97bddd	-0.29637042
111	0xbe26ab1b	-0.16276209
112	0xbf19597b	-0.5990216
113	0xbe44a05f	-0.19201802
114	0x3f834a05	1.0256964
115	0x3dd32614	0.10309997
116	0xbf0af6ac	-0.5428264
117	0xbf8c5cf5	-1.0965868
118	0x3f41830c	0.75590587
119	0xbea1f3b2	-0.31631237
120	0xbfd14a89	-1.6350871
121	0xbfa17885	-1.2614905
122	0x3f818a98	1.012042
123	0x3ea87dc7	0.3290846
124	0x3edff4ef	0.43741557
125	0xbd9c547c	-0.076333016
126	0x3f7e47a4	0.99328065
127	0xbfd009dc	-1.6253009

temporal_blocks.2.downsample.bias f4 [16]
0	0xbe8b4456	-0.27200574
1	0x3d1b26e8	0.0378789
2	0xbf08764f	-0.53305525
3	0x3e00c8b0	0.12576556
4	0xbef1efc5	-0.47253242
5	0x3ec3e2e8	0.38259053
6	0xbef5ea47	-0.48030302
7	0x3e2bd52b	0.16780536
8	0x3cc9a667	0.02461548
9	0xbf37f4f1	-0.71858126
10	0xbe150ed2	-0.14556435
11	0x3e962d94	0.29331648
12	0x3e11d90d	0.14242955
13	0x3ed3313f	0.4124851
14	0xbe8743df	-0.2641897
15	0xbf0eba22	-0.55752766

fc.weight f4 [5, 16]
0	0x3f54fda3	0.8319952
1	0x3edd821a	0.43263322
2	0x3e428e38	0.18999565
3	0xbe57ece8	-0.21086466
4	0x3d122495	0.03567942
5	0xbfb28527	-1.3946885
6	0x3f98e815	1.1945826
7	0x3f08a244	0.533726
8	0x3f7b4511	0.9815226
9	0x403ac92d	2.9185288
10	0xbf2023b7	-0.62554497
11	0xbf8be994	-1.0930657
12	0x3f0821c4	0.5317652
13	0xbfc7116a	-1.5552189
14	0xc011cb69	-2.2780402
15	0x3f969f18	1.1767302
16	0x3fe3f4c1	1.7809068
17	0x3e045494	0.12922889
18	0x3e761470	0.24031234
19	0x3ebfc14c	0.3745216
20	0x3e116fbc	0.1420278
21	0xbe94a680	-0.2903328
22	0xbfecce98	-1.8500547
23	0x3fdc6f38	1.7221441
24	0x3e3494ba	0.1763486
25	0xc03ad20d	-2.9190705
26	0xc0141024	-2.3134851
27	0xbf88a465	-1.0675169
28	0xbf8cc66c	-1.0998054
29	0xbe2fa4b0	-0.17152667
30	0x401f065b	2.484763
31	0x3f8e92c1	1.1138536
32	0xbfc2c050	-1.5214939
33	0xc00cbc4c	-2.1989927
34	0xbf660ef7	-0.89866585
35	0x4003575b	2.0522068
36	0xbfddde63	-1.7333492
37	0x3fc0d5df	1.5065268
38	0x3fe1e107	1.7646798
39	0xbf740162	-0.9531461
40	0xbff48b4d	-1.9105011
41	0xbff0623d	-1.877998
42	0x3f16b966	0.58876646
43	0x3ecce8e6	0.40021437
44	0x3f324145	0.69630843
45	0x3ee3b4f7	0.44474003
46	0x3e811ff5	0.25219694
47	0x3e706a7e	0.23478124
48	0xbfc861d9	-1.5654861
49	0x401292b3	2.2902038
50	0x3ef45e4c	0.47728193
51	0xbe5ddd91	-0.21666552
52	0xbf16ad42	-0.5885812
53	0x3f7480c3	0.95508975
54	0xbfd48195	-1.6602045
55	0x3f448ed3	0.7678043
56	0x3f5397e4	0.8265364
57	0xbd68fb9b	-0.056880575
58	0x3fef2319	1.8682586
59	0x3fa2af9e	1.2709844
60	0xbf009fa0	-0.5024357
61	0xbf0ff322	-0.56230366
62	0xbfaa5bdf	-1.3309287
63	0xc009d328	-2.153513
64	0xbf770c31	-0.9650298
65	0xbe7ab072	-0.24481371
66	0xbe376870	-0.17910933
67	0xc0137a33	-2.3043334
68	0x3ff461c5	1.9092337
69	0xbf7279c6	-0.9471706
70	0x3ed24f41	0.4107609
71	0xc010594d	-2.2554505
72	0xbdf6e53f	-0.12055444
73	0x3fcdc500	1.6075745
74	0xbdd2cbcc	-0.102927774
75	0x3f46245e	0.7739924
76	0x3de578ca	0.11204679
77	0x3f9c5e54	1.2216287
78	0x3f4f5fb5	0.8100541
79	0xbf2d7982	-0.6776353

fc.bias f4 [5]
0	0xbea5ecf3	-0.3240734
1	0x3e4e237d	0.20130725
2	0x3b9142b7	0.004433002
3	0xbe214cf4	-0.15752012
4	0x3e84d71a	0.2594536

onnx::Abs_543 f4 [20]
0	0x3b63e120	0.0034771636
1	0xbeee6651	-0.46562436
2	0xbf3cae86	-0.737038
3	0xbe85ffa9	-0.26171616
4	0x3f5d72ac	0.865031
5	0x3f295eea	0.6616045
6	0xbd0b79a1	-0.03405154
7	0xbe25ce7d	-0.1619205
8	0x3d099f50	0.033599198
9	0xbf569688	-0.8382344
10	0xbf5b2d53	-0.85616034
11	0xbe8aeed7	-0.27135345
12	0x3eb92613	0.3616186
13	0x3e9fa32b	0.31179175
14	0x3dd87462	0.10569073
15	0xbf2ee9f3	-0.6832573
16	0xbccbbec3	-0.024871236
17	0x3f4abbea	0.79192984
18	0x3eb880c0	0.36035728
19	0xbddfd401	-0.109291084

onnx::Abs_545 f4 [80]
0	0xbe12d960	-0.14340734
1	0x3e467e96	0.19384226
2	0x3e714b7e	0.23563954
3	0x3e27ea0d	0.16397877
4	0x3da06af3	0.07832899
5	0xbecfbd36	-0.40574044
6	0xbe488f0d	-0.1958582
7	0xbe2cd47c	-0.16877931
8	0xbdc40d7b	-0.09572884
9	0xbec29dd0	-0.38011026
10	0x3ea268dd	0.3172063
11	0xbd5a5819	-0.053306673
12	0xbec35614	-0.3815161
13	0xbe99a744	-0.30010426
14	0xbbf9b44c	-0.00762037
15	0xbc02f6b8	-0.007993393
16	0xbe14e2bb	-0.14539616
17	0xbe6dcd72	-0.23222902
18	0xbd87b789	-0.066268034
19	0xbe40da28	-0.1883322
20	0x3be23e61	0.006904409
21	0xbf35b1c4	-0.70974374
22	0xbfb60340	-1.4219742
23	0xbf0ab0a2	-0.5417577
24	0x3d2d911b	0.04237471
25	0x3e89602c	0.26831186
26	0x3e791e9e	0.24328086
27	0x3e579294	0.21052009
28	0x3e855cd4	0.26047385
29	0x3f030101	0.51173407
30	0xbf41a69d	-0.75644857
31	0x3d792f28	0.060835987
32	0xbdd323ac	-0.10309538
33	0x3c090a91	0.008364336
34	0xbf03fab1	-0.515544
35	0x3e578a3c	0.21048826
36	0x3f2a9c53	0.6664478
37	0x3f1cd36b	0.612601
38	0x3e04e1bc	0.12976736
39	0xbe660af7	-0.2246512
40	0xbd915620	-0.07096505
41	0x3ebcea83	0.36897668
42	0x3f08bd58	0.53413916
43	0x3ee485cc	0.4463333
44	0x3ccc5748	0.024943963
45	0xbea75aff	-0.32686612
46	0xbefc5292	-0.49281746
47	0xbf30d155	-0.69069415
48	0xbf16189e	-0.5863131
49	0xbf87e8f7	-1.061797
50	0x3f33c11f	0.70216554
51	0x3f1b0033	0.6054718
52	0x3f63a3ff	0.88922113
53	0x3f065fab	0.5248973
54	0x3f742a5e	0.9537715
55	0xbdbf72d1	-0.09348071
56	0xbd6ef50e	-0.05833917
57	0xbec9e764	-0.3943435
58	0x3d8d1062	0.068878904
59	0x3f055766	0.52086484
60	0x3e116bde	0.14201304
61	0x3ed5a877	0.4173009
62	0x3dd71240	0.10501528
63	0xbec8aa71	-0.39192536
64	0xbf16d116	-0.5891279
65	0x3f77576e	0.9661778
66	0x3efb13b6	0.49038476
67	0x3e2bca90	0.1677649
68	0x3f28bf74	0.65917134
69	0x3f9b6390	1.2139759
70	0xbf4351a4	-0.7629645
71	0xbee0142e	-0.43765396
72	0xbe5224fe	-0.20521924
73	0xbe61545d	-0.22004838
74	0xbed48fef	-0.41516063
75	0xbf0bb584	-0.54573846
76	0xbed03a87	-0.40669653
77	0xbe0ed718	-0.13949239
78	0xbde8c986	-0.113665625
79	0xbea9d816	-0.33172673

onnx::Abs_547 f4 [4]
0	0x3f03c9b0	0.51479626
1	0xbe74f4fc	-0.23921579
2	0xbd272194	-0.040803507
3	0x3fbc6643	1.4718708

onnx::Abs_560 f4 [160]
0	0xbe99a79a	-0.30010682
1	0xbd2a7184	-0.041612163
2	0xbe813912	-0.25238854
3	0xbe074adb	-0.13212149
4	0x3e295b9b	0.16538851
5	0xbe42d505	-0.19026573
6	0x3e2d16a2	0.16903165
7	0xbf2ecb77	-0.6827921
8	0xbdf6c222	-0.12048747
9	0xbf3bffe2	-0.7343732
10	0xbe67b2a5	-0.22626741
11	0x3d6a8d30	0.057263553
12	0x3e9a65e3	0.30155858
13	0x3e9c9a22	0.30586344
14	0x3df9376a	0.121687725
15	0x3e8e1344	0.27749074
16	0xbd7daa49	-0.061929975
17	0x3ecaba48	0.39595246
18	0xbf28b286	-0.65897405
19	0x3f4e9070	0.80689144
20	0x3f032c0b	0.5123908
21	0x3d1a89fc	0.03772925
22	0xbedea9fa	-0.43489057
23	0xbec071ac	-0.37586725
24	0xbe113156	-0.14178976
25	0x3e771660	0.24129629
26	0xbe9d92a3	-0.30775937
27	0xbdf839f4	-0.12120429
28	0x3f49a410	0.78765965
29	0xbed0ee57	-0.4080684
30	0xbe13b8bd	-0.14425941
31	0x3defe0d4	0.117128044
32	0xbe8cab80	-0.27474594
33	0xbeefc0b4	-0.46826708
34	0x3e900aa9	0.28133133
35	0x3f0d3106	0.5515293
36	0xbe3f9c7c	-0.18712038
37	0xbc6ef1ca	-0.014584014
38	0xbf245c66	-0.6420349
39	0x3fe17944	1.7615132
40	0xbd035569	-0.032063875
41	0x3f028e93	0.509988
42	0x3e41fa89	0.18943228
43	0x3e988294	0.29787123
44	0x3ee09818	0.43866038
45	0xbdd99c2c	-0.106254905
46	0xbd5a0c62	-0.053234465
47	0x3f94ef11	1.1635457
48	0x3f0e983c	0.5570104
49	0x3fd43743	1.6579365
50	0x3e65f21c	0.22455639
51	0x3e4d76ad	0.20064802
52	0xbf47cd1a	-0.78047335
53	0xbe6ea8dd	-0.23306604
54	0x3de331f4	0.11093512
55	0xbe89b9de	-0.26899618
56	0xbe6cab3d	-0.23112197
57	0xbea9ab32	-0.33138424
58	0x3ee437a8	0.44573712
59	0xbf02fa6f	-0.5116338
60	0xbedba05b	-0.4289578
61	0xbcd65bb6	-0.026166778
62	0x3e64edec	0.22356385
63	0x3c7f595f	0.015585273
64	0xbe5b9b85	-0.21446045
65	0x3e503260	0.20331717
66	0xbe151ffe	-0.14562985
67	0x3d6ca3e8	0.0577735
68	0x3b8fdc12	0.004390248
69	0xbe3b82ca	-0.18311611
70	0x3e85c06c	0.2612337
71	0x3dc7bc64	0.097527295
72	0xbd05561d	-0.032552827
73	0xbe16ee80	-0.14739418
74	0xbea88ca1	-0.3291979
75	0xbf1c8e44	-0.6115458
76	0x3efc25bf	0.49247548
77	0x3ebbce57	0.36680862
78	0x3efca22a	0.4934247
79	0xbf27eb66	-0.65593565
80	0x3e9cadb6	0.3060128
81	0x3e0659ad	0.13120146
82	0x3b737ddb	0.0037153873
83	0xbd9aa6de	-0.07551359
84	0xbe95b126	-0.29236716
85	0x3d62f3e2	0.055408366
86	0x3eb4ea1f	0.3533487
87	0x3e5eb2b2	0.21747854
88	0x3d6c9640	0.057760477
89	0x3fd8b41f	1.6929969
90	0x3ea84665	0.32866207
91	0x3ebf5248	0.37367463
92	0x3eb7b8bd	0.35883132
93	0x3e1b9b23	0.15195899
94	0xbe001452	-0.12507752
95	0xbd93a56e	-0.072092876
96	0xbdb42e0a	-0.08797844
97	0xbec88008	-0.3916018
98	0x3f922fef	1.1420878
99	0xbee0636d	-0.43825856
100	0x3ea43524	0.32071793
101	0xbed18db5	-0.40928426
102	0xbdc88e34	-0.09792748
103	0x3e23a8bb	0.15982334
104	0x3e14c976	0.14529976
105	0x3db39932	0.08769454
106	0xbe34ad55	-0.17644246
107	0xbf357580	-0.70882416
108	0xbe5ec9b1	-0.21756627
109	0x3d3bd131	0.045853797
110	0x3d68b9d5	0.05681785
111	0xbe8ec75a	-0.27886468
112	0x3e157409	0.14595045
113	0xbddb13a9	-0.10697109
114	0x3cfd01b4	0.030884601
115	0x3f41ab61	0.7565213
116	0x3c2619b0	0.01013796
117	0xbd5833dc	-0.052783832
118	0xbd96c157	-0.073610954
119	0x3e7d99e8	0.24765742
120	0x3e300d77	0.17192636
121	0xbd86599d	-0.06560061
122	0x3e803aae	0.2504477
123	0xbd6c356a	-0.057668127
124	0x3e683611	0.22676875
125	0xbec79ba6	-0.38985938
126	0xbf095d0e	-0.53657615
127	0xbf1aa250	-0.6040392
128	0xbe95e723	-0.29277906
129	0xbf383698	-0.71958303
130	0xbf3222f8	-0.6958461
131	0x3de0d333	0.10977783
132	0xbe574714	-0.21023208
133	0xbdbcc795	-0.09217755
134	0xbea43272	-0.32069737
135	0xbf06fbb3	-0.5272781
136	0x3eb83790	0.3597989
137	0x3eb4ff17	0.35350868
138	0xbf0a6afd	-0.540695
139	0xbf8169ff	-1.0110472
140	0xbef018a2	-0.46893793
141	0xbe9454cc	-0.28970945
142	0x3e101f53	0.14074449
143	0xbd27e2ac	-0.040987656
144	0x3e68f685	0.2275029
145	0x3e2ca03d	0.16858001
146	0x3ebe125f	0.3712339
147	0x3e8c2cad	0.27377835
148	0x3c96d008	0.018409744
149	0x3eb9f06c	0.3631624
150	0x3de2da2f	0.110767715
151	0x3e2e20a9	0.17004646
152	0x3e5d16ef	0.2159078
153	0x3df8158c	0.12113485
154	0xbd609ddd	-0.05483805
155	0x3f1a1eca	0.6020323
156	0x3e83bb3b	0.25728783
157	0xbecf480d	-0.40484658
158	0x3db855b8	0.090007246
159	0x3dee06d2	0.116223946

onnx::Abs_562 f4 [320]
0	0xbc3e8c1c	-0.011630084
1	0xbedb5447	-0.42837736
2	0xbd884795	-0.06654278
3	0xbf1c9f78	-0.6118083
4	0xbea5dcab	-0.3239492
5	0x3e974372	0.29543644
6	0x3e3a0126	0.181645
7	0xbcc03077	-0.02346061
8	0x3e95ab34	0.2923218
9	0x3f275497	0.6536345
10	0xbdfb1dc2	-0.12261535
11	0x3e4529f7	0.1925429
12	0x3ea10ddf	0.31455895
13	0x3ede6e0c	0.43443334
14	0x3e005ef3	0.1253622
15	0x3e091586	0.13387117
16	0xbe09c69d	-0.13454671
17	0xbeabcc8d	-0.33554497
18	0xbef29150	-0.4737649
19	0xbf26b982	-0.6512681
20	0x3e514fde	0.20440623
21	0x3ec7df12	0.39037377
22	0x3ec768de	0.38947195
23	0x3f09a332	0.5376464
24	0x3e893f74	0.26806223
25	0xbd95cb37	-0.07314151
26	0x3e823aab	0.25435385
27	0x3da7d74a	0.0819536
28	0x3e43f89c	0.19137806
29	0x3d913c56	0.07091586
30	0xbeba7f8c	-0.36425436
31	0xbef0de6e	-0.470447
32	0xbe8ddc35	-0.27707067
33	0xbeca26b0	-0.3948264
34	0xbe921b4e	-0.28536457
35	0x3d060c33	0.032726478
36	0xbe1ea5ef	-0.15492986
37	0xbe19b6cf	-0.15011142
38	0xbe3fe747	-0.18740569
39	0x3de447dc	0.111465186
40	0x3e2bad70	0.1676538
41	0x3ebf6364	0.37380517
42	0x3eb17243	0.34657487
43	0x3e6a4a16	0.22879824
44	0x3e0f0b12	0.13969067
45	0x3b9515a8	0.0045497008
46	0x3e2a7a3f	0.16648196
47	0xbe8d0ee1	-0.27550414
48	0xbd99c92b	-0.07509073
49	0x3de5718d	0.11203299
50	0x3de8e95a	0.11372633
51	0x3d2bea9c	0.041971788
52	0xbb48090c	-0.003052297
53	0x3e4265d5	0.18984158
54	0xbd355056	-0.044266067
55	0xbe2840dd	-0.16430993
56	0xbe4975a3	-0.19673781
57	0xbe14fc35	-0.14549334
58	0xbe5ddeaf	-0.21666978
59	0xbe189b4e	-0.14902994
60	0xbe18878c	-0.14895457
61	0xbe74b35f	-0.2389655
62	0x3d8e0a3c	0.06935546
63	0xbc85c009	-0.016326921
64	0xbe240377	-0.16016947
65	0xbe1086b3	-0.14113884
66	0x3d8f4536	0.06995623
67	0x3ebf6e82	0.37388998
68	0x3db58dde	0.0886495
69	0x3e3d2e47	0.18474685
70	0x3e4af4b5	0.19819911
71	0xbe140511	-0.14455058
72	0xbde927f9	-0.11384577
73	0xbed8762a	-0.42277652
74	0xbeb2da43	-0.34932145
75	0xbe91ee92	-0.28502327
76	0x3dae7540	0.085184574
77	0x3ee93f35	0.45556036
78	0x3f456358	0.7710471
79	0x3f583259	0.84451824
80	0xbdf7d40e	-0.12100993
81	0xbeb5cfd7	-0.35510132
82	0x3e55cb29	0.2087828
83	0x3df7422f	0.120731704
84	0x3cc9b232	0.024621103
85	0xbf683809	-0.907105
86	0x3df6bff9	0.12048335
87	0x3ef65144	0.48108876
88	0xbe82f645	-0.25578514
89	0xbdb30f05	-0.08743099
90	0xbd5df300	-0.05418682
91	0xbe14f7f7	-0.14547716
92	0xbd95c1ff	-0.073123924
93	0x3dc4fdfd	0.09618757
94	0xbe5a0308	-0.21290219
95	0x3f895eb9	1.0732032
96	0x3ea04bc9	0.3130782
97	0xbe21a368	-0.15784991
98	0x3ea17bd4	0.31539786
99	0x3f04eec6	0.5192684
100	0x3ea061f2	0.31324726
101	0xbd987a35	-0.07445184
102	0x3e0c74cf	0.13716434
103	0x3e1b010a	0.15137115
104	0xbe80867c	-0.25102603
105	0xbf191579	-0.5979839
106	0xbe41b1e7	-0.1891552
107	0x3eedccaf	0.46445224
108	0xbe9ab790	-0.30218172
109	0xbea314e6	-0.31851882
110	0x3f058141	0.5215035
111	0x3dc96b16	0.09834878
112	0xbf4f6f9d	-0.81029683
113	0xbf00bf5d	-0.50292
114	0x3df7525e	0.12076257
115	0xbf0f856e	-0.5606297
116	0x3ea2a5a0	0.31766987
117	0x3f43fbe8	0.76556253
118	0x3e26c2c9	0.16285242
119	0xbdf59d73	-0.11992922
120	0x3f40f1e4	0.75369096
121	0x3e8a4ada	0.27010232
122	0xbd941960	-0.072314024
123	0xbf7499ea	-0.95547354
124	0x3ef0250b	0.46903262
125	0x3eccae12	0.39976555
126	0x3e9b37bf	0.30315968
127	0x3d5746dd	0.052557815
128	0xbec6f875	-0.38861433
129	0xbd360db5	-0.044446666
130	0xbed9b3af	-0.425199
131	0xbe2e78fb	-0.17038338
132	0xbe798a59	-0.24369182
133	0xbe21199b	-0.15732424
134	0xbebb9d09	-0.36643246
135	0xbf353227	-0.7077965
136	0xbdd14528	-0.10218269
137	0x3eae9c84	0.34103787
138	0x3ef5ae17	0.47984383
139	0xbe1479bd	-0.14499564
140	0xbfa5f6a4	-1.2965894
141	0x3e8c9106	0.27454394
142	0xbee5e460	-0.449008
143	0x3d43a44c	0.047764108
144	0xbf353cad	-0.7079571
145	0x3f86b7be	1.0524824
146	0xbe5b318c	-0.2140562
147	0x3ea38554	0.3193766
148	0x3ebeabac	0.3724035
149	0x3e929a2d	0.28633252
150	0xbdcccadf	-0.09999632
151	0xbe0cb272	-0.13739946
152	0x3f24c68c	0.6436546
153	0x3f59902f	0.8498563
154	0x3ea4cf8f	0.32189605
155	0x3f6245c1	0.88387686
156	0xbef867e4	-0.48516762
157	0xbf50466e	-0.8135747
158	0x3de86592	0.11347498
159	0xbdc351d8	-0.09537095
160	0x3e890997	0.2676513
161	0x3ecfc6cc	0.40581357
162	0x3ef0eb2c	0.47054422
163	0x3d89644d	0.06708584
164	0x3edb58fe	0.42841333
165	0x3c632aff	0.013865232
166	0xbe5657a5	-0.20931871
167	0xbe571eaa	-0.21007791
168	0x3d48c2e6	0.049013995
169	0xbe9f6cd6	-0.31137723
170	0x3e0e99ec	0.13925904
171	0x3ecdda45	0.4020559
172	0x3ced4555	0.028963724
173	0x3be3f73d	0.0069569633
174	0x3d825bea	0.063651875
175	0xbddfcdba	-0.10927911
176	0xbe6d86dd	-0.23195978
177	0x38c90d88	9.586947e-05
178	0x3ccc1be7	0.024915649
179	0xbd38344a	-0.04497174
180	0xbf343bb1	-0.7040358
181	0xbe8fbff2	-0.2807613
182	0xbf02d614	-0.5110791
183	0xbea47b2a	-0.32125217
184	0xbf62e0cc	-0.8862426
185	0xbef29ecd	-0.4738678
186	0xbccb9fcc	-0.02485647
187	0xbcbd7073	-0.023124909
188	0xbdb0ea57	-0.08638447
189	0x3ea6af1d	0.32555476
190	0x3ec9b424	0.3939525
191	0x3e3a99a1	0.18222667
192	0x3f18e6d7	0.59727234
193	0x3e811fac	0.25219476
194	0x3eb0c2c6	0.345236
195	0xbe25157f	-0.16121481
196	0xbe84f231	-0.25966027
197	0xbf1cd75b	-0.61266106
198	0xbc6ca42d	-0.014443439
199	0x3dc72408	0.09723669
200	0xbf6ba01e	-0.92041194
201	0xbef002db	-0.4687718
202	0x3bec4304	0.0072101373
203	0xbe0e0ecc	-0.13872832
204	0xbdfc74e0	-0.1232698
205	0x3f393f51	0.7236224
206	0xbf3ab003	-0.7292482
207	0xbf939c5a	-1.153209
208	0xbf212ea2	-0.6296178
209	0x3e010bb0	0.12602115
210	0x3e107c05	0.1410981
211	0x3f036e84	0.5134051
212	0x3efec4e6	0.49759597
213	0x3f147785	0.5799487
214	0x3e784cc6	0.24248037
215	0xbe0729ed	-0.13199587
216	0x3da3d970	0.08000457
217	0x3ddae2ab	0.10687765
218	0xbe4610b0	-0.19342303
219	0xbe5b4aff	-0.21415327
220	0x3ed2528d	0.41078606
221	0x3f1d8f29	0.6154657
222	0x3ef87a8d	0.48531
223	0x3edc6a37	0.43049785
224	0x3f29b5d1	0.66293055
225	0xbea663b7	-0.3249795
226	0xbf4f5532	-0.8098937
227	0xbf60de12	-0.8783885
228	0xbebaa95c	-0.36457336
229	0xbf0b0e10	-0.5431833
230	0xbe715dcf	-0.23570941
231	0xbe6c6706	-0.23086175
232	0x3f2c56b5	0.67319804
233	0x3e35b8f3	0.17746334
234	0x3cd1ebd6	0.02562515
235	0x3e7a6a84	0.24454695
236	0x3f068577	0.525474
237	0xbf558fad	-0.83422357
238	0xbeed581f	-0.46356294
239	0xbfcd0f09	-1.6020213
240	0xbe07766c	-0.13228768
241	0x3e92c942	0.28669173
242	0xbda33c85	-0.079705276
243	0x3f4ce92d	0.800433
244	0xbf17e60b	-0.5933539
245	0xbe1fd7e2	-0.15609697
246	0xbeb03e53	-0.3442255
247	0x3d556528	0.052098423
248	0x3f225553	0.63411444
249	0xbe43bd38	-0.1911515
250	0x3eaecccf	0.34140632
251	0xbdb9e3af	-0.0907663
252	0x3dfa6339	0.122259565
253	0xbf507474	-0.81427693
254	0x3e4de506	0.20106897
255	0x3cf7a65e	0.030230697
