finn/finn_config/model_v5.onnx (onnx, 35110 bytes, 26 tensors)

temporal_blocks.0.chan_norm1.weight f4 [4]
00000000: 368f 803f e846 a13f 8020 633f 929c 7d3f
1.0043705 1.2599764 0.88721466 0.9906703

temporal_blocks.0.chan_norm1.bias f4 [4]
00000000: 98f7 64bf 9c04 573e 63f3 863e 725d dfbe
-0.894403 0.20997852 0.26357564 -0.4362598

temporal_blocks.0.chan_norm2.weight f4 [4]
00000000: 029e 913e 2777 233f e0d0 0f3f 1b79 993e
0.28440863 0.6385369 0.5617809 0.2997521

temporal_blocks.0.chan_norm2.bias f4 [4]
00000000: cdf1 89be 7309 843e 5ddb c43d b922 053d
-0.26942292 0.2578846 0.09612153 0.032503817

temporal_blocks.0.downsample.bias f4 [4]
00000000: 6fce 02bd 5d20 debe f2dc 173f 3fe2 babe
-0.03193515 -0.43384066 0.5932151 -0.36500737

temporal_blocks.1.chan_norm1.weight f4 [8]
00000000: 518a 443f 909f 8d3f 5a13 9c3f cc8a 813f
00000010: a14e 763f 4f9c 843f 3eb4 6e3f 3921 5b3f
0.76773554 1.106432 1.2193406 1.0120482 0.9621373 1.0360202 0.9324378 0.8559757

temporal_blocks.1.chan_norm1.bias f4 [8]
00000000: 81a2 96be a568 86be c293 39bf ceab de3e
00000010: 6bb4 1c3f 168b 8e3e ede8 233f 008d 7fbe
-0.29420856 -0.26251712 -0.72491086 0.43490452 0.61212796 0.2784049 0.6402729 -0.24956131

temporal_blocks.1.chan_norm2.weight f4 [8]
00000000: 02ec 493f 789d 8f3f 0e75 9e3f 56ee ac3f
00000010: 33c0 d63f eb88 a33f b229 bf3f 63a3 f53f
0.78875744 1.1219931 1.2379472 1.3510234 1.6777405 1.2776159 1.4934599 1.9190487

temporal_blocks.1.chan_norm2.bias f4 [8]
00000000: 07a0 46bf 2860 af3e 451e d43e 11c2 11bf
00000010: 3447 7dbe af3f e3be bdf5 b4be dca0 6bbe
-0.7758793 0.3425305 0.41429344 -0.56936747 -0.24734193 -0.44384524 -0.35343733 -0.23010582

temporal_blocks.1.downsample.bias f4 [8]
00000000: 63a4 e1be cee8 16bf 6c82 29bf c67e c43e
00000010: 1645 d6be 8106 243d 9eb9 17bd 47b3 ecbe
-0.4407073 -0.5894898 -0.66214633 0.3837797 -0.41849583 0.040045265 -0.037042253 -0.46230528

temporal_blocks.2.chan_norm1.weight f4 [16]
00000000: 0108 a83f 94ed a53f f1e3 b43f feba 053f
00000010: 9166 ba3f 71fe 8c3f b9aa 9a3f 65d4 993e
00000020: ce61 5f3f c35a bd3f c5cb 9e3f 6102 c43f
00000030: e0ff 8b3f 46a8 a63f 95a6 283f bd27 a83f
1.3127443 1.2963128 1.4132062 0.5223845 1.4562551 1.1015149 1.208335 0.30044857
0.87258613 1.4793323 1.2405936 1.5313226 1.0937462 1.3020103 0.65879184 1.3137127

temporal_blocks.2.chan_norm1.bias f4 [16]
00000000: ea20 0ebf 9c8e 0bbe 4dbd 603d 3fd4 11bd
00000010: 90b1 643c 42f3 dc3d 5de7 a6be 4fe3 4ebe
00000020: baa0 2a3e cd01 a9bd 53f8 6cbe 152e 9e3e
00000030: 3df5 ba3d a5e2 7c3e 140e 283f ff57 07be
-0.5551897 -0.1362862 0.05486803 -0.035602804 0.01395835 0.10788585 -0.3259839 -0.20203899
0.16662875 -0.082522966 -0.23141603 0.30894533 0.09128807 0.24695833 0.6564648 -0.13217162

temporal_blocks.2.chan_norm2.weight f4 [16]
00000000: 1fb1 7d40 3702 7f40 25d8 6340 e380 4940
00000010: 3721 2e40 a26d 6740 081c 4a40 9fe2 5e40
00000020: 72d1 4240 ef44 0340 6c29 7540 6fdd 8340
00000030: e081 1a40 d9a2 5e40 1baa 8240 8cbc 9940
3.9639356 3.9845102 3.5600674 3.1484916 2.7207773 3.6160665 3.157961 3.4825819
3.0440335 2.0510824 3.8306532 4.1207805 2.414177 3.4786894 4.083265 4.804266

temporal_blocks.2.chan_norm2.bias f4 [16]
00000000: fa9b 90be b98b d5be 0b01 c43d db38 2d3e
00000010: dcc4 ad3e b127 3f3e be58 61be 30b9 ab3e
00000020: c487 3f3e 3810 a4bd 362d 8f3e 6513 a53e
00000030: adef 343e f242 063f e4bd c43e 21a7 663d
-0.28244 -0.41708162 0.095705114 0.1691622 0.33939254 0.18667485 -0.22006509 0.33539724
0.18704134 -0.08010906 0.2796418 0.3224136 0.17669554 0.524459 0.38426125 0.05631173

temporal_blocks.2.downsample.bias f4 [16]
00000000: 3d90 fcbd 9b4c 0bbf 2c5a b0be e9fa df3c
00000010: baf9 32be 5252 c7bf f247 9ebe 0f91 c4be
00000020: c970 893e 0e73 8e3e ec6d b4be 78dd a83e
00000030: 584d 3c3d 46f3 9a3e 0545 81be 78b4 2ebf
-0.12332199 -0.54413766 -0.34443796 0.027341323 -0.17478076 -1.5571997 -0.30914265 -0.3839192
0.2684386 0.27822155 -0.35240114 0.32981467 0.0459722 0.30263728 -0.2524797 -0.68244123

fc.bias f4 [5]
00000000: 1f8a efbd b67e 983e 158f a1bd f0c5 e5bd
00000010: 3f06 a1be
-0.116962664 0.29784173 -0.07888619 -0.11219394 -0.31450078

/temporal_blocks.0/conv1/weight_quant/tensor_quant/int_quant/Mul_output_0 f4 [4, 1, 5]
00000000: 9059 c83d 0b91 85bd 2c10 e33e 7a6b f0be
00000010: 7f00 40bf 58b9 dfbe c297 14bf a1e5 03bf
00000020: ff66 e63e 214c 2a3f 009a 193f 009a 19be
00000030: dee7 88be c8c6 7d3e 1655 3ebf 7409 54bf
00000040: 9b50 b43e b23e 8cbe 42fe 3abd deb4 d53d
0.09782708 -0.065218054 0.44348276 -0.46956998 -0.75000757 -0.43696094 -0.58044064 -0.5152226
0.45000455 0.66522413 0.6000061 -0.15000153 -0.267394 0.2478286 -0.7434858 -0.82826924
0.35217747 -0.27391583 -0.045652635 0.10434888

/temporal_blocks.0/conv2/weight_quant/tensor_quant/int_quant/Mul_output_0 f4 [4, 4, 5]
00000000: c8c6 9fbd 82d1 813e 2caa 6fbd 5042 2cbf
00000010: 44ba c2be 98a6 f9be 89af e0be b9cf 06bf
00000020: 0ebc 3dbe c8c6 9f3d 5042 2c3f 2caa efbc
00000030: 2caa efbd 2caa ef3d 2caa 6f3e cb35 4fbf
00000040: c8c6 1f3c 25cc 903e 6bc1 aebe 293b 40bf
00000050: fec4 24bf c8c6 9fbc 7ab8 47bf e6b4 d1be
00000060: 98a6 79be 5f39 453f 25cc 903e 3a87 9e3f
00000070: c0ad 653f 98a6 f93e c8c6 9fbe efcd 8bbd
00000080: 7ab8 473e 92c8 9abe 7ab8 47be d44e 093f
00000090: efcd 8b3d 6bc1 aebe 2caa 6f3d 44ba 423f
000000a0: 44ba c23e 2caa ef3c fec4 243f 7749 183f
000000b0: c8c6 1f3c 7ab8 473d 5cca 153e e6b4 51be
000000c0: a1bf b3bd 7ab8 c73d c0ad e5be d7bd b8be
000000d0: 0ebc 3dbe 34c3 29be e6b4 51be f23c 3b3f
000000e0: c8c6 9f3e c8c6 1fbc 2caa 6fbe 25cc 903e
000000f0: c8c6 9fbc d7bd b8be 34c3 a93e cfa4 fe3e
00000100: 112b 6d3f 2caa 6f3d c8c6 9f3c 7ab8 47be
00000110: f6ab eabe 62a8 f4be a1bf b33d 7ab8 473e
00000120: 7ab8 c73e 34c3 293e b0b6 cc3e c8c6 9fbd
00000130: c8c6 1f3e efcd 0bbe 2caa 6f3d c8c6 1f3e
-0.078015864 0.25355154 -0.058511898 -0.67288685 -0.38032734 -0.48759913 -0.43883923 -0.5266071
-0.18528768 0.078015864 0.67288685 -0.029255949 -0.117023796 0.117023796 0.23404759 -0.80941457
0.009751983 0.2828075 -0.3413194 -0.7509027 -0.64363086 -0.019503966 -0.78015864 -0.40958327
-0.24379957 0.77040666 0.2828075 1.2385018 0.89718246 0.48759913 -0.31206346 -0.06826388
0.19503966 -0.30231148 -0.19503966 0.5363591 0.06826388 -0.3413194 0.058511898 0.7606547
0.38032734 0.029255949 0.64363086 0.594871 0.009751983 0.048759915 0.14627975 -0.20479164
-0.08776785 0.09751983 -0.44859123 -0.36082336 -0.18528768 -0.1657837 -0.20479164 0.7313987
0.31206346 -0.009751983 -0.23404759 0.2828075 -0.019503966 -0.36082336 0.3315674 0.49735114
0.9264384 0.058511898 0.019503966 -0.19503966 -0.4583432 -0.47784716 0.08776785 0.19503966
0.39007932 0.1657837 0.3998313 -0.078015864 0.15603173 -0.13652776 0.058511898 0.15603173

/temporal_blocks.0/downsample/weight_quant/tensor_quant/int_quant/Mul_output_0 f4 [4, 1, 1]
00000000: ac31 96bf cd01 a2bd d761 253f 6252 d63f
-1.1733909 -0.079105 0.64602417 1.6743891

/temporal_blocks.1/conv1/weight_quant/tensor_quant/int_quant/Mul_output_0 f4 [8, 4, 5]
00000000: 73d5 05bf 9470 d73e 1919 89be 63a0 0f3f
00000010: f8ae 9cbe 63a0 0fbe 4ae9 50bc ce91 023f
00000020: 3101 ad3f 9df2 1f3f 4ae9 d03d 21cc b6bd
00000030: 0815 783e be8d f13e 63a0 8fbe 4ae9 50bd
00000040: 0062 cabe 4ae9 503d 9df2 9f3f 63d1 74bf
00000050: 4ae9 50bc 08e4 123f 4ae9 50bd 4ae9 d03c
00000060: 8cbd 29be 0815 f8be 4ae9 503c 1919 893e
00000070: f8ae 9cbd 8cbd 293e 8cbd a9be 8cbd 29be
00000080: 4ae9 503e 7306 eb3e 0815 783e 0000 0080
00000090: 6b53 bdbe ce91 023e 4236 23bf 73d5 053f
000000a0: 4ae9 d0bd 6b53 bdbe be8d f13e 6f94 a1bf
000000b0: 7747 cf3f 4ae9 50bc 7306 eb3d ce91 823d
000000c0: 63a0 0fbe f8ae 9c3e 4ae9 503c f8ae 9c3d
000000d0: dff7 5d3e ad27 963e 8cbd a93e 4ae9 503d
000000e0: 4ae9 50bc 4236 a3be 4236 a33e d644 b0be
000000f0: ce91 82be dff7 5dbe f8ae 1c3e 1919 893e
00000100: f8ae 1cbd be8d f1be ce91 02be 7306 6b3e
00000110: 63a0 0fbe dff7 5dbe 0815 78be 21cc b6bd
00000120: dff7 ddbe 1919 89be 63a0 8fbe 63a0 8f3e
00000130: f8ae 9c3d 4ae9 50bc 0815 78be ad27 963e
00000140: d644 b0be 4677 87bf c60f 3a3f 7306 ebbd
00000150: 1919 893e ce91 82be 21cc b6be f8ae 9c3d
00000160: d644 b0be 4ae9 d0bc 21cc 363e be8d f13e
00000170: 21cc b6bd 3101 2dbf 4236 a3be 8cbd a9be
00000180: 1097 403f f8ae 1cbf 4ae9 503e 7306 ebbd
00000190: ce91 82bd 9470 d73e b5da c3be 63a0 0f3f
000001a0: ce91 02bf ad27 963e 21cc 363e f8ae 9c3d
000001b0: f8ae 1c3d 63a0 8f3e dff7 5d3e f8ae 9c3d
000001c0: 1919 89be 7306 6bbe 7306 ebbd f8ae 1cbe
000001d0: 0062 cabe 4ae9 503e 63d1 74bf a133 843f
000001e0: 4ae9 d03c 63a0 8fbe d644 b0be 9470 573f
000001f0: c60f 3abf 21cc b63d d644 b03e 63a0 0fbe
00000200: 8cbd 29bf ce91 82bd 21cc b63d f8ae 9cbd
00000210: 6b53 3dbf ad27 96be ce91 023e b5da 433e
00000220: be8d f13e 4ae9 503d d644 303f 526b 99bf
00000230: 529c fe3e 90fe 8d3f ce91 82bf 4236 a3be
00000240: 4ae9 d0bd ce91 023e f8ae 9cbd 63a0 0fbe
00000250: f8ae 1c3f f8ae 1cbf 4236 a33e 4ae9 50bd
00000260: 63a0 0f3e e779 263f f8ae 1c3e 21cc b63e
00000270: ce91 02bf 4ae9 50bd 0815 f83e d644 30bf
-0.5227882 0.42078078 -0.2677696 0.56104106 -0.3060224 -0.14026026 -0.012750933 0.5100373
1.3515989 0.62479573 0.10200746 -0.08925653 0.24226773 0.47178453 -0.28052053 -0.05100373
-0.39527893 0.05100373 1.2495915 -0.95632 -0.012750933 0.573792 -0.05100373 0.025501866
-0.16576213 -0.48453546 0.012750933 0.2677696 -0.0765056 0.16576213 -0.33152425 -0.16576213
0.20401493 0.45903358 0.24226773 -0.0 -0.36977705 0.12750933 -0.63754666 0.5227882
-0.10200746 -0.36977705 0.47178453 -1.2623423 1.6193684 -0.012750933 0.114758395 0.06375466
-0.14026026 0.3060224 0.012750933 0.0765056 0.21676587 0.29327145 0.33152425 0.05100373
-0.012750933 -0.31877333 0.31877333 -0.34427518 -0.25501865 -0.21676587 0.1530112 0.2677696
-0.0382528 -0.47178453 -0.12750933 0.22951679 -0.14026026 -0.21676587 -0.24226773 -0.08925653
-0.43353173 -0.2677696 -0.28052053 0.28052053 0.0765056 -0.012750933 -0.24226773 0.29327145
-0.34427518 -1.0583274 0.7268032 -0.114758395 0.2677696 -0.25501865 -0.35702613 0.0765056
-0.34427518 -0.025501866 0.17851306 0.47178453 -0.08925653 -0.6757994 -0.31877333 -0.33152425
0.75230503 -0.6120448 0.20401493 -0.114758395 -0.06375466 0.42078078 -0.38252798 0.56104106
-0.5100373 0.29327145 0.17851306 0.0765056 0.0382528 0.28052053 0.21676587 0.0765056
-0.2677696 -0.22951679 -0.114758395 -0.1530112 -0.39527893 0.20401493 -0.95632 1.0328256
0.025501866 -0.28052053 -0.34427518 0.84156156 -0.7268032 0.08925653 0.34427518 -0.14026026
-0.6630485 -0.06375466 0.08925653 -0.0765056 -0.7395541 -0.29327145 0.12750933 0.19126399
0.47178453 0.05100373 0.68855035 -1.1985877 0.49728638 1.1093311 -1.0200746 -0.31877333
-0.10200746 0.12750933 -0.0765056 -0.14026026 0.6120448 -0.6120448 0.31877333 -0.05100373
0.14026026 0.6502976 0.1530112 0.35702613 -0.5100373 -0.05100373 0.48453546 -0.68855035

/temporal_blocks.1/conv2/weight_quant/tensor_quant/int_quant/Mul_output_0 f4 [8, 8, 5]
00000000: 0b01 db3e 1621 643e e410 bb3e 3881 7f3f
00000010: 13d9 613f aa28 0b3f 2c61 763e 3881 7f3d
00000020: fa50 cd3e f5c0 c83e b200 92bc d360 2d3e
00000030: de80 b63e d360 2dbe 0571 d6be d360 adbe
00000040: b890 96be aa28 0bbf 2c61 f6be 27d1 f1be
00000050: 2c61 76be b890 16bf c840 a4bd 08b9 58bf
00000060: 1969 66bf f5c0 483e b200 92bc de80 b6be
00000070: c840 a43d c840 a43e e410 bbbe de80 b6be
00000080: bd20 1bbe a7e0 08be a7e0 08bf 0b01 dbbd
00000090: 1621 e43e a150 043f 2c61 f63e 0329 543f
000000a0: c840 a4bd d9f0 b13e d360 2dbe 1cb1 e8be
000000b0: aa28 8bbf a150 84be a150 84be 3881 ffbd
000000c0: 3881 ffbd 0b01 dbbc b890 963e 3881 ffbd
000000d0: 0b01 db3d f5c0 c83e b200 92bc ced0 a8be
000000e0: d360 2dbe b200 923c b200 123e de80 b63e
000000f0: 3881 ff3e e410 bb3e f5c0 483e de80 363e
00000100: 2c61 763e 00e1 d1be 2141 edbe 3881 ffbe
00000110: 0571 56bf f5c0 c8be b200 123e de80 363e
00000120: 2141 ed3d b200 92bc b200 923e de80 363e
00000130: b200 923d d9f0 b13e b200 923d 1621 64be
00000140: d360 2d3e a150 843e c840 24be 0b01 db3d
00000150: d9f0 b1be 3881 7fbd d360 2dbe eaa0 3fbe
00000160: 2141 6dbe 3881 ffbd c840 a43d b200 12be
00000170: ef30 c43e d9f0 b13e d9f0 b13e de80 b6bd
00000180: de80 36be 1621 64be bd20 9bbe d360 adbe
00000190: de80 363e 2141 6dbe a7e0 883e d360 2d3e
000001a0: f5c0 c83d eaa0 3fbe c840 243e 3881 ffbd
000001b0: de80 36bd c840 a43d a7e0 08be ac70 8d3e
000001c0: a7e0 083e 2141 edbd a150 843e a7e0 883e
000001d0: 3881 7f3d de80 363e ced0 a83e c840 a43e
000001e0: 0b01 5bbe 0b01 dbbd fa50 cdbe 00e1 51be
000001f0: 3881 7f3d f5c0 c83d b890 963e c3b0 9f3e
00000200: b200 12bc eaa0 3f3e de80 36bd f5c0 c8bd
00000210: 3881 7f3d b200 923c eaa0 3f3f ac70 8d3e
00000220: 0b01 db3e 27d1 f13e b200 923d b200 92bd
00000230: f5c0 c8bd a7e0 88be eaa0 3f3e ced0 a8be
00000240: b200 92bc d360 2dbf afb8 0fbf a498 063f
00000250: b548 143f 0b01 5b3e a7e0 88be 0b01 5bbe
00000260: 00e1 d1be b200 12be e758 3dbf de80 b6bd
00000270: 1621 64be bd20 9bbe eaa0 3f3e d9f0 b1be
00000280: 1621 643e de80 363d de80 b63d 3881 7f3d
00000290: 0571 d63e 0b01 dbbc de80 b63d b200 92bd
000002a0: 0b01 5bbd b200 123e bd20 1b3e 3881 7fbe
000002b0: c840 a4bd fa50 cdbe afb8 8fbf 0b01 5b3e
000002c0: 0b01 db3c de80 36be d360 ad3e b200 123e
000002d0: f5c0 c83d b890 963e c840 a43e a150 843e
000002e0: 0000 0000 0b01 5bbd b200 923d 3881 ff3d
000002f0: de80 363e 2141 6d3e d360 adbe de80 363d
00000300: 0b01 db3d 0b01 5b3e de80 b63d b200 92be
00000310: 32f1 fabe 3881 7fbe b200 92bd de80 36be
00000320: 27d1 f1be c840 a43e a150 84be c840 243e
00000330: a150 84be f5c0 c8be 00e1 51be eaa0 3fbe
00000340: b200 123c d6a8 2f3f b1dc 90bf 0b01 5b3d
00000350: 0b01 5b3e f5c0 483e b200 923c 00e1 513f
00000360: bd20 9b3e de80 363e de80 b6bd c840 a43d
00000370: 1191 dfbe ced0 28bf 0b01 db3e bd20 9bbe
00000380: b200 92bd a7e0 883e 1621 e4be b200 12bc
00000390: eaa0 3fbe bd20 1b3f e1c8 383f b200 123d
000003a0: de80 36be 0b01 db3c bd20 1bbf 00e1 513e
000003b0: eaa0 3f3e c3b0 9fbe 0b01 5b3d 9f08 02bf
000003c0: 2c61 f6be bd20 1bbf 1191 df3e bad8 18bf
000003d0: b200 123e fa50 4d3f d9f0 b1be a7e0 883e
000003e0: c068 1d3f afb8 8fbf 1191 dfbe b200 92be
000003f0: b200 123d 3881 7fbe bd20 1b3f 27d1 f13e
0.42774233 0.22278246 0.36536324 0.9980655 0.88221854 0.54358923 0.24060506 0.062379092
0.40100843 0.39209715 -0.017822597 0.16931467 0.35645193 -0.16931467 -0.41883102 -0.33862934
-0.29407287 -0.54358923 -0.4812101 -0.47229883 -0.24060506 -0.58814573 -0.080201685 -0.84657335
-0.90004116 0.19604857 -0.017822597 -0.35645193 0.080201685 0.32080674 -0.36536324 -0.35645193
-0.15149207 -0.13366948 -0.5346779 -0.10693558 0.44556493 0.5168553 0.4812101 0.8287508
-0.080201685 0.34754065 -0.16931467 -0.45447624 -1.0871785 -0.25842765 -0.25842765 -0.124758184
-0.124758184 -0.026733896 0.29407287 -0.124758184 0.10693558 0.39209715 -0.017822597 -0.32971805
-0.16931467 0.017822597 0.14258078 0.35645193 0.49903274 0.36536324 0.19604857 0.17822596
0.24060506 -0.40991974 -0.46338752 -0.49903274 -0.83766204 -0.39209715 0.14258078 0.17822596
0.11584688 -0.017822597 0.28516155 0.17822596 0.07129039 0.34754065 0.07129039 -0.22278246
0.16931467 0.25842765 -0.16040337 0.10693558 -0.34754065 -0.062379092 -0.16931467 -0.18713728
-0.23169376 -0.124758184 0.080201685 -0.14258078 0.38318583 0.34754065 0.34754065 -0.08911298
-0.17822596 -0.22278246 -0.30298415 -0.33862934 0.17822596 -0.23169376 0.26733896 0.16931467
0.09802429 -0.18713728 0.16040337 -0.124758184 -0.04455649 0.080201685 -0.13366948 0.27625024
0.13366948 -0.11584688 0.25842765 0.26733896 0.062379092 0.17822596 0.32971805 0.32080674
-0.21387117 -0.10693558 -0.40100843 -0.20495987 0.062379092 0.09802429 0.29407287 0.31189546
-0.008911299 0.18713728 -0.04455649 -0.09802429 0.062379092 0.017822597 0.7485491 0.27625024
0.42774233 0.47229883 0.07129039 -0.07129039 -0.09802429 -0.26733896 0.18713728 -0.32971805
-0.017822597 -0.6772587 -0.5614118 0.5257666 0.5792344 0.21387117 -0.26733896 -0.21387117
-0.40991974 -0.14258078 -0.7396378 -0.08911298 -0.22278246 -0.30298415 0.18713728 -0.34754065
0.22278246 0.04455649 0.08911298 0.062379092 0.41883102 -0.026733896 0.08911298 -0.07129039
-0.05346779 0.14258078 0.15149207 -0.24951637 -0.080201685 -0.40100843 -1.1228236 0.21387117
0.026733896 -0.17822596 0.33862934 0.14258078 0.09802429 0.29407287 0.32080674 0.25842765
0.0 -0.05346779 0.07129039 0.124758184 0.17822596 0.23169376 -0.33862934 0.04455649
0.10693558 0.21387117 0.08911298 -0.28516155 -0.49012142 -0.24951637 -0.07129039 -0.17822596
-0.47229883 0.32080674 -0.25842765 0.16040337 -0.25842765 -0.39209715 -0.20495987 -0.18713728
0.008911299 0.68617 -1.131735 0.05346779 0.21387117 0.19604857 0.017822597 0.8198395
0.30298415 0.17822596 -0.08911298 0.080201685 -0.43665364 -0.6594361 0.42774233 -0.30298415
-0.07129039 0.26733896 -0.44556493 -0.008911299 -0.18713728 0.6059683 0.72181517 0.035645194
-0.17822596 0.026733896 -0.6059683 0.20495987 0.18713728 -0.31189546 0.05346779 -0.50794405
-0.4812101 -0.6059683 0.43665364 -0.597057 0.14258078 0.80201685 -0.34754065 0.26733896
0.6148796 -1.1228236 -0.43665364 -0.28516155 0.035645194 -0.24951637 0.6059683 0.47229883

/temporal_blocks.1/downsample/weight_quant/tensor_quant/int_quant/Mul_output_0 f4 [8, 4, 1]
00000000: 303e bd3e a762 653d 97a1 893d 1f82 37be
00000010: ec4d a63e 85ea 59be c2f7 17bf 85ea 59be
00000020: eb52 7cbe 6372 4ebe 97a1 09bf eb52 fc3d
00000030: 0000 0080 85ea d9be a85d 8f3e 1f82 37bf
00000040: 41fa c23e 1f82 373e 85ea 593e cad5 9abe
00000050: 1f82 b73e b919 15be 6372 cebd 1b13 b6bf
00000060: 303e bdbe fd09 2c3e a762 65be 6372 cebe
00000070: 1f82 373d 1f82 37bc 381c 40bf db91 a03e
0.36961508 0.056002285 0.06720274 -0.17920731 0.32481325 -0.21280868 -0.59362423 -0.21280868
-0.24641006 -0.20160823 -0.5376219 0.12320503 -0.0 -0.42561737 0.28001142 -0.71682924
0.38081554 0.17920731 0.21280868 -0.30241233 0.35841462 -0.14560594 -0.10080411 -1.422458
-0.36961508 0.16800685 -0.22400914 -0.40321645 0.044801828 -0.011200457 -0.7504306 0.3136128

/temporal_blocks.2/conv1/weight_quant/tensor_quant/int_quant/Mul_output_0 f4 [16, 8, 5]
00000000: 8d0b 1dbe bc64 51bd 9c7e 2ebe 7d98 8b3d
00000010: 7d98 0bbe 9c7e ae3e 9c7e 2e3e 8d0b 9dbe
00000020: 7d98 8bbd 34ab c8be 0552 143f 7d98 0bbe
00000030: 431e da3e bc64 d13d 7d98 8b3d 41f5 0f3f
00000040: bc64 513e 9c7e ae3e f5de 82be cbd7 623e
00000050: f807 4d3f cbd7 62be db4a f4bd cbd7 62be
00000060: 9c7e 2ebe 41f5 0fbf 6304 7dbf 7d98 8b3d
00000070: 0000 0080 704e 443f 34ab c83e db4a f43d
00000080: 8d0b 1dbe 8d0b 1dbe 8d0b 1d3e 7d98 8b3e
00000090: 5391 eb3e 7d98 0b3e 7d98 0bbd 9c7e 2e3e
000000a0: 7d98 8b3c bc64 d1bd 8d0b 9dbe 7d98 0bbd
000000b0: db4a f43e 34ab c83e 9c7e aebd 9c7e ae3d
000000c0: 0000 0080 b93b 07bf 6304 fd3e 7d98 8bbc
000000d0: 7d98 8b3e 9c7e 2ebe 0000 0080 bc64 51be
000000e0: f5de 02bf bc64 513e 7d98 8bbd 6304 fd3e
000000f0: 8d0b 1dbe 8d0b 1dbe 7d98 8b3c cbd7 62be
00000100: 7d98 8bbe b93b 073f 7d98 8bbd 9c7e 2e3e
00000110: 7d98 8bbe 8d0b 9d3e db4a f4be bc64 d1be
00000120: 9c7e aebd bc64 51bd 8d0b 1dbe 14c5 a53e
00000130: db4a 743e bc64 51bd bc64 513e acf1 bfbe
00000140: 34ab 48bf bc64 d13d b93b 073f db4a f43d
00000150: db4a 74be c9ae 183f acf1 3f3e 7d98 0bbd
00000160: db4a f43d 14c5 25bf db4a 74be 2438 b7be
00000170: bc64 513d bc64 513e 8d0b 9d3e 17ee 6fbf
00000180: 7d98 8b3d db4a 743e acf1 3f3e 8d0b 1d3e
00000190: bc64 d1bd bc64 d1bd 7d98 8b3c 5391 eb3e
000001a0: e894 3bbf bc64 513d bc64 51bd db4a f43d
000001b0: 7d98 8b3e db4a f43d f807 4dbf 14c5 25bf
000001c0: 7d98 0bbd bc64 513d 9c7e ae3e bc64 d1bd
000001d0: acf1 bfbe 7d98 0bbe 7d98 8b3e 34ab c83e
000001e0: 8d0b 1d3f db4a f43d acf1 bfbe 9c7e 2ebe
000001f0: bc64 51bd f807 4d3f 2438 373f 60db 323f
00000200: 9c7e ae3e ea52 0840 db4a 74bf 0552 943e
00000210: 0000 0080 db4a 74bf f807 4dbf bc64 51be
00000220: 0e20 c2bf bc64 d13d d821 2abf 93b0 80bf
00000230: 2438 373f 0552 943e 14c5 a5be 34ab c83e
00000240: 704e 443f 9c7e 2ebe 34ab c8be 7d98 8bbc
00000250: 9c7e aebd 3a50 ac3f 14c5 25bf 0552 94be
00000260: acf1 3f3e 7d98 0bbd f5de 023f f5de 023f
00000270: 7d98 0bbe bc64 d13e 5168 a13f 14c5 253f
00000280: 7d98 8b3c 8d0b 1d3e 7d98 8bbc 7d98 0b3d
00000290: 8d0b 1dbe acf1 bf3e cbd7 62be 7d98 0b3e
000002a0: 9c7e aebd 9c7e 2e3e acf1 3fbe bc64 513e
000002b0: bc64 51be cbd7 e23e bc64 513e bc64 513e
000002c0: 8d0b 9d3e 6304 fdbe cbd7 62be 0000 0000
000002d0: db4a f43d 34ab c83e bc64 d13d 9c7e 2ebe
000002e0: 8d0b 1d3f 14c5 25bf 7d98 8bbe 7d98 8bbd
000002f0: 7d98 0b3e 0552 943e 7d98 0bbe 9c7e ae3d
00000300: 9c7e ae3d 9c7e aebd 14c5 a5be 41f5 0fbf
00000310: 9c7e 2ebe 7d98 0b3e bc64 51be db4a f4bd
00000320: 7d98 8bbe acf1 3fbe bc64 513d 7d98 8bbc
00000330: bc64 d1bd 7fc1 553f db4a 743e 9c7e ae3e
00000340: 14c5 a53e 14c5 253f 7d98 0bbd 0552 94be
00000350: bc64 51be 7d98 0bbd 0000 0080 431e dabe
00000360: db4a 743e 8d0b 9dbe 7d98 0b3d 7d98 8bbc
00000370: acf1 bfbe c9ae 183f cbd7 62be acf1 3fbe
00000380: 7d98 0bbf 7d98 8b3c f5de 823e 2438 b7be
00000390: 9c7e ae3e 9c7e aebd bc64 51bd db4a f43e
000003a0: db4a f43d 7d98 8b3e bc64 513d 9c7e 2ebe
000003b0: cbd7 e2be bc64 513e 8d0b 1dbe f5de 82be
000003c0: db4a f4bd bc64 d1bd 7d98 8bbd bc64 513d
000003d0: 0000 0000 2438 b7be f5de 82be 431e dabe
000003e0: 7d98 8b3c 7fc1 553f 8d0b 1d3e b93b 073f
000003f0: 9c7e ae3d 9c7e ae3e 7d98 0bbd 9c7e ae3e
-0.15336438 -0.05112146 -0.17040485 0.06816194 -0.13632388 0.3408097 0.17040485 -0.30672875
-0.06816194 -0.39193118 0.5793765 -0.13632388 0.42601213 0.10224292 0.06816194 0.562336
0.20448583 0.3408097 -0.25560728 0.22152631 0.80090284 -0.22152631 -0.1192834 -0.22152631
-0.17040485 -0.562336 -0.9883482 0.06816194 -0.0 0.76682186 0.39193118 0.1192834
-0.15336438 -0.15336438 0.15336438 0.27264777 0.4600931 0.13632388 -0.03408097 0.17040485
0.017040486 -0.10224292 -0.30672875 -0.03408097 0.4771336 0.39193118 -0.085202426 0.085202426
-0.0 -0.52825505 0.4941741 -0.017040486 0.27264777 -0.17040485 -0.0 -0.20448583
-0.51121455 0.20448583 -0.06816194 0.4941741 -0.15336438 -0.15336438 0.017040486 -0.22152631
-0.27264777 0.52825505 -0.06816194 0.17040485 -0.27264777 0.30672875 -0.4771336 -0.40897167
-0.085202426 -0.05112146 -0.15336438 0.3237692 0.2385668 -0.05112146 0.20448583 -0.37489069
-0.78386235 0.10224292 0.52825505 0.1192834 -0.2385668 0.596417 0.18744534 -0.03408097
0.1192834 -0.6475384 -0.2385668 -0.3578502 0.05112146 0.20448583 0.30672875 -0.9372267
0.06816194 0.2385668 0.18744534 0.15336438 -0.10224292 -0.10224292 0.017040486 0.4600931
-0.7327409 0.05112146 -0.05112146 0.1192834 0.27264777 0.1192834 -0.80090284 -0.6475384
-0.03408097 0.05112146 0.3408097 -0.10224292 -0.37489069 -0.13632388 0.27264777 0.39193118
0.6134575 0.1192834 -0.37489069 -0.17040485 -0.05112146 0.80090284 0.7157004 0.6986599
0.3408097 2.1300607 -0.9542672 0.28968826 -0.0 -0.9542672 -0.80090284 -0.20448583
-1.5166032 0.10224292 -0.6645789 -1.0053886 0.7157004 0.28968826 -0.3237692 0.39193118
0.76682186 -0.17040485 -0.39193118 -0.017040486 -0.085202426 1.3461983 -0.6475384 -0.28968826
0.18744534 -0.03408097 0.51121455 0.51121455 -0.13632388 0.40897167 1.260996 0.6475384
0.017040486 0.15336438 -0.017040486 0.03408097 -0.15336438 0.37489069 -0.22152631 0.13632388
-0.085202426 0.17040485 -0.18744534 0.20448583 -0.20448583 0.44305262 0.20448583 0.20448583
0.30672875 -0.4941741 -0.22152631 0.0 0.1192834 0.39193118 0.10224292 -0.17040485
0.6134575 -0.6475384 -0.27264777 -0.06816194 0.13632388 0.28968826 -0.13632388 0.085202426
0.085202426 -0.085202426 -0.3237692 -0.562336 -0.17040485 0.13632388 -0.20448583 -0.1192834
-0.27264777 -0.18744534 0.05112146 -0.017040486 -0.10224292 0.83498377 0.2385668 0.3408097
0.3237692 0.6475384 -0.03408097 -0.28968826 -0.20448583 -0.03408097 -0.0 -0.42601213
0.2385668 -0.30672875 0.03408097 -0.017040486 -0.37489069 0.596417 -0.22152631 -0.18744534
-0.54529554 0.017040486 0.25560728 -0.3578502 0.3408097 -0.085202426 -0.05112146 0.4771336
0.1192834 0.27264777 0.05112146 -0.17040485 -0.44305262 0.20448583 -0.15336438 -0.25560728
-0.1192834 -0.10224292 -0.06816194 0.05112146 0.0 -0.3578502 -0.25560728 -0.42601213
0.017040486 0.83498377 0.15336438 0.52825505 0.085202426 0.3408097 -0.03408097 0.3408097

/temporal_blocks.2/conv2/weight_quant/tensor_quant/int_quant/Mul_output_0 f4 [16, 16, 5]
00000000: d717 b6be a71e 6a3e 6f14 9cbd bb12 0f3e
00000010: 0711 023e 199c d6be a71e ea3d 0711 82bd
00000020: a71e 6abe 3f1b d0bd 9593 153f f859 463f
00000030: e191 883e 0711 023e 3f1b 50be 2316 a9be
00000040: 3f1b d0be d717 b6be e191 883e bb12 8fbe
00000050: 3f1b 50be 3f1b d0be bb12 8fbe 6f14 9cbd
00000060: 6f14 1c3e 659a c93e 3f1b 503d 9593 95be
00000070: 0711 023e a71e eabd 8b19 43be 659a c93e
00000080: cd9d 63bf 199c d6be 0711 82bd 3f1b 503c
00000090: 6f14 1c3e 0711 823e 6f14 9c3d bb12 0f3f
000000a0: a71e 6a3e fd96 afbe f31c 5dbe f31c 5dbe
000000b0: d717 b63d 0711 023f 819f f03e 8b19 c33e
000000c0: d717 b63d 0711 82bd 2316 a9be 0711 823d
000000d0: 3f1b d0be 0711 823d e191 88be cd9d 633f
000000e0: 0000 0080 3f1b d0be dc54 1fbf 2853 12bf
000000f0: 6f14 9cbd 0000 0000 0711 023e 819f f0be
00000100: 3f1b 503e e191 883f fd96 af3e 0711 82bd
00000110: 7451 05bf e191 883e 02d4 18bf 6f14 1cbf
00000120: 2316 293e 199c d63e d717 b63d 0711 023f
00000130: d717 363e 8b19 433f 6f14 9c3d a71e 6abe
00000140: a71e eabd fd96 afbe f31c 5dbe 0711 02be
00000150: 35a1 fd3e 3f1b 503d f31c 5d3e 199c d6be
00000160: 2853 123f bb12 8fbe 659a c93e f31c 5d3e
00000170: 3f1b 503c 605d 60bf b198 3cbf 2316 29be
00000180: 6f14 1cbd 3f1b d0be 6f14 1c3d 0711 82bd
00000190: bb12 8f3f fd96 af3e e191 883e 3f1b d03e
000001a0: 8b19 43be c2b9 c43f 3f1b 503f 3f1b 503c
000001b0: 1ed9 3fbf bb12 8fbe 3f1b 503d cd9d e33e
000001c0: 0711 82be 6f14 1c3e 8b19 c3be 9056 2cbf
000001d0: 3f1b d03c 6f14 9cbd 6f14 9cbd 2316 29be
000001e0: 5b20 f7be 9593 15bf 3f1b 503d 3f1b 503e
000001f0: fd96 af3e e191 88be a71e ea3d 2316 293e
00000200: 0711 82bd 6f14 9c3d 3f1b d0be 9056 2cbf
00000210: d717 b6be 35a1 fdbe 3f1b d03c 6ad7 32bf
00000220: 7451 05bf 6f14 9cbe a71e 6abe 6f14 1cbd
00000230: b198 bc3e 0711 023f d717 363e 1ed9 3f3f
00000240: a71e ea3d 6f14 1c3d 8b19 c3be 199c d63e
00000250: 6f14 1cbd 199c d63e 6ad7 323f 6f14 9cbd
00000260: fd96 af3e 6f14 9cbd bb12 0f3e bb12 8fbe
00000270: e191 88be cd9d e33e 0711 023f b6d5 253f
00000280: b198 bcbe b198 bcbe d717 b6be 659a c9be
00000290: 9593 153f 3f1b d03e d717 b63d 3f1b 503f
000002a0: 4995 a2be 9593 95bf d717 b6bd 35a1 7dbf
000002b0: 6f14 1c3d 9593 953e 0711 023f 199c d6be
000002c0: 3f1b d0bd 6f14 1c3d d717 b63d 8b19 c33e
000002d0: 4995 a23f f31c 5d3e 0000 0080 5b20 773e
000002e0: 2316 293f c860 7a3f bb12 8f3e b6d5 253f
000002f0: d170 80bf 4ed2 0bbf 6f14 1cbe 0000 0000
00000300: f31c dd3e b6d5 253f 4995 223f 6f14 1cbd
00000310: 7451 85bf 145f 6dbf 8b19 43be 7451 05bf
00000320: 0000 0080 9593 153f 3f1b d03d 4995 a23e
00000330: 35a1 fd3e b6d5 25bf a71e 6abe 8b19 43be
00000340: 6f14 1c3d 6f14 1cbd 2316 a9be 6f14 9cbd
00000350: 6f14 1cbd 3f1b d03c 819f f03e f31c 5d3e
00000360: 35a1 fdbe f859 463f b198 3cbf 5b20 f7be
00000370: 3f1b 503e a71e ea3d 3f1b 50bd 2316 29be
00000380: 4ed2 0bbf 0711 82bd 7451 853f d717 b63d
00000390: d717 363e d717 36bf d717 b63d c860 7a3f
000003a0: 3f1b 503e a71e ea3d 35a1 fdbe 9593 153f
000003b0: 9056 2c3f 3f1b 50bc 0711 02be cd9d e33e
000003c0: 3f1b d0bc a71e 6a3e fd96 afbe 8572 8dbf
000003d0: 0711 02bf 819f f0be 2316 29be fd96 afbe
000003e0: f31c ddbe a71e eabd 6f14 1cbe 3f1b d03d
000003f0: 5b20 773e 2316 293e 199c 563f e191 88be
-0.35565063 0.22863255 -0.07621085 0.13971989 0.12701808 -0.41915968 0.11431628 -0.06350904
-0.22863255 -0.10161447 0.5842832 0.7748103 0.26673797 0.12701808 -0.20322894 -0.330247
-0.40645787 -0.35565063 0.26673797 -0.27943978 -0.20322894 -0.40645787 -0.27943978 -0.07621085
0.1524217 0.39375606 0.050807234 -0.2921416 0.12701808 -0.11431628 -0.19052713 0.39375606
-0.8891266 -0.41915968 -0.06350904 0.0127018085 0.1524217 0.25403616 0.07621085 0.55887955
0.22863255 -0.34294882 -0.21593075 -0.21593075 0.08891266 0.5080723 0.46996692 0.38105425
0.08891266 -0.06350904 -0.330247 0.06350904 -0.40645787 0.06350904 -0.26673797 0.8891266
-0.0 -0.40645787 -0.6223886 -0.57158136 -0.07621085 0.0 0.12701808 -0.46996692
0.20322894 1.0669519 0.34294882 -0.06350904 -0.5207741 0.26673797 -0.596985 -0.6096868
0.1651235 0.41915968 0.08891266 0.5080723 0.17782532 0.7621085 0.07621085 -0.22863255
-0.11431628 -0.34294882 -0.21593075 -0.12701808 0.49537054 0.050807234 0.21593075 -0.41915968
0.57158136 -0.27943978 0.39375606 0.21593075 0.0127018085 -0.8764248 -0.7367049 -0.1651235
-0.038105424 -0.40645787 0.038105424 -0.06350904 1.1177591 0.34294882 0.26673797 0.40645787
-0.19052713 1.5369189 0.81291574 0.0127018085 -0.7494067 -0.27943978 0.050807234 0.4445633
-0.25403616 0.1524217 -0.38105425 -0.67319584 0.025403617 -0.07621085 -0.07621085 -0.1651235
-0.48266873 -0.5842832 0.050807234 0.20322894 0.34294882 -0.26673797 0.11431628 0.1651235
-0.06350904 0.07621085 -0.40645787 -0.67319584 -0.35565063 -0.49537054 0.025403617 -0.69859946
-0.5207741 -0.3048434 -0.22863255 -0.038105424 0.36835244 0.5080723 0.17782532 0.7494067
0.11431628 0.038105424 -0.38105425 0.41915968 -0.038105424 0.41915968 0.69859946 -0.07621085
0.34294882 -0.07621085 0.13971989 -0.27943978 -0.26673797 0.4445633 0.5080723 0.6477922
-0.36835244 -0.36835244 -0.35565063 -0.39375606 0.5842832 0.40645787 0.08891266 0.81291574
-0.3175452 -1.1685663 -0.08891266 -0.9907411 0.038105424 0.2921416 0.5080723 -0.41915968
-0.10161447 0.038105424 0.08891266 0.38105425 1.2701808 0.21593075 -0.0 0.24133436
0.660494 0.97803926 0.27943978 0.6477922 -1.0034429 -0.54617774 -0.1524217 0.0
0.4318615 0.6477922 0.6350904 -0.038105424 -1.0415483 -0.927232 -0.19052713 -0.5207741
-0.0 0.5842832 0.10161447 0.3175452 0.49537054 -0.6477922 -0.22863255 -0.19052713
0.038105424 -0.038105424 -0.330247 -0.07621085 -0.038105424 0.025403617 0.46996692 0.21593075
-0.49537054 0.7748103 -0.7367049 -0.48266873 0.20322894 0.11431628 -0.050807234 -0.1651235
-0.54617774 -0.06350904 1.0415483 0.08891266 0.17782532 -0.71130127 0.08891266 0.97803926
0.20322894 0.11431628 -0.49537054 0.5842832 0.67319584 -0.0127018085 -0.12701808 0.4445633
-0.025403617 0.22863255 -0.34294882 -1.1050574 -0.5080723 -0.46996692 -0.1651235 -0.34294882
-0.4318615 -0.11431628 -0.1524217 0.10161447 0.24133436 0.1651235 0.83831936 -0.26673797

/temporal_blocks.2/downsample/weight_quant/tensor_quant/int_quant/Mul_output_0 f4 [16, 8, 1]
00000000: 72ff dfbe 53e8 a2be ceb9 18bf 498b 0e3f
00000010: 53e8 22bf 72ff 5fbf c35c 043f c35c 84bf
00000020: 68a2 4b3e 028b 7ebf 7c5c f4bd 72ff 5fbf
00000030: 68a2 4b3e 53e8 a2bd 65e8 06c0 378b 2ac0
00000040: 72ff dfbf 53e8 22be 7c5c 743e a05c bcbf
00000050: 5d45 b73e 0000 0000 8ba2 933f 53e8 223e
00000060: 498b 8ebe 53e8 a2bd 498b 8ebe 53e8 22be
00000070: 0000 0080 72ff df3e 7c5c 743e 7c5c 74bf
00000080: 53e8 a23e 7c5c f4bd 68a2 cb3e 498b 8ebe
00000090: 0000 0000 53e8 a23d 53e8 22be d816 2d3f
000000a0: 82a2 a1c0 68a2 cb3e d816 2dbf 53e8 223e
000000b0: 5d45 373f ceb9 183f c35c 843f 96ff a73f
000000c0: 0000 0000 edd0 d5bf 53e8 22bd c35c 04bf
000000d0: 53e8 a2bf 498b 8ebf 7c5c 743e 53e8 22bf
000000e0: 68a2 4bbe ceb9 183f 7c5c f4bd 53e8 a2bd
000000f0: 7c5c 743e 53e8 22be 5d45 37bf 68a2 4b3e
00000100: 498b 8e3e c35c 04bf 7c5c f43e 53e8 22bf
00000110: ceb9 98bf 53e8 a23d 53e8 22bf 53e8 a2be
00000120: 53e8 22bd 7c5c f43d c35c 04bf 498b 8ebe
00000130: 53e8 22bd 5d45 b7be 30e8 dabf 028b 7ebf
00000140: 498b 8e3e 53e8 a23e c35c 043f ceb9 183f
00000150: c35c 04bf 72ff dfbe 53e8 22bd 498b 0ec0
00000160: 72ff df3e c35c 043f 7c5c f43d ceb9 18bf
00000170: 53e8 a23d 68a2 4bbf 68a2 cbbe 7c5c 743f
00000180: 53e8 a23d 498b 8ebe 53e8 223f 498b 0ebf
00000190: 10d1 9dbf 53e8 22bd 5d45 b7be 5d45 37bf
000001a0: 0000 0080 72ff df3e edd0 55bf 53e8 a23d
000001b0: 7c5c 743e 53e8 a2be 5d45 b73e 53e8 a2be
000001c0: 7c5c f4bd 53e8 22bf 7c5c f43d 5d45 b73e
000001d0: 53e8 a23e 68a2 4b3e 5d45 373f 7c5c f4bd
000001e0: 7c5c f43e 53e8 a2bd ceb9 18bf 53e8 a23e
000001f0: f72d 6abf 53e8 22bd 5d45 b7bf a7ff 0bc0
-0.43749577 -0.31817874 -0.59658515 0.5568128 -0.6363575 -0.87499154 0.51704043 -1.0340809
0.19886172 -0.9943086 -0.119317025 -0.87499154 0.19886172 -0.079544686 -2.1079342 -2.664747
-1.7499831 -0.15908937 0.23863405 -1.4715767 0.35795107 0.0 1.1533979 0.15908937
-0.2784064 -0.079544686 -0.2784064 -0.15908937 -0.0 0.43749577 0.23863405 -0.9545362
0.31817874 -0.119317025 0.39772344 -0.2784064 0.0 0.079544686 -0.15908937 0.6761298
-5.0510874 0.39772344 -0.6761298 0.15908937 0.71590215 0.59658515 1.0340809 1.3124874
0.0 -1.6704384 -0.039772343 -0.51704043 -1.272715 -1.1136256 0.23863405 -0.6363575
-0.19886172 0.59658515 -0.119317025 -0.079544686 0.23863405 -0.15908937 -0.71590215 0.19886172
0.2784064 -0.51704043 0.4772681 -0.6363575 -1.1931703 0.079544686 -0.6363575 -0.31817874
-0.039772343 0.119317025 -0.51704043 -0.2784064 -0.039772343 -0.35795107 -1.7102108 -0.9943086
0.2784064 0.31817874 0.51704043 0.59658515 -0.51704043 -0.43749577 -0.039772343 -2.2272513
0.43749577 0.51704043 0.119317025 -0.59658515 0.079544686 -0.7954469 -0.39772344 0.9545362
0.079544686 -0.2784064 0.6363575 -0.5568128 -1.2329426 -0.039772343 -0.35795107 -0.71590215
-0.0 0.43749577 -0.8352192 0.079544686 0.23863405 -0.31817874 0.35795107 -0.31817874
-0.119317025 -0.6363575 0.119317025 0.35795107 0.31817874 0.19886172 0.71590215 -0.119317025
0.4772681 -0.079544686 -0.59658515 0.31817874 -0.91476387 -0.039772343 -1.4318043 -2.1874788

/fc/weight_quant/tensor_quant/int_quant/Mul_output_0 f4 [5, 16]
00000000: bcf4 0b40 b612 aa3d 7322 d8bf 43ba 0dbf
00000010: 43ba 8d3e 9053 0140 bbd9 e93f 9ec3 623e
00000020: 2a6b 463e 4781 4dbf 0d55 3f3f 9ec3 62bf
00000030: b612 2a3f 81ad 5bbf 5bee 32c0 8b71 9f3f
00000040: d328 313f f505 78bf 60d0 1440 7de6 9bbe
00000050: 2a6b 463f 0391 fbbf 6497 d4be 43ba 0d3f
00000060: 6497 d43e 43ba 0dbe d8ef 703f ffc9 bbbf
00000070: 6497 d43e 7de6 9b3e 9ec3 623f 17fe 60c0
00000080: 9fde 04c0 f520 1ac0 7de6 1b3f 9ec3 e2be
00000090: 60d0 14bf 8b71 1fc0 2a6b 46be bbd9 693f
000000a0: 1719 83bf 81ad 5b3f 9ec3 623f d8ef f03f
000000b0: 8b71 9fbf 4781 4d3f 121c 7fbe d328 b13f
000000c0: 6497 d4bf bbd9 693f d8ef f0be 43ba 8d3f
000000d0: 9ec3 e23e b612 aa3f 121c 7fbf 9afc 22c0
000000e0: bbd9 693f 60d0 143f ad69 08c0 5145 913f
000000f0: 26a4 063f 560c d1bf d8ef 703f 9ec3 e23d
00000100: 9ec3 e23e e795 1640 6497 d4bf 9afc 223f
00000110: 560c d1bf d328 b13f 121c 7fbe 121c 7f3e
00000120: 7de6 9bbf b612 aabe b612 2abf 6497 d4bf
00000130: 9ec3 e2be c59d ad3f 5145 913f 2a6b 463e
2.1868124 0.0830435 -1.6885513 -0.5536234 0.2768117 2.0207253 1.8269571 0.22144935
0.19376817 -0.80275387 0.7473915 -0.8857974 0.664348 -0.8581162 -2.795798 1.2456526
0.6920292 -0.9688409 2.3252182 -0.30449286 0.7750727 -1.9653629 -0.41521752 0.5536234
0.41521752 -0.13840584 0.9411597 -1.4671019 0.41521752 0.30449286 0.8857974 -3.5155084
-2.0760877 -2.4082615 0.6089857 -0.4428987 -0.58130455 -2.491305 -0.19376817 0.91347855
-1.0242032 0.8581162 0.8857974 1.8823195 -1.2456526 0.80275387 -0.24913052 1.3840584
-1.6608701 0.91347855 -0.47057986 1.1072468 0.4428987 1.328696 -0.99652207 -2.5466676
0.91347855 0.58130455 -2.13145 1.1349279 0.5259422 -1.633189 0.9411597 0.11072467
0.4428987 2.3528993 -1.6608701 0.6366669 -1.633189 1.3840584 -0.24913052 0.24913052
-1.2179714 -0.332174 -0.664348 -1.6608701 -0.4428987 1.3563772 1.1349279 0.19376817
