finn/build_pynq/intermediate_models/step_streamline.onnx (onnx, 36047 bytes, 26 tensors)

Mul_0_param0 f4 [4]
000000 a8 13 8e 3f 94 6a e3 3f 5f 68 77 3f 94 7e 18 3f
       1.1099749 1.77669 0.9664363 0.5956814

Add_1_param0 f4 [4]
000000 d2 77 a6 3e 23 9d dc bb d4 6d 27 bf ec 36 bb bd
       0.3251329 -0.0067325993 -0.6540196 -0.09141335

Mul_1_param0 f4 [4]
000000 3a d9 a8 3e 6a 63 87 3f ff 98 6c 3f 94 cd 90 3e
       0.3297823 1.0577214 0.92420954 0.28281844

Add_2_param0 f4 [4]
000000 db 2a ad 3d 63 d8 1e 3f 05 09 64 3d 69 ec 08 bf
       0.0845544 0.6204893 0.055672664 -0.53485733

Mul_2_param0 f4 [8]
000000 4c 64 9c 3f 19 17 45 3f b2 2e 6e 3f 40 50 7f 3f
       1.2218108 0.7698837 0.9304 0.99731827
000010 b1 19 be 3f df 49 92 3f d9 b0 57 3f d2 ad 90 3f
       1.485159 1.1428794 0.84254223 1.1303046

Add_5_param0 f4 [8]
000000 fc 1e 88 3e d1 bb ac be ba 53 2b be c5 70 0e 3e
       0.2658614 -0.33737043 -0.16731158 0.13910206
000010 74 ff 86 bd 0f 38 8f be 7b 09 27 3f b6 58 d2 be
       -0.065916926 -0.27972457 0.6524884 -0.41083306

Mul_3_param0 f4 [8]
000000 79 50 9c 3f a3 4f ec 3f fc dc ac 3f f9 b7 8f 3f
       1.2212058 1.8461803 1.3504939 1.1228019
000010 97 4d 92 3f 1d 3f 1e 3f 5e 42 e1 3f 13 83 e0 3f
       1.1429929 0.61815053 1.7598379 1.7540001

Add_6_param0 f4 [8]
000000 81 56 c1 be a1 08 25 3d c0 98 41 be 22 38 24 bf
       -0.3776131 0.040291432 -0.18905926 -0.6414815
000010 bd bf 2e be c0 7c 87 bf e3 f5 fd be 54 c6 17 3f
       -0.1706533 -1.0584946 -0.4960166 0.59287

Mul_4_param0 f4 [16]
000000 a1 2d 78 3f ea 52 4d 3f fa ef 26 3f ca ae 99 3f
       0.96944624 0.8020464 0.65209925 1.2006466
000010 aa cc 93 3f 31 d8 aa 3f c8 e1 65 3f 14 a9 4f 3f
       1.1546834 1.3347226 0.8979764 0.8111737
000020 cc cb 9b 3f bf 21 a1 3f 22 8a 2c 3f d4 db 87 3f
       1.2171569 1.2588423 0.67398274 1.0613961
000030 15 1c 34 3f 91 3b 98 3f 55 49 81 3f 36 de 59 3f
       0.7035535 1.1893178 1.0100504 0.8510469

Add_9_param0 f4 [16]
000000 b7 30 7b 3e 7c 27 db 3d 69 5a 07 3f 99 28 dd be
       0.24530302 0.107008904 0.5287233 -0.43195036
000010 27 4f b3 bd df 29 d7 3e 2f 05 3e bf 8f 11 47 3f
       -0.087553315 0.42024133 -0.7422666 0.7776117
000020 ca 0b 98 3e 0c a2 34 bf 0d 54 2d bf dc 08 74 be
       0.29696494 -0.70559764 -0.67706376 -0.23831505
000030 c6 b7 1b 3f 1f 9f e4 bd 44 ce 06 bf 7a ab b5 3e
       0.6082729 -0.111631624 -0.52658486 0.3548239

Mul_5_param0 f4 [16]
000000 e7 c8 96 40 0d ce 71 40 62 e8 cb 3f 42 32 87 40
       4.712024 3.7782013 1.5930293 4.224885
000010 e0 25 71 40 89 a9 70 40 dd 40 86 40 8a 03 80 40
       3.7679367 3.7603476 4.195418 4.000432
000020 01 fd 5c 40 3a cb 89 40 ed 28 71 40 f4 6f 45 40
       3.4529421 4.306058 3.768123 3.084958
000030 19 f9 e6 3f 6a 50 41 40 c7 f1 80 40 f3 35 45 40
       1.8044769 3.020533 4.029514 3.0814178

Add_10_param0 f4 [16]
000000 c3 01 38 be 1f 91 43 bc 1d 7a b3 bc eb bd 9a bd
       -0.17969422 -0.011936455 -0.021908814 -0.07555755
000010 f5 7a 06 3e b3 44 68 3e 20 56 2c be 99 8a a5 3e
       0.13132842 0.22682457 -0.16829729 0.32332304
000020 04 99 eb 3d 35 9b 12 3f 19 f9 a1 3e b0 79 b7 3e
       0.11503795 0.5726808 0.3163536 0.35835028
000030 45 09 d2 3e d2 18 03 3e 16 34 22 3e 58 5c b3 3d
       0.41022697 0.12802437 0.15840182 0.087578475

Gemm_0_param1 f4 [5]
000000 f3 ec a5 be 7d 23 4e 3e b7 42 91 3b f4 4c 21 be
       -0.3240734 0.20130725 0.004433002 -0.15752012
000010 1a d7 84 3e
       0.2594536

Gemm_0_param0 f4 [5, 16]
000000 f6 d3 53 3f a0 98 df 3e a2 4a 3c 3e f6 d3 53 be
       0.827453 0.4367113 0.18387845 -0.20686325
000010 a2 4a 3c 3d 22 77 b3 bf a4 fc 98 3f a4 55 07 3f
       0.045969613 -1.4020731 1.19521 0.5286505
000020 4a 04 7d 3f 0d d2 3a 40 f9 de 1e bf fa 37 8d bf
       0.9883467 2.9190705 -0.6205898 -1.1032708
000030 a4 55 07 3f 4c 0f c8 bf b9 a1 11 c0 79 0b 96 3f
       0.5286505 -1.5629668 -2.2754958 1.1722251
000040 cb 89 e2 3f fa 37 0d 3e 4a 5d 6b 3e a2 4a bc 3e
       1.7698301 0.13790885 0.22984806 0.3677569
000050 fa 37 0d 3e a4 fc 98 be 4a 5d eb bf 76 a7 dc 3f
       0.13790885 -0.2988025 -1.8387845 1.7238605
000060 a2 4a 3c 3e 0d d2 3a c0 e4 92 14 c0 a4 55 87 bf
       0.18387845 -2.9190705 -2.3214655 -1.057301
000070 fa 37 8d bf 4e c1 24 be f9 de 1e 40 fa 37 8d 3f
       -1.1032708 -0.16089365 2.4823592 1.1032708
000080 f7 2c c2 bf fa 37 0d c0 f5 7a 65 bf e5 eb 02 40
       -1.5169972 -2.2065415 -0.8964074 2.0456479
000090 76 a7 dc bf f7 2c c2 3f cb 89 e2 3f a0 3f 71 bf
       -1.7238605 1.5169972 1.7698301 -0.9423771
0000a0 ca 30 f4 bf a0 3f f1 bf a4 fc 18 3f 4c 0f c8 3e
       -1.9077389 -1.8847542 0.597605 0.3907417
0000b0 f8 85 30 3f a0 98 df 3e 4f 73 81 3e 4a 5d 6b 3e
       0.6895442 0.4367113 0.25283286 0.22984806
0000c0 4c 0f c8 bf 4f 1a 13 40 f5 21 f7 3e f6 d3 53 be
       -1.5629668 2.2984807 0.48268095 -0.20686325
0000d0 a4 fc 18 bf f5 21 77 3f f6 d3 d3 bf f7 2c 42 3f
       -0.597605 0.9653619 -1.654906 0.7584986
0000e0 f6 d3 53 3f a2 4a 3c bd 75 4e ee 3f 23 d0 a1 3f
       0.827453 -0.045969613 1.8617693 1.2641643
0000f0 4f 73 01 bf fa 37 0d bf a3 a3 aa bf cf 46 0a c0
       -0.5056657 -0.5516354 -1.3331188 -2.1605718
000100 f5 21 77 bf 4f 73 81 be a2 4a 3c be 4f 1a 13 c0
       -0.9653619 -0.25283286 -0.18387845 -2.2984807
000110 ca 30 f4 3f a0 3f 71 bf f6 d3 d3 3e 24 29 10 c0
       1.9077389 -0.9423771 0.4137265 -2.252511
000120 4a 5d eb bd a1 f1 cd 3f a2 4a bc bd 4c 0f 48 3f
       -0.11492403 1.6089364 -0.091939226 0.7814834
000130 4a 5d eb 3d ce ed 9b 3f a1 f1 4d 3f a3 a3 2a bf
       0.11492403 1.2181947 0.8044682 -0.6665594

Add_0_param0 f4 [1, 4, 1, 1]
000000 2e a9 d9 3e 6b da a8 bf 09 e7 5c bf eb 09 58 be
       0.42511886 -1.3191656 -0.8629003 -0.21097533

Add_4_param0 f4 [1, 8, 1, 1]
000000 f8 ec 29 3d 14 a9 87 3e 8a dc 9e bd 8e 29 14 3f
       0.041485757 0.26496184 -0.07756908 0.5787591
000010 67 d1 a3 bd 0b a8 5b 3f a0 3e 25 ba a5 fa 02 be
       -0.07998925 0.8580329 -0.00063035823 -0.12790926

Add_8_param0 f4 [1, 16, 1, 1]
000000 56 44 8b be e8 26 1b 3d 4f 76 08 bf b0 c8 00 3e
       -0.27200574 0.0378789 -0.53305525 0.12576556
000010 c5 ef f1 be e8 e2 c3 3e 47 ea f5 be 2b d5 2b 3e
       -0.47253242 0.38259053 -0.48030302 0.16780536
000020 67 a6 c9 3c f1 f4 37 bf d2 0e 15 be 94 2d 96 3e
       0.02461548 -0.71858126 -0.14556435 0.29331648
000030 0d d9 11 3e 3f 31 d3 3e df 43 87 be 22 ba 0e bf
       0.14242955 0.4124851 -0.2641897 -0.55752766

MatMul_1_param0 f4 [5, 4]
000000 0e 31 df 3b 2d 23 29 3f 4a b4 5b bf 53 5e 2e bf
       0.0068112677 0.660693 -0.85821974 -0.6811268
000010 1f 24 ed be a9 7e 0b bd a9 7e 8b be 0e 31 df bc
       -0.4631662 -0.03405634 -0.27245072 -0.02724507
000020 64 51 3c bf ca 64 27 be a0 d4 b8 3e 75 44 4a 3f
       -0.7356169 -0.16347042 0.3609972 0.7901071
000030 20 85 84 be a9 7e 0b 3d 42 6b a0 3e a0 d4 b8 3e
       -0.25882816 0.03405634 0.3133183 0.3609972
000040 ac 72 5d 3f 23 79 56 bf 0e 31 df 3d 0e 31 df bd
       0.865031 -0.8377859 0.10898028 -0.10898028

MatMul_0_param0 f4 [1, 4]
000000 65 8b 02 3f a9 38 79 be 07 e2 3d bd 43 66 bc 3f
       0.5099395 -0.2433802 -0.046358135 1.4718708

MatMul_2_param0 f4 [20, 4]
000000 bd 0c 15 be 24 72 37 3c 9b 95 89 bd bd 0c 15 3e
       -0.1455564 0.011196647 -0.06717988 0.1455564
000010 68 60 ce be 9b 95 89 3e 71 3f a6 be 60 81 76 3f
       -0.40307927 0.26871952 -0.32470277 0.9629116
000020 e0 83 a0 3e 46 e9 42 bf 5b 94 34 3f 46 e9 42 bf
       0.31350613 -0.76137197 0.7053887 -0.76137197
000030 24 72 37 bc 8b d7 59 3e 24 72 b7 bd 64 73 0c bf
       -0.011196647 0.2127363 -0.089573175 -0.5486357
000040 46 e9 42 3e 5b 94 34 bf b5 2d bd 3e fa 1b d4 3e
       0.19034299 -0.7053887 0.36948934 0.41427594
000050 46 e9 42 be f2 3c 7c 3e f2 3c fc be f2 3c fc 3e
       -0.19034299 0.24632624 -0.49265248 0.49265248
000060 ad 4e 65 bd ad 4e 65 3d 4e c8 1a 3f 1c 93 df be
       -0.055983234 0.055983234 0.6046189 -0.43666923
000070 bd 0c 15 be 02 fb 2b 3f ad 4e 65 bd 68 60 ce be
       -0.1455564 0.6717988 -0.055983234 -0.40307927
000080 cf c5 70 3e 40 03 b6 bf 9b 95 09 3f 68 60 ce 3d
       0.23512958 -1.4219742 0.53743905 0.10076982
000090 02 fb 2b be 8b d7 59 3e 93 b6 31 bf 02 fb 2b 3e
       -0.1679497 0.2127363 -0.6941921 0.1679497
0000a0 46 e9 c2 be 68 60 ce bd e4 70 62 3f 68 60 4e be
       -0.38068599 -0.10076982 0.8845351 -0.20153964
0000b0 cf c5 70 be 17 a6 1d 3f d7 a4 c8 be 9b 95 09 be
       -0.23512958 0.6158156 -0.39188263 -0.13435976
0000c0 02 fb 2b 3e 9b 95 09 bf ad 4e e5 3e d7 a4 c8 be
       0.1679497 -0.53743905 0.44786587 -0.39188263
0000d0 68 60 ce bd 0a da 83 3e bd 0c 15 bf 39 1d 29 3f
       -0.10076982 0.25752288 -0.5822256 0.66060215
0000e0 4e c8 9a be 24 72 37 3c d2 b7 06 3f ad 4e 65 be
       -0.30230945 0.011196647 0.5262424 -0.22393294
0000f0 9b 95 89 bd 9b 95 09 3e 9b 95 89 3d ad 4e e5 bd
       -0.06717988 0.13435976 0.06717988 -0.11196647
000100 e0 83 a0 3d 24 72 37 3d 24 72 b7 3c 86 ea 17 bf
       0.07837653 0.044786587 0.022393294 -0.5934223
000110 46 e9 c2 be 0a da 03 3f b7 26 88 bf 4e c8 9a 3f
       -0.38068599 0.51504576 -1.0636815 1.2092378
000120 24 72 37 bc 0a da 03 bf 98 a3 73 3f fa 1b d4 be
       -0.011196647 -0.51504576 0.951715 -0.41427594
000130 46 e9 42 be ad 4e 65 be d2 b7 06 3f 02 fb ab be
       -0.19034299 -0.22393294 0.5262424 -0.3358994

MatMul_4_param0 f4 [20, 8]
000000 d7 3b 9c be dd 60 03 3f c4 3f e3 bc c6 25 dc be
       -0.30514404 0.51319677 -0.027740367 -0.4299757
000010 d7 3b 9c 3e d5 55 a3 3e d3 6f 2a 3e c0 73 f1 be
       0.30514404 0.31901422 0.1664422 -0.47158623
000020 cc d7 46 be c0 73 71 3e c4 3f e3 bd c8 0b 55 3e
       -0.19418257 0.23579311 -0.11096147 0.20805275
000030 c4 3f 63 3d d3 6f aa 3d cc d7 c6 be d3 6f 2a 3e
       0.055480734 0.0832211 -0.38836515 0.1664422
000040 c4 3f 63 be da 07 0e be c4 3f 63 3e dc ed 86 3e
       -0.22192293 -0.13870183 0.22192293 0.26353347
000050 d3 6f aa 3e c4 3f 63 3d d1 89 31 bf c4 3f e3 3d
       0.3328844 0.055480734 -0.69350916 0.11096147
000060 da 07 8e 3e da 07 0e 3f dc ed 86 be d7 3b 1c bf
       0.27740365 0.5548073 -0.26353347 -0.6102881
000070 da 07 8e bd cc 4a 43 3f dc ed 06 bf d8 ae 18 3f
       -0.06935091 0.76286006 -0.52706695 0.5964179
000080 d3 6f 2a bd d3 6f 2a 3d dd 60 03 3f c4 3f e3 bc
       -0.04161055 0.04161055 0.51319677 -0.027740367
000090 bc a7 ff 3d c8 0b d5 be da 07 8e bd d9 21 95 be
       0.12483165 -0.4161055 -0.06935091 -0.29127386
0000a0 d3 6f 2a 3e d7 3b 9c be c4 3f 63 bd da 07 0e be
       0.1664422 -0.30514404 -0.055480734 -0.13870183
0000b0 d1 89 b1 3e cf a3 38 be db 7a 0a bf cd bd bf 3e
       0.34675458 -0.18031238 -0.5409371 0.37449494
0000c0 c4 3f 63 3d c4 3f e3 3d cc d7 46 3e cc d7 c6 3d
       0.055480734 0.11096147 0.19418257 0.09709129
0000d0 cd bd bf 3e da 07 8e be c4 3f e3 3d d3 6f 2a 3e
       0.37449494 -0.27740365 0.11096147 0.1664422
0000e0 c4 3f 63 bd cf a3 38 be c0 73 71 be bc a7 ff 3e
       -0.055480734 -0.18031238 -0.23579311 0.4993266
0000f0 d3 6f aa bd c4 3f 63 3c cf a3 b8 3e dc ed 86 3e
       -0.0832211 0.013870183 0.36062476 0.26353347
000100 bc a7 7f be c6 25 dc be cc d7 46 3e c4 3f 63 3e
       -0.2496633 -0.4299757 0.19418257 0.22192293
000110 00 00 00 00 cc d7 c6 bd bc a7 7f 3e da 07 0e 3e
       0.0 -0.09709129 0.2496633 0.13870183
000120 d2 fc 2d bf bc a7 ff bd d9 21 95 3f c4 3f 63 3d
       -0.679639 -0.12483165 1.1650954 0.055480734
000130 c4 3f 63 3e d0 16 35 bf d7 3b 1c bf da 07 8e 3e
       0.22192293 -0.70737934 -0.6102881 0.27740365
000140 d7 3b 9c 3e da 07 8e be cc d7 46 bf c4 3f e3 bc
       0.30514404 -0.27740365 -0.7767303 -0.027740367
000150 cf a3 b8 3e d7 3b 1c 3e c8 0b 55 be c4 3f 63 3e
       0.36062476 0.15257202 -0.20805275 0.22192293
000160 ca f1 cd 3e c4 3f 63 bc d3 6f aa be cf a3 b8 3e
       0.40223533 -0.013870183 -0.3328844 0.36062476
000170 cc d7 c6 be c4 3f 63 bd d1 89 b1 3e ca f1 cd be
       -0.38836515 -0.055480734 0.34675458 -0.40223533
000180 da 07 0e be cd bd bf be d9 21 95 3e c4 3f 63 3c
       -0.13870183 -0.37449494 0.29127386 0.013870183
000190 da 07 8e bd d3 6f 2a 3e c4 3f 63 bd d3 6f 2a bd
       -0.06935091 0.1664422 -0.055480734 -0.04161055
0001a0 bc a7 ff bd cb 64 4a 3f da 07 0e 3f 00 00 00 00
       -0.12483165 0.7906005 0.5548073 0.0
0001b0 c4 3f 63 3d c4 3f 63 be d9 21 95 be c4 3f 63 3c
       0.055480734 -0.22192293 -0.29127386 0.013870183
0001c0 d7 3b 9c 3e c0 73 f1 be c0 73 71 be d7 3b 1c be
       0.30514404 -0.47158623 -0.23579311 -0.15257202
0001d0 d7 3b 1c 3e c4 3f e3 bd cc d7 c6 bd bc a7 ff 3d
       0.15257202 -0.11096147 -0.09709129 0.12483165
0001e0 d3 6f 2a bf d5 55 23 bf c4 3f e3 3e bc a7 ff 3e
       -0.6657688 -0.63802844 0.44384587 0.4993266
0001f0 da 94 91 3f da 07 8e bd db 7a 0a bf d3 6f aa 3d
       1.1373551 -0.06935091 -0.5409371 0.0832211
000200 d3 6f 2a 3e da 07 0e be c4 3f e3 3e c8 0b 55 be
       0.1664422 -0.13870183 0.44384587 -0.20805275
000210 d9 21 95 be da 07 0e 3e c4 3f 63 3e c4 3f 63 3e
       -0.29127386 0.13870183 0.22192293 0.22192293
000220 ce 30 3c bf ca f1 cd be c8 0b d5 3f cf a3 38 be
       -0.7351197 -0.40223533 1.664422 -0.18031238
000230 c7 98 d8 3f d3 6f 2a 3d cf a3 38 bf cf a3 b8 3e
       1.6921624 0.04161055 -0.7212495 0.36062476
000240 bc a7 ff 3d da 07 8e 3e c4 3f e3 3d d3 6f aa be
       0.12483165 0.27740365 0.11096147 -0.3328844
000250 bc a7 ff bd c4 3f e3 3c d5 55 a3 be c4 3f 63 bd
       -0.12483165 0.027740367 -0.31901422 -0.055480734
000260 ca f1 4d 3f 44 79 e1 3f dd 60 03 bf d4 e2 26 bf
       0.80447066 1.7615132 -0.51319677 -0.6518986
000270 c4 3f e3 be bc a7 7f 3e 5e 9a 81 bf c4 3f e3 3d
       -0.44384587 0.2496633 -1.0125234 0.11096147

MatMul_3_param0 f4 [4, 8]
000000 b7 4c a9 bf 44 f8 17 bf 0b f7 af be ac f8 0f bf
       -1.3226537 -0.593632 -0.34368166 -0.5623882
000010 d9 48 f5 be 7a 4a d5 3d eb 4c a5 3e 4a 4b 45 bf
       -0.4790714 0.10414596 0.32285246 -0.77068007
000020 9c a3 8a be fb a1 aa bc 9c a3 0a 3e bc 4d 95 bd
       -0.2707795 -0.020829191 0.13538975 -0.07290217
000030 fb a1 2a 3d 00 00 00 00 b9 9e ea bd 34 a3 92 bf
       0.041658383 0.0 -0.11456055 -1.1456056
000040 b9 9e 6a bf 99 f4 5f 3e f8 f2 7f bd eb 4c a5 be
       -0.9164844 0.2187065 -0.062487572 -0.32285246
000050 f8 f2 ff 3d c2 a0 42 bf db f7 1f 3e bc 4d 95 be
       0.124975145 -0.76026547 0.15621893 -0.2916087
000060 f8 f2 ff 3e b9 9e 6a be 3a f6 bf bd f8 f2 7f 3d
       0.49990058 -0.2291211 -0.09373136 0.062487572
000070 bc 4d 95 3d db f7 1f be 3a f6 3f 3e 2b a1 ba 3e
       0.07290217 -0.15621893 0.18746272 0.36451086

MatMul_5_param0 f4 [40, 8]
000000 62 ac 4e bc 10 ec 27 3e bd 2b 01 be 9c c1 41 3f
       -0.012614341 0.16398644 -0.12614341 0.7568605
000010 20 a1 87 3e a0 bc 6b bf bd 2b 01 be 4a 01 9b 3e
       0.26490116 -0.92084694 -0.12614341 0.3027442
000020 e6 8b 94 3e 00 00 00 00 ee 81 68 bf 62 ac ce 3e
       0.29012984 0.0 -0.90823257 0.40365893
000030 62 ac 4e 3c 87 11 38 3f 4a 01 1b be bd 2b 81 3d
       0.012614341 0.71901745 -0.1513721 0.063071705
000040 bd 2b 01 be ee 81 e8 3d 62 ac 4e bd 28 97 db be
       -0.12614341 0.11352907 -0.050457366 -0.4288876
000050 83 16 0e 3e 83 16 0e 3e 73 61 ae 3e ee 81 68 bf
       0.13875775 0.13875775 0.34058723 -0.90823257
000060 83 16 0e 3e 10 ec 27 be 79 3e 89 3f d6 d6 34 bf
       0.13875775 -0.16398644 1.072219 -0.70640314
000070 ee 81 e8 bd bd 2b 01 be 62 ac ce 3c bd 2b 81 3e
       -0.11352907 -0.12614341 0.025228683 0.25228682
000080 62 ac 4e 3e 4a 01 1b be ad 76 a1 3e b7 4e a6 bf
       0.20182946 -0.1513721 0.31535855 -1.2992772
000090 d6 d6 34 bf c5 21 d5 3e bd 2b 81 bd 20 a1 87 be
       -0.70640314 0.41627327 -0.063071705 -0.26490116
0000a0 4a 01 9b bd 83 16 0e be 98 c6 17 bf c8 03 86 3f
       -0.07568605 -0.13875775 -0.59287405 1.0469904
0000b0 b4 6c f5 be 10 ec a7 be d6 d6 34 3e d6 d6 b4 3d
       -0.47934496 -0.3279729 0.17660078 0.08830039
0000c0 39 4c bb be 62 ac 4e 3e 6f 66 04 3f 62 ac ce bd
       -0.3658159 0.20182946 0.517188 -0.10091473
0000d0 ff 36 c8 3e b4 6c 75 be ee 81 68 be 62 ac ce 3c
       0.3910446 -0.23967248 -0.22705814 0.025228683
0000e0 4a 01 1b 3d e6 8b 94 be 83 16 0e bf 8b 0c 62 3f
       0.037843026 -0.29012984 -0.555031 0.8830039
0000f0 10 ec 27 be b4 6c 75 3e b4 6c 75 3e 10 ec a7 3e
       -0.16398644 0.23967248 0.23967248 0.3279729
000100 28 97 db be 9c c1 c1 3e d6 d6 b4 be 20 a1 87 3e
       -0.4288876 0.37843025 -0.35320157 0.26490116
000110 62 ac ce 3e 51 f7 ee be e6 8b 94 3e ee 81 68 3e
       0.40365893 -0.46673062 0.29012984 0.22705814
000120 d6 d6 34 3e 10 ec 27 3e bd 2b 01 3e 4a 01 9b 3e
       0.17660078 0.16398644 0.12614341 0.3027442
000130 28 97 5b be 39 4c 3b bf 73 61 ae be 62 ac 4e bc
       -0.2144438 -0.7316318 -0.34058723 -0.012614341
000140 9c c1 41 3e 4a 01 1b 3d 4a 01 1b be d6 d6 34 be
       0.18921512 0.037843026 -0.1513721 -0.17660078
000150 62 ac ce 3e 6f 66 04 3f d6 d6 b4 bd 14 e7 51 bf
       0.40365893 0.517188 -0.08830039 -0.8199322
000160 83 16 0e be 62 ac 4e be ad 76 a1 3e 62 ac ce bd
       -0.13875775 -0.20182946 0.31535855 -0.10091473
000170 ee 81 68 be 4a 01 9b 3d 62 ac ce 3d 62 ac ce 3c
       -0.22705814 0.07568605 0.10091473 0.025228683
000180 ff 36 c8 3e b4 6c 75 be 4a 01 9b bd 83 16 8e 3e
       0.3910446 -0.23967248 -0.07568605 0.2775155
000190 83 16 8e be fb 3b 1e 3f fb 3b 1e bf 28 97 5b be
       -0.2775155 0.6181027 -0.6181027 -0.2144438
0001a0 bd 2b 81 3e 4a 01 9b 3d 9c c1 41 be 28 97 5b be
       0.25228682 0.07568605 -0.18921512 -0.2144438
0001b0 62 ac ce bc 62 ac 4e bf bd 2b 01 3e d6 d6 b4 3e
       -0.025228683 -0.80731785 0.12614341 0.35320157
0001c0 51 f7 ee be 83 16 0e be 62 ac ce 3d 83 16 0e be
       -0.46673062 -0.13875775 0.10091473 -0.13875775
0001d0 d6 d6 34 3e ee 81 68 be ff 36 c8 3e 62 ac ce bc
       0.17660078 -0.22705814 0.3910446 -0.025228683
0001e0 4a 01 1b be d6 d6 b4 3d ad 76 a1 3e b4 6c f5 be
       -0.1513721 0.08830039 0.31535855 -0.47934496
0001f0 20 a1 87 be 20 a1 07 3f 62 ac ce bc 00 00 00 80
       -0.26490116 0.5298023 -0.025228683 -0.0
000200 bd 2b 81 bd 73 61 ae 3e 28 97 5b 3e 4a 01 9b bd
       -0.063071705 0.34058723 0.2144438 -0.07568605
000210 51 f7 ee 3e 62 ac 4e 3c 4a 01 9b bd 83 16 0e 3e
       0.46673062 0.012614341 -0.07568605 0.13875775
000220 62 ac ce bc 83 16 8e be b4 6c f5 3e 62 ac 4e 3d
       -0.025228683 -0.2775155 0.47934496 0.050457366
000230 28 97 5b be 8e ee 92 bf 62 ac 4e 3d 10 ec a7 3e
       -0.2144438 -1.1479051 0.050457366 0.3279729
000240 ad 76 a1 3e 00 00 00 80 4a 01 9b bd b4 6c 75 be
       0.31535855 -0.0 -0.07568605 -0.23967248
000250 62 ac ce 3c 17 e2 fb 3e bd 2b 01 3e 77 5c 58 bf
       0.025228683 0.4919593 0.12614341 -0.8451609
000260 73 61 ae be 4a 01 1b be 10 ec 27 be 73 61 ae 3e
       -0.34058723 -0.1513721 -0.16398644 0.34058723
000270 00 00 00 00 62 ac ce 3d ad 76 a1 3e 10 ec 27 3e
       0.0 0.10091473 0.31535855 0.16398644
000280 ff 36 c8 3e bd 2b 81 3d 83 16 0e 3e ee 81 e8 be
       0.3910446 0.063071705 0.13875775 -0.45411628
000290 6f 66 04 bf b4 6c f5 3e ee 81 68 be ad 76 a1 be
       -0.517188 0.47934496 -0.22705814 -0.31535855
0002a0 4a 01 9b 3d 9c c1 c1 3e 51 f7 ee 3e ad 76 a1 3e
       0.07568605 0.37843025 0.46673062 0.31535855
0002b0 62 ac ce bc 8b 0c 62 bf 4d fc 44 bf 10 ec a7 3e
       -0.025228683 -0.8830039 -0.7694748 0.3279729
0002c0 83 16 8e be ee 81 e8 bd 62 ac 4e bf 5e b1 24 3f
       -0.2775155 -0.11352907 -0.80731785 0.6433314
0002d0 98 c6 17 3f c1 26 2b 3f ee 81 e8 3e bd 2b 81 3d
       0.59287405 0.6685601 0.45411628 0.063071705
0002e0 4a 01 1b be ee 81 e8 3e 4d fc 44 3f 62 ac 4e bf
       -0.1513721 0.45411628 0.7694748 -0.80731785
0002f0 fb 3b 1e bf c5 21 55 bf 20 a1 87 3e 28 97 5b 3e
       -0.6181027 -0.83254653 0.26490116 0.2144438
000300 fb 3b 1e bf ee 81 68 3e bd 2b 01 3e b4 6c 75 bf
       -0.6181027 0.22705814 0.12614341 -0.9586899
000310 bd 2b 81 3d 83 16 0e be b0 71 4b 3f d6 d6 b4 bd
       0.063071705 -0.13875775 0.7947035 -0.08830039
000320 e6 8b 94 3e 4a 01 9b bd bd 2b 81 be ff 36 c8 be
       0.29012984 -0.07568605 -0.25228682 -0.3910446
000330 62 ac 4e 3d ad 76 21 bf ad 76 21 3f 9c c1 c1 3e
       0.050457366 -0.6307171 0.6307171 0.37843025
000340 28 97 db 3e 9c c1 41 3e 62 ac ce 3d 4a 01 1b be
       0.4288876 0.18921512 0.10091473 -0.1513721
000350 62 ac 4e 3c e6 8b 14 3f 14 e7 51 bf c1 26 2b bf
       0.012614341 0.5802597 -0.8199322 -0.6685601
000360 b4 6c f5 be 28 97 5b be ad 76 a1 3e b4 6c f5 3e
       -0.47934496 -0.2144438 0.31535855 0.47934496
000370 62 ac ce 3c 9c c1 41 be 9c c1 c1 3e d6 d6 b4 bd
       0.025228683 -0.18921512 0.37843025 -0.08830039
000380 d2 db 0a 3f 62 ac 4e bc 4a 01 1b 3e 62 ac 4e 3d
       0.5424167 -0.012614341 0.1513721 0.050457366
000390 ad 76 a1 be 28 97 db 3e ea 86 3e bf bd 2b 81 bd
       -0.31535855 0.4288876 -0.7442461 -0.063071705
0003a0 9c c1 41 3e d6 d6 b4 3d 4a 01 9b be 9c c1 c1 3e
       0.18921512 0.08830039 -0.3027442 0.37843025
0003b0 d6 d6 b4 bd 39 4c bb be 17 e2 fb be bd 2b 01 3e
       -0.08830039 -0.3658159 -0.4919593 0.12614341
0003c0 ff 36 c8 be 28 97 db be bd 2b 01 bf 77 5c 58 3f
       -0.3910446 -0.4288876 -0.50457364 0.8451609
0003d0 bd 2b 81 3e d6 d6 34 3e 62 ac 4e bd 62 ac 4e 3c
       0.25228682 0.17660078 -0.050457366 0.012614341
0003e0 9c c1 41 be 4d fc 44 3f 10 ec 27 3e ee 81 e8 3d
       -0.18921512 0.7694748 0.16398644 0.11352907
0003f0 62 ac 4e bc 51 f7 ee be e6 8b 94 be 62 ac 4e bd
       -0.012614341 -0.46673062 -0.29012984 -0.050457366

MatMul_7_param0 f4 [40, 16]
000000 9f 83 60 bc 9a 5e 21 3f d9 8b 6e 3e b7 62 28 bd
       -0.013703256 0.63034976 0.23295535 -0.041109767
000010 9f 83 60 bc 26 4e 85 be 26 4e 85 be 9f 83 e0 3d
       -0.013703256 -0.26036185 -0.26036185 0.10962605
000020 9f 83 60 3d f6 8f f5 be 0e 6f 3d bf 13 94 7c 3e
       0.054813024 -0.47961396 -0.7399758 0.24665861
000030 9f 83 60 be 2b 73 44 3f 7d 5a 1a 3f d9 8b ee be
       -0.2192521 0.7673823 0.60294324 -0.4659107
000040 f6 8f f5 3e 26 4e 05 bf 8c dc 1d bf 35 d0 08 3f
       0.47961396 -0.5207237 -0.6166465 0.534427
000050 9f 83 e0 bc 13 94 7c 3e 43 52 8c 3d 13 94 fc bd
       -0.027406512 0.24665861 0.06851628 -0.123329304
000060 00 00 00 00 d9 8b 6e 3e 00 ed 39 bf b7 62 28 3e
       0.0 0.23295535 -0.7262726 0.16443907
000070 f6 8f f5 be 7d 5a 1a 3f 8c dc 9d 3f e7 0d 72 bf
       -0.47961396 0.60294324 1.233293 -0.94552463
000080 68 17 95 bf d4 66 2f bf 9f 83 60 bc d9 8b 6e 3e
       -1.1647768 -0.6851628 -0.013703256 0.23295535
000090 13 94 7c 3e 82 7f d9 be 9f 83 e0 3d 9f 83 e0 3c
       0.24665861 -0.42480093 0.10962605 0.027406512
0000a0 d9 8b ee be 7d 5a 9a 3e d4 66 af 3f b7 62 a8 3e
       -0.4659107 0.30147162 1.3703256 0.32887813
0000b0 7d 5a 1a 3f 7d 5a 9a 3e 35 d0 08 3f 9f 83 e0 be
       0.60294324 0.30147162 0.534427 -0.4385042
0000c0 d9 8b 6e 3e b7 62 a8 bd 18 cc 81 bf 13 94 fc bd
       0.23295535 -0.08221953 -1.014041 -0.123329304
0000d0 65 7b 52 3e 4b 13 8e bf 43 52 0c 3e d4 66 2f 3f
       0.20554884 -1.1099638 0.13703255 0.6851628
0000e0 00 00 00 80 65 7b 52 3e 11 0b 80 3f b7 62 a8 3e
       -0.0 0.20554884 1.0003377 0.32887813
0000f0 13 94 7c be 18 cc 81 3f 13 94 fc 3e 0e 6f bd 3e
       -0.24665861 1.014041 0.49331722 0.3699879
000100 43 52 0c bf b7 62 a8 3e 48 77 cb be 9f 83 e0 3e
       -0.5481302 0.32887813 -0.39739442 0.4385042
000110 43 52 0c bf 2b 73 44 3e 2b 73 c4 3e 43 52 0c bf
       -0.5481302 0.19184558 0.38369116 -0.5481302
000120 9f 83 e0 bc 0e 6f bd 3e 60 56 13 bf 2b 73 c4 bd
       -0.027406512 0.3699879 -0.5755367 -0.09592279
000130 d9 8b ee 3e b7 62 28 bd 65 7b 52 be d4 66 af be
       0.4659107 -0.041109767 -0.20554884 -0.3425814
000140 35 d0 88 3f 9f 83 60 3e 43 52 0c bf 26 4e 85 3e
       1.068854 0.2192521 -0.5481302 0.26036185
000150 43 52 8c bd 7d 5a 1a be 65 7b 52 3e 65 7b d2 3e
       -0.06851628 -0.15073581 0.20554884 0.41109768
000160 65 7b d2 be f1 6a 36 3e b7 62 28 3e 43 52 0c be
       -0.41109768 0.17814232 0.16443907 -0.13703255
000170 48 77 cb 3e 8c dc 1d bf f1 6a b6 3e 9f 83 e0 bd
       0.39739442 -0.6166465 0.35628465 -0.10962605
000180 9f 83 60 bf 0e 6f 3d bf a9 e0 a4 bf 9f 83 60 bd
       -0.8770084 -0.7399758 -1.2881061 -0.054813024
000190 9f 83 60 bd 26 4e 85 bf d9 8b ee 3e be 23 aa bf
       -0.054813024 -1.0414474 0.4659107 -1.3292158
0001a0 7d 5a 1a 3f 3a f5 47 3f 98 c2 de 3f 43 52 8c 3e
       0.60294324 0.7810856 1.7403135 0.2740651
0001b0 ca 09 6b bf 65 7b d2 3e 26 4e 85 3e 9f 83 60 bf
       -0.9181181 0.41109768 0.26036185 -0.8770084
0001c0 d9 8b 6e be 13 94 7c be 26 4e 05 3f b7 62 28 bf
       -0.23295535 -0.24665861 0.5207237 -0.65775627
0001d0 9f 83 e0 bd 60 56 93 3e 11 0b 80 bf cd a5 ad 3f
       -0.10962605 0.28776836 -1.0003377 1.3566223
0001e0 d4 66 2f 3f 8c dc 1d 3f f6 8f 75 bf 60 56 93 3e
       0.6851628 0.6166465 -0.9592279 0.28776836
0001f0 d9 8b 6e 3e 0e 6f bd be 43 52 8c 3d b7 62 28 be
       0.23295535 -0.3699879 0.06851628 -0.16443907
000200 b7 62 a8 bd 9f 83 60 3e 9f 83 60 3c 60 56 93 3e
       -0.08221953 0.2192521 0.013703256 0.28776836
000210 9f 83 e0 bd bc 87 e7 be 7d 5a 1a 3e 9f 83 e0 bd
       -0.10962605 -0.45220745 0.15073581 -0.10962605
000220 43 52 8c 3d 7d 5a 9a be 7d 5a 9a be b7 62 28 3e
       0.06851628 -0.30147162 -0.30147162 0.16443907
000230 43 52 8c bd 43 52 0c be 9f 83 60 3e 65 7b d2 be
       -0.06851628 -0.13703255 0.2192521 -0.41109768
000240 9f 83 60 be 13 94 fc bd 43 52 0c be b7 62 a8 3e
       -0.2192521 -0.123329304 -0.13703255 0.32887813
000250 82 7f d9 be 43 52 8c bd d9 8b ee 3e b7 62 a8 bd
       -0.42480093 -0.06851628 0.4659107 -0.08221953
000260 f6 8f f5 3e 13 94 fc bd b7 62 a8 be 65 7b 52 be
       0.47961396 -0.123329304 -0.32887813 -0.20554884
000270 9f 83 e0 3e f1 6a b6 be 82 7f 59 3f f1 6a 36 be
       0.4385042 -0.35628465 0.84960186 -0.17814232
000280 35 d0 08 bf 65 7b d2 be 9f 83 e0 3d 13 94 7c 3e
       -0.534427 -0.41109768 0.10962605 0.24665861
000290 d9 8b 6e be b7 62 28 bd bc 87 e7 3e 52 d4 0f bf
       -0.23295535 -0.041109767 0.45220745 -0.5618335
0002a0 13 94 fc 3d 43 52 0c be 91 01 5d 3f 43 52 8c bd
       0.123329304 -0.13703255 0.86330515 -0.06851628
0002b0 0e 6f 3d 3f 82 7f d9 3e 26 4e 05 bf b7 62 a8 3d
       0.7399758 0.42480093 -0.5207237 0.08221953
0002c0 3a f5 47 bf d9 8b ee be 9f 83 60 3c f1 6a 36 3e
       -0.7810856 -0.4659107 0.013703256 0.17814232
0002d0 52 d4 0f 3f 74 fd 55 bf 43 52 0c 3f 9f 83 60 3c
       0.5618335 -0.83589864 0.5481302 0.013703256
0002e0 7d 5a 1a be 13 94 fc bd d9 8b ee 3e b7 62 a8 3d
       -0.15073581 -0.123329304 0.4659107 0.08221953
0002f0 65 7b 52 3e 60 56 93 3e 48 77 4b 3f b7 62 28 3f
       0.20554884 0.28776836 0.79478884 0.65775627
000300 b7 62 a8 3e 7d 5a 1a 3f 48 77 cb 3e 9f 83 e0 bc
       0.32887813 0.60294324 0.39739442 -0.027406512
000310 9a 5e a1 be 60 56 93 3e 18 cc 01 bf 9f 83 e0 3d
       -0.31517488 0.28776836 -0.5070205 0.10962605
000320 9f 83 60 bd 2b 73 c4 bd 9f 83 60 be b7 62 28 bd
       -0.054813024 -0.09592279 -0.2192521 -0.041109767
000330 9f 83 e0 3d 2b 73 c4 be 9f 83 e0 be b7 62 28 be
       0.10962605 -0.38369116 -0.4385042 -0.16443907
000340 f1 6a 36 3e 9f 83 e0 3d 48 77 cb be 9f 83 60 bc
       0.17814232 0.10962605 -0.39739442 -0.013703256
000350 9f 83 e0 bd 9f 83 60 3d b7 62 28 3e 00 00 00 80
       -0.10962605 0.054813024 0.16443907 -0.0
000360 43 52 8c bd f1 6a 36 3e 52 d4 0f 3f 9a 5e a1 be
       -0.06851628 0.17814232 0.5618335 -0.31517488
000370 7d 5a 1a 3e 9f 83 e0 3d 9f 83 e0 bc 2b 73 44 3e
       0.15073581 0.10962605 -0.027406512 0.19184558
000380 26 4e 85 be 1d f1 40 bf 2b 73 44 be 13 94 7c 3e
       -0.26036185 -0.7536791 -0.19184558 0.24665861
000390 18 cc 01 3f 9f 83 e0 3c 2b 73 c4 bd 65 7b 52 bf
       0.5070205 0.027406512 -0.09592279 -0.82219535
0003a0 48 77 cb be 26 4e 85 3e 2b 73 c4 3d d9 8b 6e 3e
       -0.39739442 0.26036185 0.09592279 0.23295535
0003b0 9f 83 e0 3d 35 d0 08 bf 43 52 0c be a9 e0 24 3f
       0.10962605 -0.534427 -0.13703255 0.64405304
0003c0 8c dc 1d 3f b7 62 28 bd 13 94 7c be f1 6a b6 be
       0.6166465 -0.041109767 -0.24665861 -0.35628465
0003d0 9f 83 e0 bc 9f 83 60 bc 0e 6f bd be 7d 5a 9a be
       -0.027406512 -0.013703256 -0.3699879 -0.30147162
0003e0 f1 6a 36 be b7 62 28 3d 6f d8 96 3f 13 94 7c be
       -0.17814232 0.041109767 1.17848 -0.24665861
0003f0 91 01 5d 3f 82 7f 59 3f 0e 6f 3d bf b7 62 28 bd
       0.86330515 0.84960186 -0.7399758 -0.041109767

MatMul_6_param0 f4 [8, 16]
000000 b6 18 d0 3e 3a f8 dd bd be d7 eb 3e 71 49 3b bf
       0.40643853 -0.10838361 0.46063036 -0.7315894
000010 24 bb 0a 3e 24 bb 8a bf a8 9a 98 3e 33 39 42 be
       0.13547951 -1.0838361 0.29805493 -0.18967132
000020 24 bb 8a bf 3a f8 5d bd fc e7 e4 bf e6 aa 11 bf
       -1.0838361 -0.054191805 -1.7883296 -0.56901395
000030 a8 9a 18 c0 24 bb 8a 3e a8 9a 18 bf b6 18 d0 bf
       -2.3844395 0.27095902 -0.59610987 -1.6257541
000040 2c 7a a6 be 2c 7a 26 bf 24 bb 0a 3e 3a f8 5d bd
       -0.32515085 -0.6503017 0.13547951 -0.054191805
000050 33 39 c2 be 33 39 c2 3e 24 bb 8a 3f 3a f8 5d be
       -0.37934265 0.37934265 1.0838361 -0.21676722
000060 af 59 34 bf 62 cb 83 bf af 59 b4 be 3a f8 dd 3e
       -0.70449346 -1.0296443 -0.35224673 0.43353444
000070 be d7 eb bf be d7 6b 3f 33 39 42 be 4b 02 a3 bf
       -1.8425214 0.9212607 -0.18967132 -1.2735075
000080 43 43 87 3f 14 b1 45 c0 3a f8 5d be 71 49 3b c0
       1.0567402 -3.088933 -0.21676722 -2.9263575
000090 71 49 3b 3f a8 9a 98 be a8 9a 98 be 3a f8 5d be
       0.7315894 -0.29805493 -0.29805493 -0.21676722
0000a0 24 bb 0a bf 22 2f fd 3f 2c 7a a6 bd 3a f8 dd 3c
       -0.54191804 1.9780009 -0.08128771 0.027095903
0000b0 af 59 b4 be 00 00 00 80 62 cb 83 3f 82 53 80 3f
       -0.35224673 -0.0 1.0296443 1.0025485
0000c0 af 59 b4 3e 71 49 3b 3f 3a f8 dd be b6 18 d0 bf
       0.35224673 0.7315894 -0.43353444 -1.6257541
0000d0 a8 9a 18 3f 33 39 42 be 24 bb 0a be ed 69 2d 3f
       0.59610987 -0.18967132 -0.13547951 0.67739755
0000e0 33 39 42 3f 6a 8a 1f bf 41 b7 79 3e a8 9a 98 be
       0.7586853 -0.6232058 0.24386312 -0.29805493
0000f0 72 0f 02 c0 b6 18 d0 be 3a f8 dd 3d 2c 7a a6 3e
       -2.0321927 -0.40643853 0.10838361 0.32515085
000100 24 bb 8a 3e 62 cb 83 bf 24 bb 8a be af 59 b4 be
       0.27095902 -1.0296443 -0.27095902 -0.35224673
000110 2c 7a a6 3e 2c 7a 26 be 41 b7 f9 3e ed 69 2d bf
       0.32515085 -0.16257542 0.48772624 -0.67739755
000120 3a f8 5d bd 4a 3c 5c c0 24 bb 0a 3e 2c 7a 26 3e
       -0.054191805 -3.4411798 0.13547951 0.16257542
000130 3a f8 dd 3c 41 b7 79 3e 24 bb 0a bf 3a f8 dd 3e
       0.027095903 0.24386312 -0.54191804 0.43353444
000140 3a f8 5d bd af 59 b4 be 33 39 c2 bf 24 bb 8a be
       -0.054191805 -0.35224673 -1.5173706 -0.27095902
000150 2c 7a a6 3e 3a f8 5d be 3a f8 5d be 3a f8 5d bd
       0.32515085 -0.21676722 -0.21676722 -0.054191805
000160 3a f8 5d 3d bf 9d 32 c0 33 39 42 be 00 00 00 80
       0.054191805 -2.790878 -0.18967132 -0.0
000170 2c 7a 26 3e 3a f8 5d 3d 24 bb 8a bf 2c 7a a6 bd
       0.16257542 0.054191805 -1.0838361 -0.08128771
000180 41 b7 79 3f 00 00 00 00 71 49 3b bf 41 b7 f9 3e
       0.9754525 0.0 -0.7315894 0.48772624
000190 e6 aa 11 bf 3a f8 dd bd af 59 b4 be af 59 34 3f
       -0.56901395 -0.10838361 -0.35224673 0.70449346
0001a0 2c 7a 26 be f5 28 49 3f 2c 7a 26 be 33 39 42 be
       -0.16257542 0.7857812 -0.16257542 -0.18967132
0001b0 41 b7 f9 bf a8 9a 98 be 33 39 42 3f 82 53 80 3f
       -1.950905 -0.29805493 0.7586853 1.0025485
0001c0 24 bb 8a bf b6 18 d0 bf af 59 b4 3e 24 bb 0a 3e
       -1.0838361 -1.6257541 0.35224673 0.13547951
0001d0 5a 46 21 c0 3a f8 dd 3e 78 08 57 3f 33 39 c2 be
       -2.519919 0.43353444 0.839973 -0.37934265
0001e0 e6 aa 11 bf 3a f8 5d 3f 2c 7a 26 3f b6 18 d0 be
       -0.56901395 0.8670689 0.6503017 -0.40643853
0001f0 d5 a0 4c c0 2c 7a 26 be 2c 7a a6 be b6 18 d0 bf
       -3.1973164 -0.16257542 -0.32515085 -1.6257541

MatMul_8_param0 f4 [80, 16]
000000 76 49 a8 3e 56 1f cf 3d 7b d0 21 3f 36 f5 75 3e
       0.32868546 0.10113399 0.6320874 0.24019322
000010 41 03 e9 be 4b 11 5c bf 31 6e fc 3e ee fe 31 3f
       -0.45510295 -0.85963887 0.4930282 0.69529617
000020 8b 65 0e be 61 2d c2 bf 56 1f cf bd 71 c2 ae 3e
       -0.13905923 -1.5170099 -0.10113399 0.34132722
000030 4b 11 5c 3e 80 57 9b bd 5b a6 c8 be e9 77 38 3f
       0.21490972 -0.07585049 -0.3918942 0.7205797
000040 96 73 01 bf 80 57 9b 3d 41 03 69 be 6b 3b 35 be
       -0.50566995 0.07585049 -0.22755148 -0.17698447
000050 86 de 94 3f 86 de 94 be 80 57 1b bd 90 ec 87 be
       1.1630409 -0.29076022 -0.037925243 -0.2654767
000060 80 57 1b 3f 42 b9 99 bf 0e 29 0b 3f 8b 65 8e 3e
       0.6068039 -1.2009661 0.5435952 0.27811846
000070 8b 65 8e bf 61 2d 42 be 36 f5 75 be 41 03 e9 3e
       -1.1124738 -0.18962623 -0.24019322 0.45510295
000080 fe 93 1e bf 56 1f cf 3e 56 1f 4f bc 41 03 e9 be
       -0.6194457 0.40453595 -0.012641748 -0.45510295
000090 7b d0 a1 3e 51 98 55 3f 36 f5 75 be 0e 29 0b bf
       0.3160437 0.8343554 -0.24019322 -0.5435952
0000a0 41 03 69 3e 90 ec 07 bf 8b 65 8e 3e 71 c2 ae be
       0.22755148 -0.5309534 0.27811846 -0.34132722
0000b0 8b 65 0e 3e 56 1f 4f 3c 86 de 14 3f 96 73 81 3e
       0.13905923 0.012641748 0.58152044 0.25283498
0000c0 03 1b 18 3f 90 ec 87 3e 56 1f cf be 96 73 81 be
       0.59416217 0.2654767 -0.40453595 -0.25283498
0000d0 61 2d c2 be 61 2d c2 be 90 ec 87 3e 6b 3b b5 3e
       -0.37925246 -0.37925246 0.2654767 0.35396895
0000e0 0e 29 0b bf 6b 3b b5 3e 22 8f c0 3f 51 98 55 3f
       -0.5435952 0.35396895 1.5043681 0.8343554
0000f0 f3 85 ab bf 8b 65 0e bf 36 f5 f5 be 8b 65 0e bf
       -1.3400253 -0.5562369 -0.48038644 -0.5562369
000100 31 6e fc be 41 03 69 3e 31 6e fc 3e 90 ec 87 bf
       -0.4930282 0.22755148 0.4930282 -1.0619068
000110 36 f5 f5 3e 80 57 1b 3f 5b a6 c8 3e 80 57 9b 3d
       0.48038644 0.6068039 0.3918942 0.07585049
000120 7b d0 21 bf 71 c2 2e 3f 80 57 1b bf 36 f5 75 be
       -0.6320874 0.68265444 -0.6068039 -0.24019322
000130 66 b4 bb 3e 51 98 d5 be 80 57 9b 3e 56 1f 4f 3d
       0.3666107 -0.4171777 0.30340195 0.050566994
000140 41 03 69 bf 56 1f 4f bd 80 57 1b be f9 0c 25 bf
       -0.9102059 -0.050566994 -0.15170097 -0.6447292
000150 4b 11 5c be 61 2d 42 be 80 57 1b bf 66 b4 bb 3e
       -0.21490972 -0.18962623 -0.6068039 0.3666107
000160 03 1b 18 3f be 3f 6c bf c4 7c 96 3f 03 1b 18 3f
       0.59416217 -0.9228476 1.1756825 0.59416217
000170 90 ec 87 3f 71 c2 2e 3f 08 a2 11 3f ae aa 7f bf
       1.0619068 0.68265444 0.56887865 -0.9986981
000180 13 b0 84 3f 56 1f 4f bd 52 4e 86 bf 90 ec 07 bf
       1.0366234 -0.050566994 -1.0492651 -0.5309534
000190 96 73 01 be 0e 29 0b bf 90 ec 07 3f 6b 3b b5 bd
       -0.12641749 -0.5435952 0.5309534 -0.08849224
0001a0 6b 3b b5 bd 47 40 93 3f 56 1f cf bc 8b 65 8e 3e
       -0.08849224 1.1503991 -0.025283497 0.27811846
0001b0 4c c7 8c bf 31 6e fc 3e 46 8a e2 be 4b 11 dc be
       -1.099832 0.4930282 -0.4424612 -0.42981943
0001c0 76 49 28 be 6b 3b b5 be 51 98 55 3f 61 2d 42 3e
       -0.16434273 -0.35396895 0.8343554 0.18962623
0001d0 41 03 e9 be 7b d0 21 bf 6b 3b 35 be 56 1f cf bd
       -0.45510295 -0.6320874 -0.17698447 -0.10113399
0001e0 71 c2 ae 3e 0e 29 8b bf 71 c2 2e bf 90 ec 87 be
       0.34132722 -1.0871904 -0.68265444 -0.2654767
0001f0 17 81 cd 3f 0e 29 0b 3f 41 03 e9 3e 41 03 e9 3e
       1.605502 0.5435952 0.45510295 0.45510295
000200 4b 11 dc be 56 1f 4f 3e 5b a6 c8 3e 6b 3b 35 3e
       -0.42981943 0.20226797 0.3918942 0.17698447
000210 03 1b 18 bf 90 ec 87 3e 22 8f c0 bf 96 73 81 bd
       -0.59416217 0.2654767 -1.5043681 -0.063208744
000220 6b 3b b5 3e 71 c2 2e 3f 8b 65 8e 3e d3 5b 52 bf
       0.35396895 0.68265444 0.27811846 -0.8217136
000230 56 1f 4f 3f 61 2d 42 3e 61 2d c2 be de 69 45 3f
       0.8090719 0.18962623 -0.37925246 0.77114666
000240 31 6e fc 3e 13 b0 84 bf b9 b8 72 bf 61 2d c2 3f
       0.4930282 -1.0366234 -0.94813114 1.5170099
000250 90 ec 07 bf 66 b4 3b bf 96 73 01 3e 41 03 e9 3d
       -0.5309534 -0.7332214 0.12641749 0.11377574
000260 7b d0 21 3f d9 e2 4b 3f 41 03 69 be 8b 65 0e be
       0.6320874 0.7964302 -0.22755148 -0.13905923
000270 66 b4 3b 3f 41 03 e9 3e 7b d0 a1 be 76 49 28 bf
       0.7332214 0.45510295 -0.3160437 -0.6573709
000280 51 98 d5 3e e3 f0 3e bf 80 57 1b bf 5b a6 c8 3e
       0.4171777 -0.74586314 -0.6068039 0.3918942
000290 3b 7c ef 3e 46 8a e2 be 8b 65 0e 3f 86 de 14 bf
       0.46774468 -0.4424612 0.5562369 -0.58152044
0002a0 96 73 81 bd 96 73 01 3f 8b 65 0e bf 51 98 d5 3e
       -0.063208744 0.50566995 -0.5562369 0.4171777
0002b0 8b 65 0e be 71 c2 2e bf 56 1f 4f 3d 80 57 1b 3e
       -0.13905923 -0.68265444 0.050566994 0.15170097
0002c0 96 73 81 bd 03 1b 18 3f 8b 65 0e 3e 56 1f cf 3c
       -0.063208744 0.59416217 0.13905923 0.025283497
0002d0 f3 85 2b bf 71 c2 2e 3f 80 57 9b 3e 90 ec 07 3f
       -0.67001265 0.68265444 0.30340195 0.5309534
0002e0 86 de 14 bf 96 73 81 3e 4b 11 5c bf 86 de 94 bf
       -0.58152044 0.25283498 -0.85963887 -1.1630409
0002f0 00 00 00 80 96 73 81 be 80 57 1b 3d 71 c2 ae be
       -0.0 -0.25283498 0.037925243 -0.34132722
000300 76 49 28 be 56 1f cf be e3 f0 3e 3f 41 03 69 3e
       -0.16434273 -0.40453595 0.74586314 0.22755148
000310 56 1f 4f 3d 96 73 81 be 31 6e fc be 61 2d 42 bf
       0.050566994 -0.25283498 -0.4930282 -0.7585049
000320 56 1f 4f bc 41 03 e9 be 46 8a e2 3e ee fe 31 3f
       -0.012641748 -0.45510295 0.4424612 0.69529617
000330 ee fe 31 3f 96 73 81 3d 66 b4 bb 3e 90 ec 87 3e
       0.69529617 0.063208744 0.3666107 0.2654767
000340 3b 7c ef be 36 f5 f5 3e 46 8a e2 3e 56 1f cf be
       -0.46774468 0.48038644 0.4424612 -0.40453595
000350 8b 65 0e be 08 a2 91 3f 13 b0 04 3f 61 2d 42 be
       -0.13905923 1.1377573 0.5183117 -0.18962623
000360 56 1f cf be 4b 11 5c 3f 90 ec 87 be 61 2d c2 be
       -0.40453595 0.85963887 -0.2654767 -0.37925246
000370 56 1f cf 3d 8b 65 8e be f9 0c 25 bf 6b 3b 35 3e
       0.10113399 -0.27811846 -0.6447292 0.17698447
000380 61 2d c2 3e 56 1f cf 3e 96 73 81 3e 13 b0 84 3f
       0.37925246 0.40453595 0.25283498 1.0366234
000390 4b 11 dc be 96 73 01 3e 80 57 1b bf 56 1f 4f 3d
       -0.42981943 0.12641749 -0.6068039 0.050566994
0003a0 31 6e fc be 4b 11 5c be 8b 65 0e 3e 56 1f cf bd
       -0.4930282 -0.21490972 0.13905923 -0.10113399
0003b0 0e 29 0b bf 61 2d 42 3f e9 77 38 bf 6b 3b 35 3e
       -0.5435952 0.7585049 -0.7205797 0.17698447
0003c0 56 1f 4f 3f 56 1f cf be 80 57 9b 3d 36 f5 f5 be
       0.8090719 -0.40453595 0.07585049 -0.48038644
0003d0 4b 11 5c 3e 56 1f 4f 3d 96 73 81 3e 41 03 e9 3e
       0.21490972 0.050566994 0.25283498 0.45510295
0003e0 80 57 9b be 71 c2 2e 3f 7b d0 a1 be 71 c2 ae be
       -0.30340195 0.68265444 -0.3160437 -0.34132722
0003f0 56 1f 4f 3d 8b 65 8e be 8b 65 8e 3f 51 98 d5 be
       0.050566994 -0.27811846 1.1124738 -0.4171777
