src/ml/tcn_model.pth (torch, 96506 bytes, 78 tensors)

temporal_blocks.0.conv1.weight f4 [4, 1, 1, 5]
00000000: aa52 01bf 6f1e b0bd 06e1 0fbf 9e8a 8fbd
00000010: cb0a 8dbe 715b a1be fb6c 203f 2079 f53e
00000020: fdb6 f4be a27f a6be 8a6d c3be d7f6 b0be
00000030: d722 04bf 0bd6 893d f047 d43e b56c 0e3f
00000040: 3a16 dabd 405a 90be 5157 6abe acef 3ebf
-0.5051676 -0.08599555 -0.56202734 -0.07008861 -0.27547297 -0.31515077 0.6266629 0.47943974
-0.4779586 -0.3251925 -0.3816951 -0.34563324 -0.5161566 0.067302786 0.41461134 0.55634624
-0.10648771 -0.28193855 -0.22884871 -0.7458446

temporal_blocks.0.conv2.weight f4 [4, 4, 1, 5]
00000000: a1a0 043d 542c df3b 1dd4 88bd d985 e7bd
00000010: 4892 5fbe 00f0 15be e6fa 5c3e 5eb4 60be
00000020: a577 463e 053b d13e 6fd9 52be 02f7 b93e
00000030: 229a a53e fe4a a63e 74a7 a23f 38b8 fc3c
00000040: ba45 dbbd c212 3fbe bada 00bf 5deb 72bf
00000050: 7027 943d 44f8 7dbe 837b 83be 8ceb 3cbe
00000060: baef 92be 287b fabe 6ac5 25be eb56 46be
00000070: 918c b2be 9f52 c8be 5517 7b3f 316e 02be
00000080: e822 efbd d85b e3be e912 cfbe 18a0 90bf
00000090: 3575 c6be be8d 29bf 2bc1 143f 8181 093f
000000a0: 3d2a 6dbe 88e7 49bd a745 6bbe 6614 9dbd
000000b0: 1eea 413d c928 9a3e 04ec 263d bab2 aabc
000000c0: 0924 813e c2c3 643d f9ef 9dbf 7790 adbe
000000d0: 73ef b3be 70f8 4a3d d111 48bf 8902 9f3f
000000e0: 199e 2a3f 7488 b53e 8182 e3bd e1d7 d83d
000000f0: c2e3 a33e c94f 953e c274 053e d23b 6e3e
00000100: 9928 933e a4ae 32be c8e3 7fbe da87 a8bd
00000110: 3c7c da3d 7282 b8be ae7a 88bd 1e83 773c
00000120: b37e 46bd 2b7b 843e ee28 a23d 4a83 f03e
00000130: d770 9f3e 99e5 ce3e 08f5 63be 4786 363e
0.03237975 0.0068107042 -0.066810824 -0.11304826 -0.21833146 -0.14642334 0.21580085 -0.21943805
0.19381578 0.4086534 -0.20590757 0.36321265 0.32344157 0.3247909 1.2707353 0.030849561
-0.10706659 -0.186595 -0.5033375 -0.94890386 0.072340846 -0.24801737 -0.2568017 -0.18449229
-0.28698522 -0.48922086 -0.16188589 -0.19369094 -0.3487287 -0.39125535 0.98082477 -0.12737347
-0.1167658 -0.4440601 -0.40444115 -1.1298857 -0.38761297 -0.66231906 0.5810725 0.5371323
-0.23160644 -0.04929307 -0.22975789 -0.07669906 0.047342412 0.30109242 0.040752426 -0.020837177
0.25222805 0.05585075 -1.2338859 -0.3389928 -0.35143623 0.049553335 -0.78152186 1.2422649
0.6664749 0.35455668 -0.11108876 0.10588051 0.32009703 0.29162434 0.13032821 0.23265007
0.2874191 -0.17449433 -0.24989235 -0.08229037 0.10668227 -0.36037022 -0.06664024 0.015106944
-0.048460674 0.2587522 0.07917963 0.46975166 0.31140777 0.40409544 -0.22261441 0.1782466

temporal_blocks.0.chan_norm1.weight f4 [4]
00000000: 009e a83e bec6 9d3e 8cb0 e73f 31a2 0f40
0.32933044 0.3081569 1.8100753 2.2442744

temporal_blocks.0.chan_norm1.bias f4 [4]
00000000: ee6f 7e3e 23b3 5a3e 1b01 013e 237f 9e3d
0.24847385 0.21357398 0.12598078 0.07739093

temporal_blocks.0.chan_norm2.weight f4 [4]
00000000: a3fc d73e 8908 823c 9eb3 d13e ce3f 773f
0.42184934 0.01587321 0.4095735 0.96581733

temporal_blocks.0.chan_norm2.bias f4 [4]
00000000: 11e8 943e 091a b8bd 4b32 3abc 45ee e4be
0.29083303 -0.08989341 -0.01136453 -0.44713035

temporal_blocks.0.downsample.weight f4 [4, 1, 1, 1]
00000000: c228 a2bf 9430 3b3f dcba 8ebe 42ae 44bf
-1.2668688 0.73121 -0.27876937 -0.76828396

temporal_blocks.0.downsample.bias f4 [4]
00000000: f0cf 503f 9cdb 1c3f 4727 863f 52cc 243f
0.8156729 0.612726 1.0480736 0.6437427

temporal_blocks.1.conv1.weight f4 [8, 4, 1, 5]
00000000: 4734 1dbf ebfd 0abf aba4 9bbe f481 38bf
00000010: a138 bc3e bbf7 db3c 4427 073f 4aba 15bf
00000020: 0594 5abf d59e 99be 3bd4 ef3e cdf7 d33d
00000030: ce98 913c d87e 063e 5768 233e 08f6 c6be
00000040: 7f0a 1abe f90f e23e d40b a83c 2d80 c43d
00000050: 57e0 8b3e 2418 1a3f 5d8f 8c3e 7aaf 533e
00000060: 8a12 11be b5d7 4fbd de73 babe 6e59 be3e
00000070: 0141 123f de5f 023e 46c6 613f 3cd2 ae3d
00000080: 9d9f 4ebe a65e 8bbd a16d dabd aaef d33e
00000090: 591e ad3f 49f7 283d dfd8 56bd 0486 92be
000000a0: da27 04be a7ab f03d 6ab5 2abd c4ec 0b3e
000000b0: b891 a3be 9f1a abbd 96cf 39bf 7a3e 8b3e
000000c0: 8344 123f 61c9 8a3e 959e 613e c685 0a3e
000000d0: 05b4 12bc 65a9 f53d fffe 953e 8bb6 a0be
000000e0: 08f6 783e aaa7 75be 1439 1fbd 3eb2 ab3d
000000f0: 6467 12be 24e5 a3be b0f4 c83e 58aa 403e
00000100: 998c 4fbf 9859 a23e 89d1 a43e b3a4 773e
00000110: 6073 25bf 7be8 92be e76b 593e 05cb 13be
00000120: a005 a33e fc2d 413f 17ef 19be 2798 a9bd
00000130: 8c75 9fbe 4972 d13e e984 363f 48c9 6bbf
00000140: 9eb4 953c d373 9bbe d020 acbf dc05 c8be
00000150: 32eb 563d 1f7f c93d d7c3 e9be 22ea 27be
00000160: bcb0 be3e 4488 c03e 9717 10bd 7f5c ba3e
00000170: 7c9c 0e3f 50ae aabd 5c42 dbbb 9e7c 8d3d
00000180: 97e4 5abf 9407 abbf ecf1 32be 607f 453f
00000190: d042 d73d fff0 24be 82db df3e 6c89 073f
000001a0: 45fc 963e 8844 243e 4d73 073f bb30 d93e
000001b0: 73f8 0cbe fd0d 453e de66 41be 191b 78bd
000001c0: f137 02bf a6ee 26bf 59a3 2dbf 110b bcbe
000001d0: 34e8 edbe 96c0 183e 1095 26be f2d4 94be
000001e0: 2d66 ff3e fdf5 753e e919 09bf 3b10 973e
000001f0: 20d2 b6bd dce4 493e de9d 933c 57a8 b83e
00000200: 98bf e4bd b23e 263e 8a5d 74be 62eb 27be
00000210: dc90 0bbf ad56 e8be 787c 19be 58c4 c23e
00000220: 318f 483e fcc6 efbe 0d78 8b3e 0463 9ebe
00000230: 70eb 953c 9935 f9bd 91a0 c83e c021 b5be
00000240: 665c 0d3f 79b9 a73c 2410 ffbb ac1f a6be
00000250: bc81 e43e 5b54 8b3e 4d82 acbe 16ad 66be
00000260: a3b7 fe3e 2c48 ef3d 7108 debc 515a 3b3e
00000270: f77c d4be f09d 23be 8633 12bf 3c5e 143e
-0.61407894 -0.542937 -0.3039907 -0.7207329 0.36761954 0.026851526 0.5279429 -0.5848738
-0.8538211 -0.30003992 0.46841606 0.103499986 0.017773058 0.13134325 0.15957771 -0.38859582
-0.15043066 0.4415281 0.020513453 0.0959476 0.27319595 0.60193086 0.27453128 0.20672408
-0.14167228 -0.050742824 -0.36416525 0.37177604 0.5713044 0.12731883 0.88193166 0.08536193
-0.20178075 -0.06805162 -0.10665441 0.41393787 1.3524886 0.041251455 -0.05245292 -0.2861787
-0.12905827 0.1175149 -0.041676916 0.13664538 -0.31947112 -0.08354687 -0.72582376 0.27196103
0.5713579 0.27106765 0.2203315 0.13527593 -0.008954053 0.119952 0.2929611 -0.3138927
0.24312603 -0.2398974 -0.038872793 0.083836064 -0.14297253 -0.32010758 0.39249182 0.18814981
-0.8107391 0.3170898 0.32191113 0.24183922 -0.64629173 -0.28692994 0.21232568 -0.14432915
0.3184023 0.7546079 -0.15032612 -0.08280974 -0.3114437 0.40907505 0.71296555 -0.92104006
0.018274602 -0.30361804 -1.3447514 -0.3906697 0.052470393 0.098386995 -0.45657226 -0.16397908
0.37244213 0.37603962 -0.035178747 0.36398694 0.55707526 -0.08334029 -0.0066912603 0.069085345
-0.8550505 -1.3361688 -0.17475098 0.77147484 0.1051079 -0.16107558 0.4372216 0.52944064
0.2948934 0.16041768 0.5291031 0.4241999 -0.13766651 0.19243617 -0.18886897 -0.060572717
-0.5086661 -0.652079 -0.67827374 -0.36727193 -0.4646622 0.14917216 -0.162678 -0.29068714
0.4988264 0.24019618 -0.5355516 0.2950457 -0.08926797 0.19716209 0.018019613 0.36065933
-0.11169356 0.16234854 -0.23863807 -0.16398385 -0.5451791 -0.45378628 -0.14988887 0.38040423
0.19585873 -0.468315 0.2724003 -0.30934918 0.018300742 -0.12168426 0.39185002 -0.35377312
0.55219114 0.020474182 -0.0077839065 -0.3244604 0.4463023 0.27212796 -0.33693162 -0.22526965
0.4974948 0.116836876 -0.027103635 0.18296172 -0.4150159 -0.15978217 -0.5710987 0.14489073

temporal_blocks.1.conv2.weight f4 [8, 8, 1, 5]
00000000: 2772 b8bd 2874 d33e ee1c 443f a075 383f
00000010: fe0a cb3e 99cc 18bf 06af 453b 45b8 17bf
00000020: aedc 26bf c756 29bf 0e68 4f3d 01b5 e7be
00000030: 86b2 1dbf 6f3d 25bf 06b9 a4bf a6e5 fb3c
00000040: d1d4 40be f379 403c 95d3 633e 1255 c83d
00000050: 3dc3 8a3e 2692 093e e1ae a03e 4430 0a3f
00000060: 6d46 123f 06ca 54bd 3793 a9be db83 91bc
00000070: 3ebd e83e 97ef 853f ba8d a73d 888b f3be
00000080: 7794 10be 4d3e db3d 3106 c93e 6c19 6a3f
00000090: 1b2f 643f d032 c93e cb7b 7f3e dabd 20bf
000000a0: d499 87be fe04 f4bd 3888 453d 2aa2 c43d
000000b0: ce36 91bd c537 313f d408 bb3e b6ef cc3e
000000c0: 8617 ce3e 5dcd 503e 99b0 253f 9272 b93d
000000d0: 8724 713e 4b0f 0fbf a5d6 c4be 7fa7 b4bd
000000e0: 92c4 5cbe 4486 e9bd a1a6 5c3f 2f1a 8abc
000000f0: 751b 19bf 9243 abbe 3092 c9be 853c f6be
00000100: 997d eabe 6b1e a0bd 2955 bcbe 584f 3bbf
00000110: 6ba2 13be 0baf 613d f715 60bf 7d71 9bbd
00000120: bdd1 073d 5224 623e 2a2d 823f 18d6 10bf
00000130: 57b1 5ebf 68f9 86bf 5932 e0bf 261b 90bf
00000140: 992b 27be 9acd 60be e2f8 1ebe 9d3a 16be
00000150: aa6e c23b faac a23d 1692 ae3d c3e9 843d
00000160: 817d df3d ad16 9fbd 941b 26be 222f 6fbe
00000170: 1f37 5fbd 4d89 1d3f f3f5 883e fca9 b63e
00000180: 93d9 d93e ea55 873e 5170 aa3e baeb 963d
00000190: 8612 34bd c807 d8bc 6f5e 123d b94e 943d
000001a0: 2259 a63c 897e 82be cbad 9abe 7206 40bd
000001b0: cbb5 85be 7a5a 98be 8b09 dc3e 34e8 893d
000001c0: fc3e 33be bec7 79be 8e2e debe 211e 02be
000001d0: 55a3 f2bd 25cd 123e 811f 56be 3ad4 333e
000001e0: 6c85 073e 439c f03e da5e 603f eb35 7c3f
000001f0: c383 693f 0022 a0bd 0a54 babd 187b 5cbe
00000200: 0e24 bfbd e300 55be 2010 80bd 87e0 05be
00000210: d1c9 143e b866 8bbc c914 3cbe be4d 753e
00000220: 2fb7 9c3d 5f3d 343e 320e 033e b06d 08be
00000230: 68e1 eb3e e9dc da3d 822f 8c3e 8a57 263e
00000240: 82b4 893d 1b46 1ebe 53ac 0dbe eef8 8dbe
00000250: 8d8e aebe 58b9 1dbe 4c0f f8be 78b8 4cbe
00000260: a18e cbbd 3fa6 fdbd 26c1 9cbd e087 77bc
00000270: 4be4 21be cfd2 fbbd c996 733e 9cce 753e
00000280: 3564 8f3e d0d5 f43c eedf 44be f9c3 8abe
00000290: 906a 9c3d d590 25be f452 80be fe9c 87be
000002a0: 1842 86be 473b 98be 8a76 6ebe d20f 133f
000002b0: d9bf 193f e4a7 d43e f3a7 4f3f 3e65 bbbe
000002c0: 1eaf 2bbf 3d05 09bf 104e 92be d5cb 60be
000002d0: b15a c83d f3f1 033f cd94 4d3f f07f 3a3f
000002e0: 7aa4 c83e 8e8d d5bd 2d85 6a3e 672d b03e
000002f0: a168 7f3e f2d1 f9be a07b 6d3f 3337 223f
00000300: 791b 2d3f b202 023f 4226 8abe bb62 fabe
00000310: bf1a af3e cbdb 0f3e 2d55 0d3f 888e d93e
00000320: 888e 983e 41b8 463e 8c0a b33e 6657 e03e
00000330: 5e4f 42bb 9c53 ae3d 667a e63d 2797 803c
00000340: c6ed ea3c 5b97 aebc 0dbc acbe 2487 ffbe
00000350: 44a1 11bf ca8c 2cbf 5deb dbbd 352b bfbe
00000360: 6c21 f23c 3a25 593e a2b6 e6bc ac39 313e
00000370: 3e50 193c 027a 89be f9b0 23be fd02 55bd
00000380: 54c2 33be 4de6 5f3e 1e72 b93c a3ff f23d
00000390: 1958 8d3d 2518 603e f4e3 03bd 4d5e 5abe
000003a0: 84cc 8ebe 99f0 f8bd 92b9 cbbe 93ac fdbd
000003b0: a72c 203d 449a 013f cd61 e43e c1e2 9d3e
000003c0: 9e35 4fbe 16bc 2cbd 73d2 f63d 34c0 853a
000003d0: 6709 52be 62e2 83bd 5a89 80be a04c 61be
000003e0: d629 4bbe 8461 15be 1d05 71be 62c1 343d
000003f0: 57cc ff3c c20a 3d3d ddcc 293d 4896 74be
-0.09006148 0.41299558 0.76606643 0.7205448 0.39656824 -0.5968719 0.0030164137 -0.5926555
-0.6518048 -0.66148037 0.050636344 -0.45255283 -0.6160053 -0.64546865 -1.2868965 0.030749153
-0.18831183 0.011747825 0.22248681 0.09781851 0.2710208 0.13434657 0.31383422 0.539799
0.5713871 -0.051950477 -0.3312013 -0.017763069 0.4545688 1.0463742 0.08181329 -0.4756739
-0.14119135 0.10705242 0.39262536 0.9144504 0.8913438 0.3929658 0.24949567 -0.6278969
-0.2648455 -0.11915015 0.04822561 0.09601243 -0.07090531 0.6922572 0.36530173 0.40026635
0.40252322 0.2039084 0.6472259 0.09055056 0.2354909 -0.5588271 -0.3844501 -0.0882101
-0.2155936 -0.11402562 0.86191756 -0.016858188 -0.5980752 -0.3344999 -0.39369345 -0.48093048
-0.45798948 -0.07818302 -0.36783722 -0.73167944 -0.14417426 0.055098575 -0.87533516 -0.075900055
0.033159006 0.22084168 1.0170033 -0.5657668 -0.8698935 -1.0544863 -1.7515365 -1.1258285
-0.16325225 -0.21953431 -0.15524629 -0.14670797 0.0059336023 0.07943149 0.085239574 0.06489899
0.1091261 -0.07767997 -0.16221458 -0.23357823 -0.054495927 0.6153763 0.26750144 0.35676563
0.42548808 0.26432735 0.33288816 0.0736918 -0.043962978 -0.026370898 0.03573459 0.07241578
0.020306174 -0.25487164 -0.3021072 -0.046881147 -0.2611526 -0.29756528 0.4297603 0.06733742
-0.17504495 -0.24392602 -0.43394893 -0.12706806 -0.11847559 0.14336069 -0.20910455 0.17561427
0.1323449 0.46994218 0.8764473 0.9851977 0.9121668 -0.07818985 -0.090980604 -0.21531332
-0.09333049 -0.2080112 -0.062530756 -0.13073932 0.14530112 -0.017016754 -0.18367304 0.23955438
0.07652127 0.17601536 0.12798384 -0.13323092 0.4607041 0.106866665 0.27379996 0.16244331
0.06723882 -0.1545643 -0.13835268 -0.2772898 -0.34093133 -0.15402734 -0.4844917 -0.19992244
-0.09939314 -0.123852246 -0.07654028 -0.015108079 -0.15809743 -0.12296068 0.23787989 0.24004596
0.2800614 0.02988711 -0.19226047 -0.2710264 0.07637513 -0.1616853 -0.25063288 -0.26486963
-0.262223 -0.29732725 -0.23287407 0.57446015 0.6005836 0.4153434 0.81115645 -0.3660068
-0.6706408 -0.5352362 -0.28575182 -0.21952756 0.09782923 0.5154106 0.80305177 0.7285147
0.39187986 -0.1042739 0.22902365 0.3440964 0.24942257 -0.48792988 0.9276676 0.6336548
0.67620045 0.5078536 -0.26982313 -0.4890345 0.34200093 0.14048688 0.5520809 0.42491555
0.29796243 0.19406225 0.34968984 0.4381668 -0.0029649357 0.08512041 0.112538144 0.015697075
0.028677832 -0.021312406 -0.3373722 -0.49907792 -0.56886697 -0.6740233 -0.10738251 -0.37337652
0.029556952 0.21205607 -0.028163258 0.17307156 0.00935751 -0.26850897 -0.15985478 -0.052004803
-0.17554599 0.21865197 0.022637423 0.11865165 0.06901569 0.2188421 -0.032199815 -0.21325035
-0.27890408 -0.12155265 -0.39790016 -0.123864315 0.039105084 0.50626016 0.44605866 0.30837062
-0.20235297 -0.04217156 0.12051859 0.0010204376 -0.20511399 -0.064396635 -0.2510479 -0.22001886
-0.19840178 -0.1458798 -0.23537107 0.044129737 0.031225367 0.046152838 0.04145514 -0.23885453

temporal_blocks.1.chan_norm1.weight f4 [8]
00000000: 274e 863f 80b4 513f 5a8d b73f 75fb 873f
00000010: 628d 4c3f c368 873f 7f8d a33f f00b cf3f
1.04926 0.81916046 1.4340012 1.0623614 0.79903233 1.0578846 1.2777556 1.6175518

temporal_blocks.1.chan_norm1.bias f4 [8]
00000000: 6eea 843e b210 95be 3caf c6be d899 0cbe
00000010: d7f4 5d3d a225 173e 8c5e 6c3e 1bb1 08bf
0.25960106 -0.291143 -0.38805568 -0.13730562 0.054188576 0.1476045 0.23082942 -0.5339524

temporal_blocks.1.chan_norm2.weight f4 [8]
00000000: f883 3140 246e 9e3f 2a40 9e3f a2b8 cc3f
00000010: 7565 fd3f 1615 0a40 db56 0940 4e18 a63e
2.7736797 1.2377362 1.2363331 1.5993845 1.9796587 2.157537 2.1459262 0.32440418

temporal_blocks.1.chan_norm2.bias f4 [8]
00000000: a67e d1bd feb0 b83e cb50 7cbe 67dc c23e
00000010: 8da7 213d b3e0 b7bd 47b4 41be dd33 5ebf
-0.102292344 0.36072534 -0.24640195 0.3805878 0.03946643 -0.08978405 -0.18916427 -0.8679789

temporal_blocks.1.downsample.weight f4 [8, 4, 1, 1]
00000000: 4017 173f 94c4 1f3e d89a 3a3e ee94 22bf
00000010: 6039 26be 2e26 2e3e 41e2 a0bf aa3b 7ebf
00000020: 4bb4 383d f5ac 6bbe dccf 163e 7465 80be
00000030: 2cad 4dbe 3322 04be ab20 bd3e 10cb 523e
00000040: b5a4 48be ed8c 2c3e 25fe debd e331 3ebd
00000050: e875 053c 3986 babd 503f bb3d 73ff d3bd
00000060: e7b0 d03e 4ec1 21be 5a35 da3e 1bc3 96be
00000070: 04a1 3cbe 443f 6c3f b1cf 183d e51c 473d
0.5901985 0.15602332 0.1822313 -0.635085 -0.16232824 0.17006752 -1.2569047 -0.9930979
0.045093816 -0.23015197 0.1472773 -0.25077403 -0.20085591 -0.12903671 0.36938986 0.20585275
-0.19594081 0.16850634 -0.10888318 -0.046434294 0.008145787 -0.09107632 0.09142935 -0.103514574
0.40759966 -0.15796396 0.4261883 -0.2944573 -0.18420798 0.92284036 0.037307445 0.04861154

temporal_blocks.1.downsample.bias f4 [8]
00000000: 86c0 12bf 116a d5be 5753 a23e 90f5 2bbf
00000010: cf74 d53e 5ba9 cebe c9d7 45bf 6dc1 073f
-0.5732502 -0.41682485 0.31704208 -0.67171574 0.4169068 -0.40363583 -0.77282387 0.5302952

temporal_blocks.2.conv1.weight f4 [16, 8, 1, 5]
00000000: 66a6 72bd 8f1a 313e 3d87 693e e798 4dbe
00000010: c188 ad3c 18cb 2f3c 9f66 f73d 1ae8 ff3d
00000020: a04a 403f f9a4 373e 7002 53be e834 c13d
00000030: e5c0 0f3c 8df3 523e 5495 ab3e 7c0e d8be
00000040: aa8e c7bd 41b0 fc3d 6ce5 58bd 9f61 fbbd
00000050: 8635 e5be d133 f5bd 1048 fb3d 9935 c83d
00000060: 94bb 83be deda 393f e113 c23e adec fabd
00000070: 2bd5 513e b659 50bd 7c89 aebe b984 bc3d
00000080: 00e7 893e 40c3 42be 8bb2 14be 8c50 91be
00000090: 66fa 8d3e a785 2c3e 7592 22be 1167 11bf
000000a0: b214 023f 02a2 87bb 5eae babe ce77 673d
000000b0: a878 a1be 1a4b d1be a92a cbba 2d16 92be
000000c0: 1023 16be 9aa3 ab3e 5692 cb3c 8b10 abbe
000000d0: 43b2 a73e 9116 053e 87ac ad3e 5f86 9abe
000000e0: a75e 073e ffbb a03e beb6 073f 9a07 0e3f
000000f0: b49d 943d 30b2 d0be 1652 af3e d444 4b3e
00000100: 6713 c3bd 0576 ebbd b9a5 acbe 4569 e4be
00000110: dcca 94be 7903 5ebf 914f 06bf c3c6 153f
00000120: 2468 cfbd 5c43 49be 68bf 133f abf6 853e
00000130: a602 fa3d f6b6 0abe ad63 aabe 66ac 843e
00000140: 3961 f83e a251 c03e 585d 45be ddd1 683e
00000150: 97b5 043e d163 b03e 7727 1cbe 4d90 2ebd
00000160: 8f3c 893f bd8c 353f 24e9 2abf 8d2d f5bd
00000170: 59d3 433e 165f 553e 1381 72bd 8ed4 3d3e
00000180: 7ca6 8e3e 05cd 193e 9a49 193f 235b 013f
00000190: eb38 133e 6ca0 ec3e 3d62 e5be cc54 8d3e
000001a0: c34a cebe d473 9dbd 54c0 253f 6d13 253e
000001b0: d477 e4bd 589c f9be e35e c3bd d692 643e
000001c0: 6fba 89be 1b3f 54be 824b d03d 6065 1a3e
000001d0: ecf4 dcbb f32b 03bd 47c6 25be 858b e0bc
000001e0: f901 fabe efcd 58be fae2 ab3e 9776 b6bd
000001f0: fa97 863e d6c8 613f 0047 e0bd a4a2 65be
00000200: 9396 e3be 9bf6 5d3f 6ebd 9d3d 9379 5a3e
00000210: 9210 b13d f2e9 453e bccc 813e 308d 0c3f
00000220: 178a 30bd cd5a 98be 7395 53bd e74c 90be
00000230: b966 1b3e d86a 7e3e cf16 423d 2adc a8bd
00000240: d255 13bb 4929 a23e 6c25 02bf d29d 6b3e
00000250: c2d1 c8bd 0dfc 583e 90ad d63d c642 6abe
00000260: e3ed 02bf c42d a3be 34a9 d43e 5d12 e23e
00000270: 5694 95be 0768 e6bd 88cd a43d ee47 1bbe
00000280: 82a1 02bf 456f 4a3f b5a7 e9be 73a2 09bd
00000290: 854f 1f3e 0bb9 9e3e da54 1a3f 4455 cfbe
000002a0: 69b3 993e 5b93 93be 5e62 75be ebaf f5bd
000002b0: 0794 c5bd d664 1b3f d26d efbd eeec 5a3e
000002c0: 7280 873e 48ac 47be de86 c93d 5d11 d2be
000002d0: 518a 14bf 79a6 15be 4b40 f63e 87ae 133e
000002e0: 3037 a63d c7e0 2cbe 8503 753e de9e 2f3f
000002f0: fc5d a93c 1c0e dbbe ce48 4dbf 13a2 4abe
00000300: abbb 0a3f 7c4e c6be 7f37 403e c6ca 473d
00000310: 2b82 c1be 564c ff3e 73cb 7fbb 1bc7 c2bd
00000320: 82b9 c33e e5f3 a63e f231 aebe 235e 13be
00000330: 110c 92be 0f76 e5be 592f ad3e 1235 57be
00000340: b8cf aabd 8543 5f3e 91ac 423e 2261 f33e
00000350: f553 243e b995 653d 218d 37be 3bc3 393e
00000360: 9a73 acbe d738 a13e b7d2 6c3e ca5b 12bd
00000370: c445 7c3e 0e66 ac3d 611d 393f d2ce 99bd
00000380: 1ad2 e93e 66b8 a63d b91d 113f 0ea0 853e
00000390: ce1c 103e a5df 313f a770 efbd 8de6 c8be
000003a0: 612b 4a3e 1668 353e cabc 863d 5710 74bf
000003b0: 46b6 30bd bb52 0a3f 6d3a c83e 2086 9fbf
000003c0: 8393 a33d 8054 13b9 cfbc 943e 5d06 bb3d
000003d0: 9837 84be fb03 63be 4e33 1abf 4c84 00be
000003e0: 2134 9bbe 7b38 7abe 51d7 7b3e 0d00 cbbe
000003f0: f362 f2be 607e 9ebe 98e4 573d 3a6e a23e
-0.05924072 0.17295288 0.22805496 -0.20077859 0.021183373 0.010729574 0.1208012 0.12495442
0.7511387 0.17934026 -0.20606399 0.09433919 0.008774017 0.2060072 0.33512366 -0.4219855
-0.09744008 0.12338305 -0.05295317 -0.12274479 -0.44767398 -0.11972774 0.12269604 0.09775848
-0.25729048 0.7259959 0.3790579 -0.122521736 0.20491473 -0.050866805 -0.34089267 0.09205002
0.26934052 -0.19019794 -0.14521234 -0.28381765 0.277301 0.1684786 -0.15876181 -0.5679789
0.5081283 -0.004139186 -0.36461157 0.05651074 -0.31537366 -0.4087761 -0.0015500385 -0.28532544
-0.14661813 0.33523256 0.024850052 -0.3341106 0.3275319 0.1299689 0.3392069 -0.30180642
0.13219701 0.3139343 0.5301322 0.5548035 0.07256642 -0.40760946 0.34242314 0.19850475
-0.09525185 -0.1149712 -0.33720186 -0.44611564 -0.2906102 -0.8672405 -0.5246516 0.5850641
-0.10127285 -0.19654602 0.5771394 0.26164755 0.122075364 -0.13546357 -0.33279172 0.2591278
0.48511675 0.3756228 -0.19273889 0.22736306 0.12959896 0.34451154 -0.1524943 -0.042618085
1.0721606 0.70917875 -0.66761994 -0.11971579 0.19123591 0.20837054 -0.059205126 0.18538114
0.27861392 0.15019615 0.5987793 0.5052969 0.14377181 0.46216142 -0.44801512 0.27603757
-0.40291414 -0.07688108 0.64746594 0.16120692 -0.11155668 -0.48752093 -0.095395826 0.22321638
-0.2690005 -0.20727198 0.10170652 0.15077734 -0.006743064 -0.032024335 -0.16188918 -0.027410278
-0.4882963 -0.21172307 0.33571607 -0.08909338 0.26287824 0.88197076 -0.10951042 -0.22425324
-0.44450817 0.86704415 0.077021465 0.2133544 0.08645739 0.19327524 0.25351512 0.54902935
-0.043100443 -0.29756775 -0.051656198 -0.28183672 0.15175904 0.24845445 0.047385033 -0.08245118
-0.0022481573 0.31672123 -0.5083835 0.23009422 -0.09805633 0.211899 0.10482323 -0.22877035
-0.51144236 -0.31870854 0.41535342 0.44154635 -0.29214734 -0.112503104 0.080470145 -0.15164158
-0.5102769 0.79076034 -0.45635763 -0.03360219 0.15557678 0.31000552 0.60285723 -0.4049474
0.30019692 -0.2882336 -0.23963305 -0.11996444 -0.096473746 0.6070074 -0.116908684 0.21379444
0.26465183 -0.19499314 0.09840177 -0.41028872 -0.58023554 -0.14614286 0.48095927 0.14422046
0.08115995 -0.16882621 0.23927124 0.6860179 0.020674698 -0.42784202 -0.80189216 -0.19788389
0.5419261 -0.38731754 0.1877117 0.048777364 -0.37794623 0.49862927 -0.0039031177 -0.095106326
0.3822747 0.32607952 -0.3402248 -0.14391379 -0.2852483 -0.44816634 0.33825186 -0.21016338
-0.083404005 0.218031 0.19011141 0.47535044 0.16047652 0.05605099 -0.1792493 0.18140881
-0.33681947 0.31488678 0.23127256 -0.035732068 0.24635988 0.08417903 0.72310454 -0.07510151
0.45668107 0.0814064 0.5668598 0.26098675 0.14073488 0.6948188 -0.116914086 -0.39238396
0.1974311 0.17715487 0.065789774 -0.9533743 -0.04314258 0.54032487 0.39107075 -1.2462807
0.0798712 -0.00014050491 0.290503 0.09132073 -0.25823665 -0.22169487 -0.60234535 -0.12550467
-0.3031321 -0.24435608 0.24593855 -0.39648476 -0.47341117 -0.3095579 0.05270824 0.3172472

temporal_blocks.2.conv2.weight f4 [16, 16, 1, 5]
00000000: 36c3 883d 5c6e bcbd 71a9 6b3e 0401 d3be
00000010: 348a 47be 7072 dbbe 407e 38be 5c18 643d
00000020: 689c 643e ff44 293f 99b0 60bf b8fa 1b3e
00000030: 962d 3dbf 986b 8b3d 4b74 093e 9629 f6bd
00000040: 236a a13e d7e0 86be dd2a 5a3e 763f 8e3e
00000050: 03f1 ad3d c75d a23e 763d 343f 9b86 933e
00000060: d55b febd f94f 43be e132 32be 1b8d a9bd
00000070: 0a69 aabd e495 7f3f 3377 7e3f 16b2 b33e
00000080: a0a7 df3e 6f46 69be ffe7 b3be e015 2bbe
00000090: 1cdf 79be de3c fabe 93f5 ca3e 0616 24bf
000000a0: 8d01 123e b240 f2bd 9789 d53e 928a 2abd
000000b0: a8e9 eb3d d15d 33bf 1406 23bf a116 cc3c
000000c0: 3aba 4c3e 6f78 873f 9524 3dbd 747b fb3e
000000d0: 94b3 343f 1242 603b c350 af3c 0d96 263f
000000e0: 20df b63e 21d9 b53e 2b9d 54be c8be 3cbe
000000f0: d1c5 603f 88d1 833d 0bce d93e 3944 b9bd
00000100: b57c eabe e38b c43e e578 0abf 9e5b b5be
00000110: 59ce c4be 35c5 843e e60e 2fbe 6c09 c03e
00000120: 4a3a cabc e2ae 36be 487f 213f 55dc 4bbd
00000130: dcff b73e 7aa9 9ebe 0343 c6be 6d65 9b3e
00000140: ee4d d13e 5f45 2b3e 282c 82be ed39 59bd
00000150: 3d1d cd3e f16e 91be 3607 5ebf 9770 afbe
00000160: a95f 343e 1f21 e3bd 5e1a e33e 56ee c23d
00000170: abfb 9ebd 81f3 a73e 5663 283e 51e7 9ebd
00000180: 06cf 943e 26d5 073f d965 333e a51f 2e3e
00000190: bd74 113e 1a37 093f 4569 17be e035 333f
000001a0: 57bc d7be ac1c 283e 5430 07be eb9d 0a3e
000001b0: 7ae5 a4be 29fc c73d c56d 29be ff12 afbe
000001c0: 169a 76bc f55a 23be f288 d7be 8b2b ef3d
000001d0: 61c6 2d3e 565c 343d 84b9 c7bd 4d3c b5bd
000001e0: 07aa c1bd 5876 ffbd 9ca2 193d 8f8c 2fbe
000001f0: 9a22 7dbe 5e76 eabe ddf6 98be eed9 8a3d
00000200: b98d 023f 7043 343d b26d be3e 508f d23e
00000210: a443 323e f069 71be 6ec7 ae3e accf f23e
00000220: 85fa 1b3e b7f7 c33e e609 d6be 72a0 febd
00000230: bc75 20be fb3f 9e3e 09da babe 8307 3ebe
00000240: e1ed 563d 25e2 2abe ba27 7fbe 3940 babe
00000250: 48e3 a53d 14a3 5b3f 423a acbf 5ed4 2cbf
00000260: cf18 8f3d f1b6 5f3f 0ba4 5f3f cb15 5a3e
00000270: 5c69 663d 026a 603d 8d01 14be 72ce 17bc
00000280: 5c83 493f 64b3 3bbe 075a 21bf db64 d4be
00000290: 7f76 c73d 0ad8 17bf 88fc c6be 8930 f83e
000002a0: 6a80 8f3e e0a7 e53d 0ac2 9abf 2161 92bf
000002b0: f96f 14be 9046 32bd f8da a1be 6c1b 3a3f
000002c0: 1e7f 0fbf fdf1 78be 9063 0b3f de92 bdbd
000002d0: 58b2 ae3e 5287 0d3f e7d4 2a3d 2c61 9bbe
000002e0: 886f a43d bc07 8bbe 3019 3d3f bcda 473e
000002f0: a9ea cfbe 29ca 09bf ab73 4dbd 2deb afbd
00000300: 428f 773d d696 c63e f6b4 3d3f 370e 85bc
00000310: ee9a 463f 0978 c13e c91a 12bc c3a3 20be
00000320: b6d4 8c3e d2ea 9c3e 6568 85be 6ba9 91bd
00000330: 4d36 013f 09ac fc3e 9441 db3e 2c7e 65be
00000340: f147 09bd 8f1d ee3e 286c 3a3f c0b2 1fbf
00000350: d404 34be 7cd9 803c d39a 0abf 6f4a ef3d
00000360: 0550 76be 6c22 dfbc 938e 0fbf e44a 463d
00000370: 7b5f 52be 1926 50be ef6f cf3e e63f c4bd
00000380: 114b 51be 797c 483e 4f96 3cbe e0c5 5bbe
00000390: 5269 023f 06fc 04bd b32c 1ebf a75d 40bd
000003a0: 5ddc 0ebe b11f 0bbf d3be de3e 8574 12bf
000003b0: 14a1 19bf b237 7abd 8b26 de3e df44 ae3d
000003c0: 442b 13bf 9161 04be fe6c 4a3f b661 b6be
000003d0: d603 14bf f4ca acbe 40fb 1f3f 052c 0c3f
000003e0: a4d8 083e fb56 643f 839f 403e 016e 343e
000003f0: 7435 473e 0039 c8be 3f22 7fbe 8e20 b8be
0.066778585 -0.09200737 0.23013856 -0.41211712 -0.19486314 -0.42860746 -0.1801691 0.055687293
0.22325289 0.66120905 -0.87769467 0.1523236 -0.73897684 0.06807631 0.13423268 -0.12019651
0.31526288 -0.26343414 0.21305414 0.27782792 0.08493235 0.3171217 0.7040628 0.28813633
-0.12419859 -0.19073476 -0.17402221 -0.08278867 -0.08320816 0.9983809 0.99400634 0.35096806
0.43682575 -0.22780775 -0.35137936 -0.16707563 -0.24401516 -0.48874563 0.39640483 -0.64096105
0.14258404 -0.11828746 0.41706535 -0.041636057 0.11519176 -0.7006503 -0.6368115 0.024913134
0.19992915 1.0583628 -0.046177465 0.49117625 0.70586514 0.0034219068 0.021400815 0.6507271
0.35717106 0.3551722 -0.2076308 -0.18432152 0.87801844 0.06436449 0.4254001 -0.090462156
-0.4579827 0.38387975 -0.5409072 -0.3542146 -0.3843868 0.25931707 -0.17095527 0.37507188
-0.024685998 -0.1784015 0.6308484 -0.049770672 0.35937393 -0.30988675 -0.38723 0.3035082
0.40879768 0.16725682 -0.25424314 -0.053033758 0.4006137 -0.28404954 -0.86729753 -0.34265587
0.17614616 -0.11090302 0.44356054 0.09518115 -0.077628456 0.32802966 0.16444144 -0.07758964
0.29064196 0.53059614 0.1751932 0.17004259 0.14204688 0.53599703 -0.14786251 0.7000408
-0.4213588 0.16417187 -0.1320203 0.13536803 -0.32206327 0.097648926 -0.1654578 -0.3419418
-0.015051385 -0.15952666 -0.42096668 0.11678227 0.16970207 0.04403337 -0.09752181 -0.08849392
-0.09456258 -0.12473744 0.037508592 -0.17143463 -0.2472023 -0.45793432 -0.29875842 0.06779848
0.509975 0.044009626 0.37193066 0.41124964 0.17408615 -0.23575568 0.34136528 0.47424066
0.15232284 0.3827493 -0.41804427 -0.12432946 -0.15669912 0.30908188 -0.36494473 -0.18557553
0.052472953 -0.1668783 -0.24917498 -0.36377123 0.08099991 0.8579571 -1.3455279 -0.67511547
0.06987154 0.8738852 0.87359685 0.21297376 0.056252822 0.054788597 -0.14453717 -0.009265529
0.78716063 -0.18330151 -0.63027996 -0.41483197 0.09739398 -0.59314024 -0.3886454 0.4847453
0.2802766 0.1121366 -1.2090466 -1.1435891 -0.14495839 -0.043524325 -0.31612372 0.7269809
-0.5605334 -0.24311061 0.54448795 -0.09256528 0.3412044 0.5528461 0.041706946 -0.30347574
0.080290854 -0.27154338 0.7386656 0.19517034 -0.4060872 -0.53824097 -0.050159138 -0.08589778
0.060439356 0.38786954 0.7410425 -0.01624213 0.77580154 0.37786892 -0.008917519 -0.1568747
0.27506036 0.30647904 -0.2605621 -0.07112392 0.5047348 0.49350002 0.4282347 -0.22411412
-0.033515874 0.46506926 0.72821283 -0.62382126 -0.17579967 0.015728705 -0.54142493 0.11684119
-0.24053963 -0.027238093 -0.56076926 0.048411265 -0.20544235 -0.20327033 0.40515086 -0.095825
-0.20438792 0.19578733 -0.18416713 -0.21462202 0.50941956 -0.03246691 -0.61786956 -0.046964314
-0.1395125 -0.5434523 0.43504962 -0.57209045 -0.6001141 -0.06108827 0.4338878 0.0850923
-0.57487893 -0.12927844 0.7907256 -0.35621423 -0.57818353 -0.3374859 0.6249275 0.5475467
0.13363892 0.8919522 0.18810849 0.17620088 0.19453984 -0.39105988 -0.24915408 -0.35962337

temporal_blocks.2.chan_norm1.weight f4 [16]
00000000: 3c4a 953f 9de0 983f 8ac8 8e3f 256a 983f
00000010: 050b a83f 5900 8e3f dcfa be3f 63af 923e
00000020: ed62 a03f 1db0 cd3f 91f1 af3f 70b3 9f3f
00000030: 3375 753f 8d13 a63f 0ada ad3f 9489 903f
1.166328 1.1943547 1.115495 1.1907393 1.3128363 1.1093856 1.4920306 0.28649434
1.253019 1.606937 1.3745595 1.2476635 0.95881957 1.2974716 1.3582165 1.1291986

temporal_blocks.2.chan_norm1.bias f4 [16]
00000000: ef66 5f3e 8508 acbd f1bb 8bbd 17f8 94be
00000010: e1cb 23be 0075 353e 846d 40be 4304 c73e
00000020: 69ff 323d 81c1 b7bc 93cf f93d ca18 fcbc
00000030: f246 c9be 0c4b d6be 4240 acbe 7357 e9bc
0.2181661 -0.084000625 -0.06822956 -0.29095528 -0.15995742 0.17720413 -0.18791777 0.3887044
0.04370061 -0.022431137 0.12197795 -0.03077354 -0.3931194 -0.4185413 -0.33642775 -0.028484082

temporal_blocks.2.chan_norm2.weight f4 [16]
00000000: 34da 8240 cb4a 5d40 bc9a 9240 4443 5d40
00000010: 4375 6040 5d5d 6b40 51bf 2e40 7b37 9840
00000020: e8db 5740 949b 4240 3c5f 4840 f042 8240
00000030: d99e 5240 d3d6 8640 c4da 7f40 6910 6740
4.089136 3.45769 4.5813885 3.4572306 3.507157 3.6775734 2.730427 4.7567725
3.372797 3.0407457 3.1308126 4.070671 3.2909453 4.2137237 3.9977274 3.6103766

temporal_blocks.2.chan_norm2.bias f4 [16]
00000000: a226 a83e 4cbf c93e 880d 39bd 7ab9 593c
00000010: 9b96 943e 421e e13e 61a2 b1bd a693 b13e
00000020: 363b ad3d 3b3e f33e 0f6f a93d b316 fa3e
00000030: 89eb b8be 20ab 763e ed8f 863d 3dc3 aa3e
0.32841974 0.3940376 -0.04517892 0.01328885 0.29021153 0.43968397 -0.086735494 0.3468296
0.08458559 0.47508416 0.08273136 0.48845443 -0.361172 0.24088717 0.065704204 0.3335208

temporal_blocks.2.downsample.weight f4 [16, 8, 1, 1]
00000000: 5c27 103f b26b 41c0 00d4 2f3a 0c85 fe3e
00000010: 04b4 143e 52ca 63be 5dc9 aa3e 972e 1ebf
00000020: 8e5b 5fc0 ec5a e0bc 029c e93c e3a1 243f
00000030: b572 d2bf c722 2f3f ba3e 80bf 6209 6ebf
00000040: f0cc 4e3e 9a19 c53e 62c5 27bd 44de 1f3f
00000050: d61a 0fbf d3c5 d53e e3bf 3dbf 2ef8 94be
00000060: c998 88bf 406f 1cc0 52dc 12bd 2c65 25be
00000070: 7bfb be3d 488d 4bc0 bbfa cbbf eccb 863e
00000080: bb0e 16be 16eb afbb 2cab c63e c94a 84bd
00000090: 847c 05be b353 383e 7e7a 04bf 163c bd3e
000000a0: 2a0f 4c3f df51 9bbf 36a9 0bbf 4cc8 80bf
000000b0: 83f2 37c0 d3c1 2a3f 8ba4 033f 8891 23bf
000000c0: 61d1 70bf b993 bdbd 8f6f 383e 24ca f93e
000000d0: 1d5d 30be eeb0 403f 38b6 90bf fdf1 34bf
000000e0: 5da4 f53d 8408 283d 55d2 ee3e 668a 69be
000000f0: cb61 5abe dfd1 eb3d ad01 14bc a017 da3d
00000100: 5300 7abd ad6d 293f 3500 69be 83d8 bc3e
00000110: 03d2 023f 7ae6 cebf b741 43bf 1416 df3d
00000120: 47f5 0a3f 054f 5ec0 cd90 a5be 3bb5 013f
00000130: 573c 95bd c343 9f3c 46d9 153f 92c7 ba3e
00000140: 59ba f33d 14a3 00be 941f 97be 7aad f6bc
00000150: 7964 f5bd 3949 06bf 53c7 b93c 2b32 04be
00000160: d2fc 50bf 992d 31bf 61e5 04bf 2db8 423f
00000170: 9a82 bebf 927d 5dbf 78f3 90be fcc5 f0be
00000180: 6dcc 993e 5b44 d73e 6657 4ebf eda3 30bf
00000190: 07a3 2c3d edd6 213f 65e9 143f 68dc 22bf
000001a0: 2f3d b9bf 1770 0bc0 406e 1fbe 1cb3 59be
000001b0: f5c3 4cbf 4411 503f e735 483f c2d7 2f3b
000001c0: a42f ef3e d7e8 f6bf 42a9 da3c 6362 2c3e
000001d0: 55d5 f0bf 7495 413f adb1 8cbc 3f04 62bd
000001e0: f56d 0a3f f02b ebbf 4b34 0bbe bea6 dcbe
000001f0: cbe2 73bf bf3d 433f 2c78 693f d71b 02be
0.5631006 -3.0221982 0.00067073107 0.49710882 0.14521796 -0.22245148 0.33356753 -0.6178984
-3.489963 -0.027387105 0.028516773 0.6430952 -1.6441256 0.6841244 -1.0019143 -0.9298307
0.20195365 0.38496095 -0.040959723 0.62448525 -0.55900323 0.4175249 -0.7412092 -0.29095596
-1.0671626 -2.4442902 -0.035854645 -0.16151875 0.0932531 -3.1804981 -1.5935892 0.26327455
-0.14654057 -0.0053686006 0.3880247 -0.06459577 -0.1303578 0.18000679 -0.5174941 0.36959904
0.7971064 -1.213436 -0.5455507 -1.0061126 -2.8741767 0.66702 0.5142295 -0.6389394
-0.94069487 -0.092566915 0.18011306 0.48787034 -0.1722302 0.75269973 -1.1305609 -0.70681745
0.119942404 0.041023746 0.46644846 -0.22806701 -0.21326368 0.11514639 -0.009033603 0.10649037
-0.061035465 0.66182977 -0.22753985 0.36883935 0.511017 -1.6164086 -0.7627215 0.10892883
0.54280514 -3.473573 -0.32337037 0.5066716 -0.072868995 0.019441491 0.5853466 0.36480385
0.11900777 -0.1256221 -0.2951628 -0.030112017 -0.11982054 -0.5245548 0.022678053 -0.12909763
-0.81635773 -0.692102 -0.51912504 0.7606228 -1.4883606 -0.8651973 -0.28310752 -0.4702605
0.30038777 0.4204434 -0.8060211 -0.6900013 0.042147662 0.63218576 0.5816863 -0.63617563
-1.4471797 -2.1787164 -0.15569401 -0.21259731 -0.79986507 0.81276345 0.7820725 0.0026831483
0.46716034 -1.9289807 0.026692037 0.16834407 -1.8815104 0.7561867 -0.017174566 -0.05517983
0.5407403 -1.8372784 -0.13594167 -0.43095964 -0.95267934 0.7626609 0.9119899 -0.12705933

temporal_blocks.2.downsample.bias f4 [16]
00000000: 3d25 98bc 2fa9 b0bc 3471 9a3e 8269 d0be
00000010: 2626 8e3d 9012 ac3c 813c 263e 7be0 133d
00000020: 3134 f4be 619a c8bc 21dd bd3e 7360 a63e
00000030: c836 423d e7bf e2bd c08e 47be 7f9d 14be
-0.018572444 -0.021565048 0.30164492 -0.40705496 0.0694087 0.021004945 0.16234018 0.036102753
-0.4769607 -0.024487676 0.3708277 0.3249546 0.047415525 -0.11071759 -0.19488049 -0.14513205

fc.weight f4 [5, 16]
00000000: e457 833f 3fc4 09bf e260 74bf 4bb3 783b
00000010: 6d0b fc3f 258c 973f 5b4b 0e3e a745 903f
00000020: 9957 903f cad1 4ebf 6b76 d13f 04a0 8ebf
00000030: 8658 e1bf 73a9 263f 6fcd 41c0 2bb4 b6bf
00000040: 86a3 43bf 675b c0bf f567 3b40 b4c8 9abf
00000050: 05a6 b0bd 3133 41c0 a12c 2f3f 7e0b 913f
00000060: fd76 8ebf 9e98 a43e b401 a6be 3153 1b40
00000070: b052 023e 3462 0dc0 7564 8e3f 2919 48bf
00000080: 91b0 95bf e6e7 b7bf a291 7ebf 348d ebbf
00000090: 2e0f 9fbf 804f ca3f 86b3 89bf 7200 03c0
000000a0: 80a1 c33f 6ed8 c13f 75b1 c7be 0287 533f
000000b0: 6bf4 e83f b3fc e7bd 0818 1a3e 37e8 2040
000000c0: 0e66 ebbf dde3 dc3f eae1 73bf 1603 f63f
000000d0: 06f1 b9be 485b d5bf 698a 8fbe 29e7 a8be
000000e0: 666f 93bf 6636 52bf 883e 523d 2b30 a5bf
000000f0: a61c 72be b7a0 2c40 46ee 9d3f 1641 1f3f
00000100: beef 0f40 7f47 c73f e40a 0f3f 50bb c43f
00000110: d89b 7bbf 1482 9a3f dda3 1d3f 7c28 1a3d
00000120: 2c8e 7ebf 34e0 94bf bbfc 48bf 6c44 d0bf
00000130: 61d1 1b3f 8b9c 04c0 1d38 653f cda9 48bf
1.0261197 -0.5381507 -0.9546033 0.0037948664 1.9690987 1.1839644 0.13895933 1.1271256
1.1276733 -0.8078886 1.6364263 -1.1142583 -1.760514 0.6510231 -3.0281637 -1.4273733
-0.7642139 -1.5027894 2.92822 -1.20925 -0.08625416 -3.0187495 0.68427473 1.1331632
-1.1130062 0.32147688 -0.32423174 2.4269526 0.12726855 -2.2091188 1.1124407 -0.7816339
-1.1694509 -1.4367645 -0.9944097 -1.8402467 -1.2426507 1.5805511 -1.0757911 -2.0469022
1.5283661 1.5144174 -0.39002576 0.8262788 1.819959 -0.113274954 0.1504823 2.5141733
-1.839052 1.7257038 -0.9526659 1.9219692 -0.363167 -1.6668482 -0.28035286 -0.3298886
-1.1518371 -0.82114255 0.051329166 -1.2905325 -0.23643741 2.6973093 1.233834 0.6220869
2.2490077 1.5568694 0.5587599 1.5369663 -0.98284674 1.2070947 0.6157816 0.037636265
-0.9943569 -1.1630921 -0.78510636 -1.6270881 0.6086636 -2.0720546 0.8953875 -0.78384095

fc.bias f4 [5]
00000000: e886 b43e f35e 2c3e 4474 1abe 9c7f c9bd
00000010: d03a 0dbe
0.35259175 0.16833095 -0.15083414 -0.09838793 -0.13791966

exp_avg f4 [4, 1, 1, 5]
00000000: a8cb 7b3a 7731 7b3a efb3 843a 92cb ba3a
00000010: 85f6 973a f24b 073b 25eb 0c3b 1b17 173b
00000020: 3d10 013b b2d1 2a3b 1069 c6bc ff38 c3bc
00000030: a72e c0bc ac93 b7bc cb58 d9bc 2fa1 ad3c
00000040: 08c2 a93c 9300 a53c 0dc5 9b3c c8fa b93c
0.0009605237 0.0009582261 0.0010124425 0.0014251343 0.0011593854 0.0020644632 0.0021502462 0.0023054543
0.0019693517 0.002606493 -0.02422002 -0.023830889 -0.023459746 -0.022409283 -0.026531598 0.021195022
0.020722404 0.020141875 0.01901486 0.02270259

exp_avg_sq f4 [4, 1, 1, 5]
00000000: 2eaf 9538 c086 a638 3df6 da38 6ad9 2f39
00000010: eb61 b938 53b6 9739 56c4 8a39 e91c 8a39
00000020: 6aad 9e39 2422 8339 e5da 5e3c e4e4 5c3c
00000030: 2b99 5c3c a335 5d3c 658f 4b3c a95e 803c
00000040: 05ba 7e3c f80c 7d3c 8d24 7c3c 642f 633c
7.1375034e-05 7.940596e-05 0.000104409155 0.00016770294 8.839726e-05 0.00028936806 0.00026467693 0.0002634295
0.00030265312 0.00025011704 0.013601993 0.013482306 0.013464252 0.0135015575 0.012424325 0.015670137
0.01554728 0.0154449865 0.015389574 0.013866279

exp_avg f4 [4, 4, 1, 5]
00000000: 512e e339 3507 cd39 32cc 103a 0b75 223a
00000010: ac1c b839 b9fb 12ba 8098 43ba 99d0 30ba
00000020: a06b 5eba b495 21ba 2111 6c38 516f 1db9
00000030: 4f63 38b8 a5f6 123a 3279 bdb9 2ea1 d9b8
00000040: 723f fb39 68db 4ab9 db16 3bb9 387c 3239
00000050: 7417 ca37 08ef 62b8 5ba9 d8b8 c6aa dbb6
00000060: 39d2 c938 39c1 5e39 27c3 a939 3ac1 6f39
00000070: af5f 9c39 9f9e 6939 ed38 e737 c44e 7c39
00000080: 0553 a139 0eef 2639 a564 a4b7 cbbc 5338
00000090: feb1 aeb9 840f 37b9 ee0a 5b38 4dff 12b8
000000a0: 4f85 75ba d349 7bba 989c 5eba 0bb4 59ba
000000b0: 9bb7 83ba 5380 023a 02bb e939 a09a 1a3a
000000c0: a835 243a d31a 1f3a 92ad 5939 6caa 033a
000000d0: c249 7739 3dea 35b8 3305 68b8 0fbf 0039
000000e0: 553d 0bba 1b58 4cba da3f 40ba 4644 89b9
000000f0: d03a fb39 07f5 223a 96cb d139 40d9 6339
00000100: ab26 123a 07d4 1cb9 e2d7 c4b7 fde9 16b9
00000110: 57ce 9fb8 e8b2 5fb9 84cc 98b9 4d62 1bba
00000120: b3f5 02ba c253 31ba 8c9e d739 91bb 91b8
00000130: 52ed c939 5a69 963a cc54 613a 1bcc 0439
0.00043331322 0.00039106017 0.00055235915 0.00061972503 0.00035116577 -0.00056069676 -0.0007461384 -0.00067449507
-0.00084846653 -0.000616397 5.6282737e-05 -0.00015014155 -4.3961507e-05 0.0005606211 -0.00036139187 -0.000103773884
0.0004792172 -0.00019345956 -0.00017842224 0.00017021678 2.4091198e-05 -5.4105214e-05 -0.000103312275 -6.5465892e-06
9.623584e-05 0.00021243551 0.00032379592 0.00022864799 0.00029825929 0.00022279703 2.7563854e-05 0.00024061935
0.00030770167 0.00015920048 -1.959719e-05 5.0482147e-05 -0.0003332048 -0.0001745802 5.2223848e-05 -3.504688e-05
-0.0009365873 -0.0009585891 -0.0008491962 -0.00083047216 -0.0010049226 0.0004978228 0.00044580555 0.0005897675
0.0006264099 0.0006069366 0.00020759393 0.0005022648 0.00023583233 -4.3371914e-05 -5.5317953e-05 0.00012278206
-0.00053115684 -0.0007795111 -0.00073337334 -0.00026181544 0.0004791827 0.00062163215 0.0004001527 0.00021729339
0.000557522 -0.00014956306 -2.3465549e-05 -0.00014392282 -7.6201446e-05 -0.00021333585 -0.00029144075 -0.0005927429
-0.00049957185 -0.0006764495 0.00041126122 -6.949076e-05 0.00038514525 0.0011475489 0.00085957046 0.00012664536

exp_avg_sq f4 [4, 4, 1, 5]
00000000: c947 c437 7feb c537 d56d c937 5e35 c837
00000010: d61f c637 8cba 9937 8dc1 8d37 e59c 8f37
00000020: cd67 9137 a203 9137 5c56 3f37 c067 4737
00000030: afb7 4437 525c 7e37 c516 8b37 cfa8 2038
00000040: db0f a037 9b30 6f37 fe7b 8f37 0ee6 1637
00000050: de94 9336 b3db 8d36 f39f 9136 4348 9436
00000060: 740c 9436 73ec 8036 f410 7336 9cec 7536
00000070: 5e86 6d36 502a 6036 80df 0737 9941 aa36
00000080: d61e 8536 cb68 4636 938a 2636 b2ad 8b37
00000090: 4ae6 4037 5ea3 1437 3f4e 2b37 7154 ae36
000000a0: eebc 9937 963b 9a37 3754 9c37 88ac 9e37
000000b0: 1227 9f37 83ea 9037 6730 8a37 b805 8937
000000c0: 42e8 8237 4424 7c37 dc02 9236 1cc5 e936
000000d0: c809 f436 89dd 8b36 0adc 6436 ec20 9a37
000000e0: 1510 8c37 cef3 b937 57c7 0f38 68eb 3d37
000000f0: 1bba f237 7763 f237 4e89 f837 8f55 f837
00000100: 40d7 f637 c058 e136 1e26 d436 1065 cd36
00000110: 482e b836 f07b a336 82db 4537 ab85 5537
00000120: b866 7a37 b19f 5c37 8290 6137 e6ef 0038
00000130: 50ce d937 d4e3 0838 f09b 0538 a6a2 a237
2.3398448e-05 2.3593891e-05 2.4012212e-05 2.3866709e-05 2.3618264e-05 1.8325889e-05 1.6898639e-05 1.7119988e-05
1.7333683e-05 1.7287039e-05 1.1404594e-05 1.18854805e-05 1.1725278e-05 1.5161075e-05 1.6580694e-05 3.8304188e-05
1.908087e-05 1.4256827e-05 1.7104667e-05 8.9942605e-06 4.398272e-06 4.227704e-06 4.3399573e-06 4.419156e-06
4.4121934e-06 3.8422236e-06 3.621969e-06 3.664557e-06 3.5393964e-06 3.340323e-06 8.098665e-06 5.0740314e-06
3.9672987e-06 2.9565297e-06 2.4816588e-06 1.6650974e-05 1.149771e-05 8.859524e-06 1.0210612e-05 5.1954344e-06
1.8326999e-05 1.8385977e-05 1.8635865e-05 1.8915409e-05 1.897247e-05 1.727534e-05 1.6473421e-05 1.6334336e-05
1.5605361e-05 1.5028814e-05 4.351472e-06 6.9668877e-06 7.2729053e-06 4.168313e-06 3.4102727e-06 1.8373561e-05
1.669679e-05 2.2167249e-05 3.4279507e-05 1.1320088e-05 2.893531e-05 2.8894965e-05 2.9627841e-05 2.9603745e-05
2.9425719e-05 6.7158544e-06 6.3225298e-06 6.1212413e-06 5.489015e-06 4.872207e-06 1.1793223e-05 1.2726911e-05
1.4925077e-05 1.3150203e-05 1.3444691e-05 3.0741e-05 2.5964488e-05 3.263711e-05 3.18549e-05 1.9387644e-05

exp_avg f4 [4]
00000000: 132a 173b 4d1a 8539 545e 1cba 043a d738
0.002306585 0.00025387332 -0.0005964984 0.00010262805

exp_avg_sq f4 [4]
00000000: 8d0f 5439 854c 0339 14c5 8237 30f3 4237
0.00020223689 0.0001252164 1.558898e-05 1.1619923e-05

exp_avg f4 [4]
00000000: 9842 493a 1a2f d0ba 4104 823a 6499 c3ba
0.0007677465 -0.0015883178 0.0009919481 -0.0014923033

exp_avg_sq f4 [4]
00000000: 7f75 db38 c36d bb38 23be 483a 8977 153a
0.00010464619 8.9372996e-05 0.0007657727 0.0005701711

exp_avg f4 [4]
00000000: 3a36 9abb 0400 0000 ec77 15ba ab9b b53a
-0.0047061713 6e-45 -0.00057017687 0.0013855597

exp_avg_sq f4 [4]
00000000: 5460 183b 7ede 6d38 4342 963b d53c b939
0.0023250775 5.6712415e-05 0.0045855357 0.00035331273

exp_avg f4 [4]
00000000: 10f5 69bb 0400 0000 8cb9 10bb bd11 b73a
-0.0035699047 6e-45 -0.002208325 0.0013967078

exp_avg_sq f4 [4]
00000000: 4d66 f13a 1b21 2e39 0213 333b 5ec7 ca39
0.0018417329 0.00016606266 0.0027324562 0.00038676983

exp_avg f4 [4, 1, 1, 1]
00000000: bf94 71bb af93 0a3b 8045 d53b f34f 9d3a
-0.0036862341 0.0021145155 0.006508529 0.0012001976

exp_avg_sq f4 [4, 1, 1, 1]
00000000: 3524 cd3a 3f2f bc3a 2468 a23b 3bcd 3b3a
0.0015651049 0.0014357342 0.004956262 0.00071640656

exp_avg f4 [4]
00000000: 7c4f 08bc 88d7 81bc 8ebb f33a cc05 7bba
-0.008319732 -0.015849844 0.0018595324 -0.0009575754

exp_avg_sq f4 [4]
00000000: 452a 523b 7344 7d3b ccec 073c 6eb0 d63a
0.0032068652 0.0038645535 0.008296203 0.0016379484

exp_avg f4 [8, 4, 1, 5]
00000000: a746 f53a 7568 d13a dcf9 0a3b 8668 ab3b
00000010: 499d a83b ecbb ef3b 69e6 c43b 78a4 993b
00000020: 2557 8f3b 2b38 4d3b f73a 963b ae82 973b
00000030: 0e43 b63b 5b49 dd3b 431d d23b bf44 aa3a
00000040: bc53 de3a 3531 0b3b 0079 8b3b 9a23 943b
00000050: 523a dd39 758f 43ba e535 7dba 8584 5ebb
00000060: 7821 39bb ccf6 9d3b 491e c83b f3de b53b
00000070: 1742 a23b 8535 4b3b 926d 263a 6806 7dba
00000080: d564 15b9 ffe3 16ba 6fbf 9139 28e3 85b9
00000090: 65b9 41ba f39e 46ba 3cea 13bb dd9e d3ba
000000a0: dd4d adbb 0136 a0bb ffe5 ccbb e6c6 10bc
000000b0: f2fd 3bbc e12f 77bc a837 69bc 7247 4dbc
000000c0: 381d 20bc 35ef 12bc 5695 18bc baa2 35bc
000000d0: 3822 4abc e381 73bc 7dd4 7ebc 6ee5 22bb
000000e0: 1aaa 46bb fc8d 95bb 4357 dfbb 765b 10bc
000000f0: 90f6 4b3b bef3 7e3b d492 793b da26 403b
00000100: 1866 363b 37cb fb3b 88ce 043c 793d 133c
00000110: 00e1 093c 3c77 0a3c b096 af3b 33c0 8a3b
00000120: 0d2a a23b efd6 a83b d5c8 bf3b 9bea 983a
00000130: 0ccc 9b3a 0da9 443a c70e 2c3a ed95 803a
00000140: db6a e9b8 3a41 eab9 519d 36b9 96a8 7aba
00000150: 8f92 7dba de9a 0cbb f05e f4ba 616d 12bb
00000160: 5f27 f4ba 1375 5fba 9b26 4aba 18fc 45b9
00000170: d5c5 40ba 76e3 9dba c5ef d4ba 0bbf a2b9
00000180: 4e48 d4b9 7019 37b9 5f7a 35ba a21c ecb9
00000190: c668 343a d163 86b8 398e d539 92b4 1c3b
000001a0: 1b34 783b a2b0 a23a cc8c ea3a 388a 113b
000001b0: e876 103a f00e c93a 58ee 8a3a f2f0 9d3a
000001c0: 610e fc3a b702 473b 2164 5e3b 3341 043a
000001d0: b7b9 7e39 9bc4 2a3a 258b 083b 69aa 253b
000001e0: 65ca 21bb c5cb 22bb 3f85 2fbb 0a99 8bbb
000001f0: e256 73bb 07d4 b7bb 6e70 aabb db31 81bb
00000200: c52e 61bb 7b4e 4fbb 0b20 b7bb cebf 83bb
00000210: 92ba abbb 82ad b9bb a59f b9bb 5f66 daba
00000220: fc7f 0cbb ecea 0ebb fd49 5fbb 875e 44bb
00000230: 3cac e83a f0ee 4d3b 1092 733b ece7 e13b
00000240: 0700 ee3b 885c e93a 166c 3aba f497 33bb
00000250: dc1c 53bb 8ae9 53bb 9a34 843b c916 cb3b
00000260: 3552 c53b f764 f13b 7050 e23b c809 e53a
00000270: 594f 573b 1409 883b 3860 ca3b 6671 bf3b
0.0018713073 0.0015976565 0.0021206057 0.005230966 0.005145703 0.007316103 0.0060089123 0.0046887957
0.004374402 0.0031313996 0.004584666 0.0046237325 0.0055621928 0.0067531294 0.0064121797 0.0012990459
0.0016962211 0.0021239046 0.0042563677 0.0045208456 0.00042195857 -0.00074600364 -0.0009659215 -0.00339535
-0.0028248709 0.0048206802 0.006107126 0.0055502593 0.004951726 0.0031007242 0.0006348725 -0.00096521387
-0.0001424731 -0.000575602 0.00027799184 -0.0002553698 -0.00073899917 -0.0007576786 -0.0022570034 -0.0016145367
-0.005288823 -0.0048892503 -0.0062530036 -0.008836484 -0.0114741195 -0.015087099 -0.014234461 -0.012529241
-0.009772591 -0.008968164 -0.009312948 -0.01108616 -0.01233726 -0.01486251 -0.015553591 -0.002485599
-0.003031379 -0.004564045 -0.0068158223 -0.0088108685 0.0031122304 0.0038902606 0.00380819 0.0029320032
0.0027831849 0.007684137 0.0081058815 0.008986824 0.008415461 0.008451279 0.0053585395 0.0042343377
0.0049488605 0.005152575 0.0058527985 0.0011666598 0.0011886372 0.0007501997 0.00065634813 0.0009810306
-0.00011130209 -0.00044680556 -0.00017415477 -0.00095618644 -0.0009673023 -0.0021454613 -0.0018644016 -0.0022343027
-0.0018627456 -0.00085242203 -0.0007711441 -0.00018881296 -0.0007353698 -0.0012045938 -0.0016245773 -0.00031041386
-0.00040489662 -0.00017461716 -0.0006922837 -0.0004503476 0.00068820675 -6.40821e-05 0.0004073249 0.002391134
0.0037872854 0.001241226 0.0017894744 0.002220763 0.00055108825 0.0015339535 0.0010599596 0.0012049957
0.001923036 0.0030366608 0.0033934193 0.0005045116 0.00024292512 0.0006514282 0.002083489 0.0025278574
-0.0024687287 -0.0024840694 -0.0026782302 -0.004260187 -0.0037130644 -0.0056099924 -0.005201391 -0.003942711
-0.0034360152 -0.0031632471 -0.0055885366 -0.0040206676 -0.005240747 -0.0056664357 -0.005664783 -0.0016662589
-0.002143859 -0.0021807505 -0.00340712 -0.002996357 0.0017751525 0.0031422935 0.0037165917 0.0068941023
0.007263187 0.0017804066 -0.0007111443 -0.0027403804 -0.0032213246 -0.0032335245 0.004034591 0.0061977846
0.0060217627 0.0073667723 0.0069065616 0.0017474229 0.0032853691 0.004151473 0.006176021 0.0058423756

exp_avg_sq f4 [8, 4, 1, 5]
00000000: 7698 9839 c9a8 a739 24c3 fc39 b3fa 8d3a
00000010: 93e0 d33a 40ef 313a 32b3 db39 287c a339
00000020: 8901 5b39 86dd 4139 eeca 123a 11c7 4a3a
00000030: ca8f 413a 7073 683a fd9e 7e3a 3e4e db38
00000040: 77ee 1e39 afc8 8f39 b602 163a 8f00 5d3a
00000050: 2ecd d439 3340 5139 31ff 4839 2979 cf39
00000060: 0f2e 3c3a 329d c63a 3343 e23a b023 d73a
00000070: 870c 933a dc0e 6b3a bf02 1b3a 622b fe39
00000080: 5b6a 133a cd55 623a 987c 9a3a 5567 5838
00000090: 65e7 fe37 ebd2 2638 e906 fb38 21ab 7c39
000000a0: 6214 d23a fd9a ac3a b03e e33a b14d 513b
000000b0: 2e6a 903b 91a0 253b a878 093b 38b7 d63a
000000c0: 0da2 853a 1705 7d3a 3cf8 cf3a 9fce f13a
000000d0: 792f 1e3b e2e2 543b c3e3 6d3b 2104 e439
000000e0: a9fe e139 b5ef 2e3a 736b a93a b913 ee3a
000000f0: 713e 303b 5a82 ff3a c204 d53a e11f e43a
00000100: 2da4 d13a 98ca eb3a 76e7 0d3b 072e 123b
00000110: 1bb6 003b 8d50 073b 9bb0 013b e330 f63a
00000120: 4709 003b 0db5 103b 79a0 163b c5d9 3e3a
00000130: ee5d 0b3a 8be4 e639 2a02 003a 0d9b ea39
00000140: e897 3a38 0cf6 d137 d594 c437 41bf be38
00000150: 9380 2d39 94f7 123a a50b fa39 2181 a639
00000160: 654e 2639 9825 0839 d50e b938 d387 d138
00000170: cca0 ec38 7fd6 5b39 1f7c 9739 e4c3 0437
00000180: 1d78 2537 9973 2737 71ae 1c38 f220 9a38
00000190: 253b 8739 0b47 6239 02ec 9439 6e72 423a
000001a0: 55c9 6b3a 79a3 e739 69c8 fc39 39da 093a
000001b0: bb45 9c39 13fc e539 6550 8f39 e0fb bd39
000001c0: 25db be39 1651 123a 3c11 393a d820 d638
000001d0: 0150 b638 b6d2 0139 6827 a439 963d ca39
000001e0: 3d07 f039 6b62 b939 ee09 ab39 6a8b 283a
000001f0: 46c9 6a3a 5c34 073a 2780 ae39 cfa7 e239
00000200: 8a54 c539 06c6 473a c77a cb39 3250 0a3a
00000210: 687d b839 1122 e539 fd47 133a 0a23 1939
00000220: 5a72 0539 9c82 1739 0822 9b39 efc2 cc39
00000230: b3a8 223b c071 003b caf7 073b b17c 623b
00000240: d613 8d3b 1b82 533b c881 883b 7159 913b
00000250: d6f3 4c3b 4b42 3a3b 549f 2a3b c751 223b
00000260: bcb7 283b 6875 593b d76a 793b 9928 243a
00000270: 6dff 063a c395 283a b979 9f3a 42a1 d43a
0.00029105291 0.00031978477 0.00048210577 0.001083216 0.0016164951 0.0006787665 0.00041904446 0.00031182286
0.0002088604 0.00018488438 0.0005599697 0.00077353517 0.0007383792 0.0008867299 0.0009713022 0.000104573075
0.0001515689 0.00027424606 0.000572245 0.0008430564 0.00040588662 0.0001995571 0.00019168553 0.00039572388
0.0007178494 0.0015153049 0.0017262459 0.0016413834 0.0011218943 0.0008966753 0.000591319 0.00048478978
0.0005623453 0.0008634001 0.0011786399 5.159465e-05 3.0386911e-05 3.9773917e-05 0.000119699 0.00024096343
0.0016027803 0.0013168749 0.0017337408 0.0031937177 0.004407189 0.0025272707 0.0020976458 0.0016381508
0.001019539 0.00096519425 0.0015866826 0.0018448419 0.0024137183 0.0032483866 0.0036299087 0.00043490625
0.0004310508 0.00066732924 0.0012925699 0.0018163837 0.0026892687 0.0019493804 0.0016252028 0.001740452
0.0015994363 0.0017989455 0.0021652854 0.0022305266 0.0019639793 0.0020647377 0.0019789103 0.001878288
0.001953678 0.002208057 0.0022983833 0.0007280375 0.0005316426 0.00044039296 0.0004883135 0.0004474748
4.448733e-05 2.5029316e-05 2.3434326e-05 9.09553e-05 0.00016546463 0.000560635 0.00047692392 0.00031758196
0.00015860198 0.00012983975 8.82425e-05 9.991196e-05 0.00011283308 0.00020965374 0.00028893442 7.913422e-06
9.862732e-06 9.98089e-06 3.735576e-05 7.349429e-05 0.00025793273 0.00021579505 0.000284046 0.0007417564
0.00089945394 0.0004418155 0.00048214503 0.0005258653 0.00029806592 0.00043866094 0.00027334984 0.0003623655
0.000364029 0.0005581541 0.0007059758 0.00010210433 8.693338e-05 0.00012380895 0.00031309878 0.00038574327
0.0004578176 0.00035359277 0.0003262306 0.0006429466 0.00089563837 0.00051576435 0.00033283347 0.00043231106
0.00037637755 0.00076207554 0.00038810653 0.0005276232 0.0003518865 0.00043703665 0.0005618332 0.0001460427
0.00012726468 0.00014449138 0.0002958926 0.0003905515 0.002481979 0.001959905 0.002074706 0.0034559185
0.004305343 0.0032273594 0.0041658618 0.004435711 0.0031273267 0.0028420861 0.0026034908 0.0024767981
0.002574428 0.0033181552 0.0038058066 0.0006262153 0.0005149756 0.00064310076 0.0012167013 0.0016222375
